…
I0908 15:44:27.222690 25043 net.cpp:287] The NetState phase (0) differed from the phase (1) specified by a rule in layer accuracy@5
I0908 15:44:27.222853 25043 net.cpp:42] Initializing net from parameters: 
name: "CaffeNet"
state {
  phase: TRAIN
}
layer {
  name: "data"
  type: "ImageData"
  top: "data"
  top: "label"
  include {
    phase: TRAIN
  }
  transform_param {
    mirror: true
    crop_size: 227
    mean_value: 104
    mean_value: 117
    mean_value: 123
  }
  image_data_param {
    source: "train_manifest"
    batch_size: 96
    new_height: 256
    new_width: 256
  }
}
layer {
  name: "conv1"
  type: "Convolution"
  bottom: "data"
  top: "conv1"
  param {
    lr_mult: 1
    decay_mult: 1
  }
  param {
    lr_mult: 2
    decay_mult: 0
  }
  convolution_param {
    num_output: 96
    kernel_size: 11
    stride: 4
    weight_filler {
      type: "gaussian"
      std: 0.01
    }
    bias_filler {
      type: "constant"
      value: 0
    }
  }
}
layer {
  name: "relu1"
  type: "ReLU"
  bottom: "conv1"
  top: "conv1"
}
layer {
  name: "pool1"
  type: "Pooling"
  bottom: "conv1"
  top: "pool1"
  pooling_param {
    pool: MAX
    kernel_size: 3
    stride: 2
  }
}
layer {
  name: "norm1"
  type: "LRN"
  bottom: "pool1"
  top: "norm1"
  lrn_param {
    local_size: 5
    alpha: 0.0001
    beta: 0.75
  }
}
layer {
  name: "conv2"
  type: "Convolution"
  bottom: "norm1"
  top: "conv2"
  param {
    lr_mult: 1
    decay_mult: 1
  }
  param {
    lr_mult: 2
    decay_mult: 0
  }
  convolution_param {
    num_output: 256
    pad: 2
    kernel_size: 5
    group: 2
    weight_filler {
      type: "gaussian"
      std: 0.01
    }
    bias_filler {
      type: "constant"
      value: 1
    }
  }
}
layer {
  name: "relu2"
  type: "ReLU"
  bottom: "conv2"
  top: "conv2"
}
layer {
  name: "pool2"
  type: "Pooling"
  bottom: "conv2"
  top: "pool2"
  pooling_param {
    pool: MAX
    kernel_size: 3
    stride: 2
  }
}
layer {
  name: "norm2"
  type: "LRN"
  bottom: "pool2"
  top: "norm2"
  lrn_param {
    local_size: 5
    alpha: 0.0001
    beta: 0.75
  }
}
layer {
  name: "conv3"
  type: "Convolution"
  bottom: "norm2"
  top: "conv3"
  param {
    lr_mult: 1
    decay_mult: 1
  }
  param {
    lr_mult: 2
    decay_mult: 0
  }
  convolution_param {
    num_output: 384
    pad: 1
    kernel_size: 3
    weight_filler {
      type: "gaussian"
      std: 0.01
    }
    bias_filler {
      type: "constant"
      value: 0
    }
  }
}
layer {
  name: "relu3"
  type: "ReLU"
  bottom: "conv3"
  top: "conv3"
}
layer {
  name: "conv4"
  type: "Convolution"
  bottom: "conv3"
  top: "conv4"
  param {
    lr_mult: 1
    decay_mult: 1
  }
  param {
    lr_mult: 2
    decay_mult: 0
  }
  convolution_param {
    num_output: 384
    pad: 1
    kernel_size: 3
    group: 2
    weight_filler {
      type: "gaussian"
      std: 0.01
    }
    bias_filler {
      type: "constant"
      value: 1
    }
  }
}
layer {
  name: "relu4"
  type: "ReLU"
  bottom: "conv4"
  top: "conv4"
}
layer {
  name: "conv5"
  type: "Convolution"
  bottom: "conv4"
  top: "conv5"
  param {
    lr_mult: 1
    decay_mult: 1
  }
  param {
    lr_mult: 2
    decay_mult: 0
  }
  convolution_param {
    num_output: 256
    pad: 1
    kernel_size: 3
    group: 2
    weight_filler {
      type: "gaussian"
      std: 0.01
    }
    bias_filler {
      type: "constant"
      value: 1
    }
  }
}
layer {
  name: "relu5"
  type: "ReLU"
  bottom: "conv5"
  top: "conv5"
}
layer {
  name: "pool5"
  type: "Pooling"
  bottom: "conv5"
  top: "pool5"
  pooling_param {
    pool: MAX
    kernel_size: 3
    stride: 2
  }
}
layer {
  name: "fc6"
  type: "InnerProduct"
  bottom: "pool5"
  top: "fc6"
  param {
    lr_mult: 1
    decay_mult: 1
  }
  param {
    lr_mult: 2
    decay_mult: 0
  }
  inner_product_param {
    num_output: 4096
    weight_filler {
      type: "gaussian"
      std: 0.005
    }
    bias_filler {
      type: "constant"
      value: 1
    }
  }
}
layer {
  name: "relu6"
  type: "ReLU"
  bottom: "fc6"
  top: "fc6"
}
layer {
  name: "drop6"
  type: "Dropout"
  bottom: "fc6"
  top: "fc6"
  dropout_param {
    dropout_ratio: 0.5
  }
}
layer {
  name: "fc7"
  type: "InnerProduct"
  bottom: "fc6"
  top: "fc7"
  param {
    lr_mult: 1
    decay_mult: 1
  }
  param {
    lr_mult: 2
    decay_mult: 0
  }
  inner_product_param {
    num_output: 4096
    weight_filler {
      type: "gaussian"
      std: 0.005
    }
    bias_filler {
      type: "constant"
      value: 1
    }
  }
}
layer {
  name: "relu7"
  type: "ReLU"
  bottom: "fc7"
  top: "fc7"
}
layer {
  name: "drop7"
  type: "Dropout"
  bottom: "fc7"
  top: "fc7"
  dropout_param {
    dropout_ratio: 0.5
  }
}
layer {
  name: "fc8-t"
  type: "InnerProduct"
  bottom: "fc7"
  top: "fc8-t"
  param {
    lr_mult: 10
    decay_mult: 1
  }
  param {
    lr_mult: 20
    decay_mult: 0
  }
  inner_product_param {
    num_output: 100
    weight_filler {
      type: "gaussian"
      std: 0.01
    }
    bias_filler {
      type: "constant"
      value: 0
    }
  }
}
layer {
  name: "loss"
  type: "SoftmaxWithLoss"
  bottom: "fc8-t"
  bottom: "label"
  top: "loss"
}
I0908 15:44:27.222965 25043 layer_factory.hpp:74] Creating layer data
I0908 15:44:27.222986 25043 net.cpp:90] Creating Layer data
I0908 15:44:27.222996 25043 net.cpp:368] data -> data
I0908 15:44:27.223023 25043 net.cpp:368] data -> label
I0908 15:44:27.223037 25043 net.cpp:120] Setting up data
I0908 15:44:27.223378 25043 image_data_layer.cpp:36] Opening file train_manifest
I0908 15:44:27.230811 25043 image_data_layer.cpp:51] A total of 18611 images.
I0908 15:44:27.238221 25043 image_data_layer.cpp:74] output data size: 96,3,227,227
I0908 15:44:27.245384 25043 net.cpp:127] Top shape: 96 3 227 227 (14840352)
I0908 15:44:27.245424 25043 net.cpp:127] Top shape: 96 (96)
I0908 15:44:27.245434 25043 layer_factory.hpp:74] Creating layer conv1
I0908 15:44:27.245455 25043 net.cpp:90] Creating Layer conv1
I0908 15:44:27.245466 25043 net.cpp:410] conv1 <- data
I0908 15:44:27.245481 25043 net.cpp:368] conv1 -> conv1
I0908 15:44:27.245497 25043 net.cpp:120] Setting up conv1
I0908 15:44:27.988590 25043 net.cpp:127] Top shape: 96 96 55 55 (27878400)
I0908 15:44:27.988638 25043 layer_factory.hpp:74] Creating layer relu1
I0908 15:44:27.988654 25043 net.cpp:90] Creating Layer relu1
I0908 15:44:27.988662 25043 net.cpp:410] relu1 <- conv1
I0908 15:44:27.988672 25043 net.cpp:357] relu1 -> conv1 (in-place)
I0908 15:44:27.988684 25043 net.cpp:120] Setting up relu1
I0908 15:44:27.988737 25043 net.cpp:127] Top shape: 96 96 55 55 (27878400)
I0908 15:44:27.988746 25043 layer_factory.hpp:74] Creating layer pool1
I0908 15:44:27.988759 25043 net.cpp:90] Creating Layer pool1
I0908 15:44:27.988765 25043 net.cpp:410] pool1 <- conv1
I0908 15:44:27.988771 25043 net.cpp:368] pool1 -> pool1
I0908 15:44:27.988781 25043 net.cpp:120] Setting up pool1
I0908 15:44:27.988850 25043 net.cpp:127] Top shape: 96 96 27 27 (6718464)
I0908 15:44:27.988859 25043 layer_factory.hpp:74] Creating layer norm1
I0908 15:44:27.988870 25043 net.cpp:90] Creating Layer norm1
I0908 15:44:27.988878 25043 net.cpp:410] norm1 <- pool1
I0908 15:44:27.988884 25043 net.cpp:368] norm1 -> norm1
I0908 15:44:27.988894 25043 net.cpp:120] Setting up norm1
I0908 15:44:27.988904 25043 net.cpp:127] Top shape: 96 96 27 27 (6718464)
I0908 15:44:27.988921 25043 layer_factory.hpp:74] Creating layer conv2
I0908 15:44:27.988940 25043 net.cpp:90] Creating Layer conv2
I0908 15:44:27.988946 25043 net.cpp:410] conv2 <- norm1
I0908 15:44:27.988953 25043 net.cpp:368] conv2 -> conv2
I0908 15:44:27.988962 25043 net.cpp:120] Setting up conv2
I0908 15:44:27.992899 25043 net.cpp:127] Top shape: 96 256 27 27 (17915904)
I0908 15:44:27.992916 25043 layer_factory.hpp:74] Creating layer relu2
I0908 15:44:27.992926 25043 net.cpp:90] Creating Layer relu2
I0908 15:44:27.992933 25043 net.cpp:410] relu2 <- conv2
I0908 15:44:27.992940 25043 net.cpp:357] relu2 -> conv2 (in-place)
I0908 15:44:27.992949 25043 net.cpp:120] Setting up relu2
I0908 15:44:27.992997 25043 net.cpp:127] Top shape: 96 256 27 27 (17915904)
I0908 15:44:27.993005 25043 layer_factory.hpp:74] Creating layer pool2
I0908 15:44:27.993016 25043 net.cpp:90] Creating Layer pool2
I0908 15:44:27.993021 25043 net.cpp:410] pool2 <- conv2
I0908 15:44:27.993028 25043 net.cpp:368] pool2 -> pool2
I0908 15:44:27.993036 25043 net.cpp:120] Setting up pool2
I0908 15:44:27.993278 25043 net.cpp:127] Top shape: 96 256 13 13 (4153344)
I0908 15:44:27.993289 25043 layer_factory.hpp:74] Creating layer norm2
I0908 15:44:27.993299 25043 net.cpp:90] Creating Layer norm2
I0908 15:44:27.993306 25043 net.cpp:410] norm2 <- pool2
I0908 15:44:27.993314 25043 net.cpp:368] norm2 -> norm2
I0908 15:44:27.993321 25043 net.cpp:120] Setting up norm2
I0908 15:44:27.993331 25043 net.cpp:127] Top shape: 96 256 13 13 (4153344)
I0908 15:44:27.993337 25043 layer_factory.hpp:74] Creating layer conv3
I0908 15:44:27.993345 25043 net.cpp:90] Creating Layer conv3
I0908 15:44:27.993351 25043 net.cpp:410] conv3 <- norm2
I0908 15:44:27.993358 25043 net.cpp:368] conv3 -> conv3
I0908 15:44:27.993368 25043 net.cpp:120] Setting up conv3
I0908 15:44:28.003840 25043 net.cpp:127] Top shape: 96 384 13 13 (6230016)
I0908 15:44:28.003859 25043 layer_factory.hpp:74] Creating layer relu3
I0908 15:44:28.003870 25043 net.cpp:90] Creating Layer relu3
I0908 15:44:28.003876 25043 net.cpp:410] relu3 <- conv3
I0908 15:44:28.003883 25043 net.cpp:357] relu3 -> conv3 (in-place)
I0908 15:44:28.003891 25043 net.cpp:120] Setting up relu3
I0908 15:44:28.003942 25043 net.cpp:127] Top shape: 96 384 13 13 (6230016)
I0908 15:44:28.003950 25043 layer_factory.hpp:74] Creating layer conv4
I0908 15:44:28.003960 25043 net.cpp:90] Creating Layer conv4
I0908 15:44:28.003967 25043 net.cpp:410] conv4 <- conv3
I0908 15:44:28.003973 25043 net.cpp:368] conv4 -> conv4
I0908 15:44:28.003983 25043 net.cpp:120] Setting up conv4
I0908 15:44:28.011955 25043 net.cpp:127] Top shape: 96 384 13 13 (6230016)
I0908 15:44:28.011972 25043 layer_factory.hpp:74] Creating layer relu4
I0908 15:44:28.011981 25043 net.cpp:90] Creating Layer relu4
I0908 15:44:28.011986 25043 net.cpp:410] relu4 <- conv4
I0908 15:44:28.011992 25043 net.cpp:357] relu4 -> conv4 (in-place)
I0908 15:44:28.012001 25043 net.cpp:120] Setting up relu4
I0908 15:44:28.012048 25043 net.cpp:127] Top shape: 96 384 13 13 (6230016)
I0908 15:44:28.012056 25043 layer_factory.hpp:74] Creating layer conv5
I0908 15:44:28.012065 25043 net.cpp:90] Creating Layer conv5
I0908 15:44:28.012071 25043 net.cpp:410] conv5 <- conv4
I0908 15:44:28.012079 25043 net.cpp:368] conv5 -> conv5
I0908 15:44:28.012089 25043 net.cpp:120] Setting up conv5
I0908 15:44:28.017580 25043 net.cpp:127] Top shape: 96 256 13 13 (4153344)
I0908 15:44:28.017598 25043 layer_factory.hpp:74] Creating layer relu5
I0908 15:44:28.017607 25043 net.cpp:90] Creating Layer relu5
I0908 15:44:28.017612 25043 net.cpp:410] relu5 <- conv5
I0908 15:44:28.017619 25043 net.cpp:357] relu5 -> conv5 (in-place)
I0908 15:44:28.017627 25043 net.cpp:120] Setting up relu5
I0908 15:44:28.017763 25043 net.cpp:127] Top shape: 96 256 13 13 (4153344)
I0908 15:44:28.017774 25043 layer_factory.hpp:74] Creating layer pool5
I0908 15:44:28.017786 25043 net.cpp:90] Creating Layer pool5
I0908 15:44:28.017793 25043 net.cpp:410] pool5 <- conv5
I0908 15:44:28.017802 25043 net.cpp:368] pool5 -> pool5
I0908 15:44:28.017810 25043 net.cpp:120] Setting up pool5
I0908 15:44:28.017871 25043 net.cpp:127] Top shape: 96 256 6 6 (884736)
I0908 15:44:28.017887 25043 layer_factory.hpp:74] Creating layer fc6
I0908 15:44:28.017905 25043 net.cpp:90] Creating Layer fc6
I0908 15:44:28.017912 25043 net.cpp:410] fc6 <- pool5
I0908 15:44:28.017920 25043 net.cpp:368] fc6 -> fc6
I0908 15:44:28.017932 25043 net.cpp:120] Setting up fc6
I0908 15:44:28.447015 25043 net.cpp:127] Top shape: 96 4096 (393216)
I0908 15:44:28.447052 25043 layer_factory.hpp:74] Creating layer relu6
I0908 15:44:28.447064 25043 net.cpp:90] Creating Layer relu6
I0908 15:44:28.447070 25043 net.cpp:410] relu6 <- fc6
I0908 15:44:28.447082 25043 net.cpp:357] relu6 -> fc6 (in-place)
I0908 15:44:28.447093 25043 net.cpp:120] Setting up relu6
I0908 15:44:28.447186 25043 net.cpp:127] Top shape: 96 4096 (393216)
I0908 15:44:28.447195 25043 layer_factory.hpp:74] Creating layer drop6
I0908 15:44:28.447206 25043 net.cpp:90] Creating Layer drop6
I0908 15:44:28.447212 25043 net.cpp:410] drop6 <- fc6
I0908 15:44:28.447218 25043 net.cpp:357] drop6 -> fc6 (in-place)
I0908 15:44:28.447230 25043 net.cpp:120] Setting up drop6
I0908 15:44:28.447242 25043 net.cpp:127] Top shape: 96 4096 (393216)
I0908 15:44:28.447248 25043 layer_factory.hpp:74] Creating layer fc7
I0908 15:44:28.447257 25043 net.cpp:90] Creating Layer fc7
I0908 15:44:28.447263 25043 net.cpp:410] fc7 <- fc6
I0908 15:44:28.447270 25043 net.cpp:368] fc7 -> fc7
I0908 15:44:28.447280 25043 net.cpp:120] Setting up fc7
I0908 15:44:28.637979 25043 net.cpp:127] Top shape: 96 4096 (393216)
I0908 15:44:28.638015 25043 layer_factory.hpp:74] Creating layer relu7
I0908 15:44:28.638027 25043 net.cpp:90] Creating Layer relu7
I0908 15:44:28.638034 25043 net.cpp:410] relu7 <- fc7
I0908 15:44:28.638046 25043 net.cpp:357] relu7 -> fc7 (in-place)
I0908 15:44:28.638056 25043 net.cpp:120] Setting up relu7
I0908 15:44:28.638151 25043 net.cpp:127] Top shape: 96 4096 (393216)
I0908 15:44:28.638160 25043 layer_factory.hpp:74] Creating layer drop7
I0908 15:44:28.638170 25043 net.cpp:90] Creating Layer drop7
I0908 15:44:28.638175 25043 net.cpp:410] drop7 <- fc7
I0908 15:44:28.638182 25043 net.cpp:357] drop7 -> fc7 (in-place)
I0908 15:44:28.638191 25043 net.cpp:120] Setting up drop7
I0908 15:44:28.638200 25043 net.cpp:127] Top shape: 96 4096 (393216)
I0908 15:44:28.638206 25043 layer_factory.hpp:74] Creating layer fc8-t
I0908 15:44:28.638216 25043 net.cpp:90] Creating Layer fc8-t
I0908 15:44:28.638221 25043 net.cpp:410] fc8-t <- fc7
I0908 15:44:28.638228 25043 net.cpp:368] fc8-t -> fc8-t
I0908 15:44:28.638239 25043 net.cpp:120] Setting up fc8-t
I0908 15:44:28.643064 25043 net.cpp:127] Top shape: 96 100 (9600)
I0908 15:44:28.643081 25043 layer_factory.hpp:74] Creating layer loss
I0908 15:44:28.643090 25043 net.cpp:90] Creating Layer loss
I0908 15:44:28.643095 25043 net.cpp:410] loss <- fc8-t
I0908 15:44:28.643103 25043 net.cpp:410] loss <- label
I0908 15:44:28.643115 25043 net.cpp:368] loss -> loss
I0908 15:44:28.643123 25043 net.cpp:120] Setting up loss
I0908 15:44:28.643132 25043 layer_factory.hpp:74] Creating layer loss
…
I0908 15:44:28.644282 25043 net.cpp:287] The NetState phase (1) differed from the phase (0) specified by a rule in layer data
I0908 15:44:28.644464 25043 net.cpp:42] Initializing net from parameters: 
name: "CaffeNet"
state {
  phase: TEST
}
layer {
  name: "data"
  type: "ImageData"
  top: "data"
  top: "label"
  include {
    phase: TEST
  }
  transform_param {
    mirror: false
    crop_size: 227
    mean_value: 104
    mean_value: 117
    mean_value: 123
  }
  image_data_param {
    source: "test_manifest"
    batch_size: 32
    new_height: 256
    new_width: 256
  }
}
layer {
  name: "conv1"
  type: "Convolution"
  bottom: "data"
  top: "conv1"
  param {
    lr_mult: 1
    decay_mult: 1
  }
  param {
    lr_mult: 2
    decay_mult: 0
  }
  convolution_param {
    num_output: 96
    kernel_size: 11
    stride: 4
    weight_filler {
      type: "gaussian"
      std: 0.01
    }
    bias_filler {
      type: "constant"
      value: 0
    }
  }
}
layer {
  name: "relu1"
  type: "ReLU"
  bottom: "conv1"
  top: "conv1"
}
layer {
  name: "pool1"
  type: "Pooling"
  bottom: "conv1"
  top: "pool1"
  pooling_param {
    pool: MAX
    kernel_size: 3
    stride: 2
  }
}
layer {
  name: "norm1"
  type: "LRN"
  bottom: "pool1"
  top: "norm1"
  lrn_param {
    local_size: 5
    alpha: 0.0001
    beta: 0.75
  }
}
layer {
  name: "conv2"
  type: "Convolution"
  bottom: "norm1"
  top: "conv2"
  param {
    lr_mult: 1
    decay_mult: 1
  }
  param {
    lr_mult: 2
    decay_mult: 0
  }
  convolution_param {
    num_output: 256
    pad: 2
    kernel_size: 5
    group: 2
    weight_filler {
      type: "gaussian"
      std: 0.01
    }
    bias_filler {
      type: "constant"
      value: 1
    }
  }
}
layer {
  name: "relu2"
  type: "ReLU"
  bottom: "conv2"
  top: "conv2"
}
layer {
  name: "pool2"
  type: "Pooling"
  bottom: "conv2"
  top: "pool2"
  pooling_param {
    pool: MAX
    kernel_size: 3
    stride: 2
  }
}
layer {
  name: "norm2"
  type: "LRN"
  bottom: "pool2"
  top: "norm2"
  lrn_param {
    local_size: 5
    alpha: 0.0001
    beta: 0.75
  }
}
layer {
  name: "conv3"
  type: "Convolution"
  bottom: "norm2"
  top: "conv3"
  param {
    lr_mult: 1
    decay_mult: 1
  }
  param {
    lr_mult: 2
    decay_mult: 0
  }
  convolution_param {
    num_output: 384
    pad: 1
    kernel_size: 3
    weight_filler {
      type: "gaussian"
      std: 0.01
    }
    bias_filler {
      type: "constant"
      value: 0
    }
  }
}
layer {
  name: "relu3"
  type: "ReLU"
  bottom: "conv3"
  top: "conv3"
}
layer {
  name: "conv4"
  type: "Convolution"
  bottom: "conv3"
  top: "conv4"
  param {
    lr_mult: 1
    decay_mult: 1
  }
  param {
    lr_mult: 2
    decay_mult: 0
  }
  convolution_param {
    num_output: 384
    pad: 1
    kernel_size: 3
    group: 2
    weight_filler {
      type: "gaussian"
      std: 0.01
    }
    bias_filler {
      type: "constant"
      value: 1
    }
  }
}
layer {
  name: "relu4"
  type: "ReLU"
  bottom: "conv4"
  top: "conv4"
}
layer {
  name: "conv5"
  type: "Convolution"
  bottom: "conv4"
  top: "conv5"
  param {
    lr_mult: 1
    decay_mult: 1
  }
  param {
    lr_mult: 2
    decay_mult: 0
  }
  convolution_param {
    num_output: 256
    pad: 1
    kernel_size: 3
    group: 2
    weight_filler {
      type: "gaussian"
      std: 0.01
    }
    bias_filler {
      type: "constant"
      value: 1
    }
  }
}
layer {
  name: "relu5"
  type: "ReLU"
  bottom: "conv5"
  top: "conv5"
}
layer {
  name: "pool5"
  type: "Pooling"
  bottom: "conv5"
  top: "pool5"
  pooling_param {
    pool: MAX
    kernel_size: 3
    stride: 2
  }
}
layer {
  name: "fc6"
  type: "InnerProduct"
  bottom: "pool5"
  top: "fc6"
  param {
    lr_mult: 1
    decay_mult: 1
  }
  param {
    lr_mult: 2
    decay_mult: 0
  }
  inner_product_param {
    num_output: 4096
    weight_filler {
      type: "gaussian"
      std: 0.005
    }
    bias_filler {
      type: "constant"
      value: 1
    }
  }
}
layer {
  name: "relu6"
  type: "ReLU"
  bottom: "fc6"
  top: "fc6"
}
layer {
  name: "drop6"
  type: "Dropout"
  bottom: "fc6"
  top: "fc6"
  dropout_param {
    dropout_ratio: 0.5
  }
}
layer {
  name: "fc7"
  type: "InnerProduct"
  bottom: "fc6"
  top: "fc7"
  param {
    lr_mult: 1
    decay_mult: 1
  }
  param {
    lr_mult: 2
    decay_mult: 0
  }
  inner_product_param {
    num_output: 4096
    weight_filler {
      type: "gaussian"
      std: 0.005
    }
    bias_filler {
      type: "constant"
      value: 1
    }
  }
}
layer {
  name: "relu7"
  type: "ReLU"
  bottom: "fc7"
  top: "fc7"
}
layer {
  name: "drop7"
  type: "Dropout"
  bottom: "fc7"
  top: "fc7"
  dropout_param {
    dropout_ratio: 0.5
  }
}
layer {
  name: "fc8-t"
  type: "InnerProduct"
  bottom: "fc7"
  top: "fc8-t"
  param {
    lr_mult: 10
    decay_mult: 1
  }
  param {
    lr_mult: 20
    decay_mult: 0
  }
  inner_product_param {
    num_output: 100
    weight_filler {
      type: "gaussian"
      std: 0.01
    }
    bias_filler {
      type: "constant"
      value: 0
    }
  }
}
layer {
  name: "accuracy@1"
  type: "Accuracy"
  bottom: "fc8-t"
  bottom: "label"
  top: "accuracy@1"
  include {
    phase: TEST
  }
}
layer {
  name: "accuracy@5"
  type: "Accuracy"
  bottom: "fc8-t"
  bottom: "label"
  top: "accuracy@5"
  include {
    phase: TEST
  }
  accuracy_param {
    top_k: 5
  }
}
layer {
  name: "loss"
  type: "SoftmaxWithLoss"
  bottom: "fc8-t"
  bottom: "label"
  top: "loss"
}
I0908 15:44:28.644577 25043 layer_factory.hpp:74] Creating layer data
I0908 15:44:28.644590 25043 net.cpp:90] Creating Layer data
I0908 15:44:28.644598 25043 net.cpp:368] data -> data
I0908 15:44:28.644609 25043 net.cpp:368] data -> label
I0908 15:44:28.644618 25043 net.cpp:120] Setting up data
I0908 15:44:28.644626 25043 image_data_layer.cpp:36] Opening file test_manifest
I0908 15:44:28.645184 25043 image_data_layer.cpp:51] A total of 1425 images.
I0908 15:44:28.649260 25043 image_data_layer.cpp:74] output data size: 32,3,227,227
I0908 15:44:28.651957 25043 net.cpp:127] Top shape: 32 3 227 227 (4946784)
I0908 15:44:28.651989 25043 net.cpp:127] Top shape: 32 (32)
I0908 15:44:28.651998 25043 layer_factory.hpp:74] Creating layer label_data_1_split
I0908 15:44:28.652020 25043 net.cpp:90] Creating Layer label_data_1_split
I0908 15:44:28.652030 25043 net.cpp:410] label_data_1_split <- label
I0908 15:44:28.652045 25043 net.cpp:368] label_data_1_split -> label_data_1_split_0
I0908 15:44:28.652065 25043 net.cpp:368] label_data_1_split -> label_data_1_split_1
I0908 15:44:28.652082 25043 net.cpp:368] label_data_1_split -> label_data_1_split_2
I0908 15:44:28.652099 25043 net.cpp:120] Setting up label_data_1_split
I0908 15:44:28.652120 25043 net.cpp:127] Top shape: 32 (32)
I0908 15:44:28.652132 25043 net.cpp:127] Top shape: 32 (32)
I0908 15:44:28.652144 25043 net.cpp:127] Top shape: 32 (32)
I0908 15:44:28.652165 25043 layer_factory.hpp:74] Creating layer conv1
I0908 15:44:28.652197 25043 net.cpp:90] Creating Layer conv1
I0908 15:44:28.652209 25043 net.cpp:410] conv1 <- data
I0908 15:44:28.652222 25043 net.cpp:368] conv1 -> conv1
I0908 15:44:28.652237 25043 net.cpp:120] Setting up conv1
I0908 15:44:28.653028 25043 net.cpp:127] Top shape: 32 96 55 55 (9292800)
I0908 15:44:28.653045 25043 layer_factory.hpp:74] Creating layer relu1
I0908 15:44:28.653059 25043 net.cpp:90] Creating Layer relu1
I0908 15:44:28.653071 25043 net.cpp:410] relu1 <- conv1
I0908 15:44:28.653084 25043 net.cpp:357] relu1 -> conv1 (in-place)
I0908 15:44:28.653098 25043 net.cpp:120] Setting up relu1
I0908 15:44:28.653161 25043 net.cpp:127] Top shape: 32 96 55 55 (9292800)
I0908 15:44:28.653170 25043 layer_factory.hpp:74] Creating layer pool1
I0908 15:44:28.653185 25043 net.cpp:90] Creating Layer pool1
I0908 15:44:28.653197 25043 net.cpp:410] pool1 <- conv1
I0908 15:44:28.653209 25043 net.cpp:368] pool1 -> pool1
I0908 15:44:28.653224 25043 net.cpp:120] Setting up pool1
I0908 15:44:28.653290 25043 net.cpp:127] Top shape: 32 96 27 27 (2239488)
I0908 15:44:28.653301 25043 layer_factory.hpp:74] Creating layer norm1
I0908 15:44:28.653311 25043 net.cpp:90] Creating Layer norm1
I0908 15:44:28.653321 25043 net.cpp:410] norm1 <- pool1
I0908 15:44:28.653334 25043 net.cpp:368] norm1 -> norm1
I0908 15:44:28.653349 25043 net.cpp:120] Setting up norm1
I0908 15:44:28.653365 25043 net.cpp:127] Top shape: 32 96 27 27 (2239488)
I0908 15:44:28.653376 25043 layer_factory.hpp:74] Creating layer conv2
I0908 15:44:28.653393 25043 net.cpp:90] Creating Layer conv2
I0908 15:44:28.653403 25043 net.cpp:410] conv2 <- norm1
I0908 15:44:28.653416 25043 net.cpp:368] conv2 -> conv2
I0908 15:44:28.653434 25043 net.cpp:120] Setting up conv2
I0908 15:44:28.657450 25043 net.cpp:127] Top shape: 32 256 27 27 (5971968)
I0908 15:44:28.657469 25043 layer_factory.hpp:74] Creating layer relu2
I0908 15:44:28.657477 25043 net.cpp:90] Creating Layer relu2
I0908 15:44:28.657487 25043 net.cpp:410] relu2 <- conv2
I0908 15:44:28.657501 25043 net.cpp:357] relu2 -> conv2 (in-place)
I0908 15:44:28.657516 25043 net.cpp:120] Setting up relu2
I0908 15:44:28.657585 25043 net.cpp:127] Top shape: 32 256 27 27 (5971968)
I0908 15:44:28.657595 25043 layer_factory.hpp:74] Creating layer pool2
I0908 15:44:28.657611 25043 net.cpp:90] Creating Layer pool2
I0908 15:44:28.657623 25043 net.cpp:410] pool2 <- conv2
I0908 15:44:28.657634 25043 net.cpp:368] pool2 -> pool2
I0908 15:44:28.657645 25043 net.cpp:120] Setting up pool2
I0908 15:44:28.657804 25043 net.cpp:127] Top shape: 32 256 13 13 (1384448)
I0908 15:44:28.657814 25043 layer_factory.hpp:74] Creating layer norm2
I0908 15:44:28.657825 25043 net.cpp:90] Creating Layer norm2
I0908 15:44:28.657836 25043 net.cpp:410] norm2 <- pool2
I0908 15:44:28.657853 25043 net.cpp:368] norm2 -> norm2
I0908 15:44:28.657868 25043 net.cpp:120] Setting up norm2
I0908 15:44:28.657884 25043 net.cpp:127] Top shape: 32 256 13 13 (1384448)
I0908 15:44:28.657896 25043 layer_factory.hpp:74] Creating layer conv3
I0908 15:44:28.657910 25043 net.cpp:90] Creating Layer conv3
I0908 15:44:28.657920 25043 net.cpp:410] conv3 <- norm2
I0908 15:44:28.657937 25043 net.cpp:368] conv3 -> conv3
I0908 15:44:28.657951 25043 net.cpp:120] Setting up conv3
I0908 15:44:28.669049 25043 net.cpp:127] Top shape: 32 384 13 13 (2076672)
I0908 15:44:28.669086 25043 layer_factory.hpp:74] Creating layer relu3
I0908 15:44:28.669097 25043 net.cpp:90] Creating Layer relu3
I0908 15:44:28.669107 25043 net.cpp:410] relu3 <- conv3
I0908 15:44:28.669123 25043 net.cpp:357] relu3 -> conv3 (in-place)
I0908 15:44:28.669139 25043 net.cpp:120] Setting up relu3
I0908 15:44:28.669209 25043 net.cpp:127] Top shape: 32 384 13 13 (2076672)
I0908 15:44:28.669219 25043 layer_factory.hpp:74] Creating layer conv4
I0908 15:44:28.669236 25043 net.cpp:90] Creating Layer conv4
I0908 15:44:28.669247 25043 net.cpp:410] conv4 <- conv3
I0908 15:44:28.669261 25043 net.cpp:368] conv4 -> conv4
I0908 15:44:28.669277 25043 net.cpp:120] Setting up conv4
I0908 15:44:28.677494 25043 net.cpp:127] Top shape: 32 384 13 13 (2076672)
I0908 15:44:28.677531 25043 layer_factory.hpp:74] Creating layer relu4
I0908 15:44:28.677541 25043 net.cpp:90] Creating Layer relu4
I0908 15:44:28.677551 25043 net.cpp:410] relu4 <- conv4
I0908 15:44:28.677564 25043 net.cpp:357] relu4 -> conv4 (in-place)
I0908 15:44:28.677580 25043 net.cpp:120] Setting up relu4
I0908 15:44:28.677651 25043 net.cpp:127] Top shape: 32 384 13 13 (2076672)
I0908 15:44:28.677662 25043 layer_factory.hpp:74] Creating layer conv5
I0908 15:44:28.677673 25043 net.cpp:90] Creating Layer conv5
I0908 15:44:28.677685 25043 net.cpp:410] conv5 <- conv4
I0908 15:44:28.677703 25043 net.cpp:368] conv5 -> conv5
I0908 15:44:28.677719 25043 net.cpp:120] Setting up conv5
I0908 15:44:28.683483 25043 net.cpp:127] Top shape: 32 256 13 13 (1384448)
I0908 15:44:28.683512 25043 layer_factory.hpp:74] Creating layer relu5
I0908 15:44:28.683526 25043 net.cpp:90] Creating Layer relu5
I0908 15:44:28.683537 25043 net.cpp:410] relu5 <- conv5
I0908 15:44:28.683550 25043 net.cpp:357] relu5 -> conv5 (in-place)
I0908 15:44:28.683565 25043 net.cpp:120] Setting up relu5
I0908 15:44:28.683634 25043 net.cpp:127] Top shape: 32 256 13 13 (1384448)
I0908 15:44:28.683645 25043 layer_factory.hpp:74] Creating layer pool5
I0908 15:44:28.683665 25043 net.cpp:90] Creating Layer pool5
I0908 15:44:28.683676 25043 net.cpp:410] pool5 <- conv5
I0908 15:44:28.683689 25043 net.cpp:368] pool5 -> pool5
I0908 15:44:28.683704 25043 net.cpp:120] Setting up pool5
I0908 15:44:28.683863 25043 net.cpp:127] Top shape: 32 256 6 6 (294912)
I0908 15:44:28.683876 25043 layer_factory.hpp:74] Creating layer fc6
I0908 15:44:28.683888 25043 net.cpp:90] Creating Layer fc6
I0908 15:44:28.683900 25043 net.cpp:410] fc6 <- pool5
I0908 15:44:28.683915 25043 net.cpp:368] fc6 -> fc6
I0908 15:44:28.683930 25043 net.cpp:120] Setting up fc6
I0908 15:44:29.112509 25043 net.cpp:127] Top shape: 32 4096 (131072)
I0908 15:44:29.112555 25043 layer_factory.hpp:74] Creating layer relu6
I0908 15:44:29.112570 25043 net.cpp:90] Creating Layer relu6
I0908 15:44:29.112578 25043 net.cpp:410] relu6 <- fc6
I0908 15:44:29.112587 25043 net.cpp:357] relu6 -> fc6 (in-place)
I0908 15:44:29.112596 25043 net.cpp:120] Setting up relu6
I0908 15:44:29.112694 25043 net.cpp:127] Top shape: 32 4096 (131072)
I0908 15:44:29.112702 25043 layer_factory.hpp:74] Creating layer drop6
I0908 15:44:29.112711 25043 net.cpp:90] Creating Layer drop6
I0908 15:44:29.112716 25043 net.cpp:410] drop6 <- fc6
I0908 15:44:29.112722 25043 net.cpp:357] drop6 -> fc6 (in-place)
I0908 15:44:29.112730 25043 net.cpp:120] Setting up drop6
I0908 15:44:29.112737 25043 net.cpp:127] Top shape: 32 4096 (131072)
I0908 15:44:29.112746 25043 layer_factory.hpp:74] Creating layer fc7
I0908 15:44:29.112756 25043 net.cpp:90] Creating Layer fc7
I0908 15:44:29.112761 25043 net.cpp:410] fc7 <- fc6
I0908 15:44:29.112768 25043 net.cpp:368] fc7 -> fc7
I0908 15:44:29.112781 25043 net.cpp:120] Setting up fc7
I0908 15:44:29.303277 25043 net.cpp:127] Top shape: 32 4096 (131072)
I0908 15:44:29.303313 25043 layer_factory.hpp:74] Creating layer relu7
I0908 15:44:29.303325 25043 net.cpp:90] Creating Layer relu7
I0908 15:44:29.303333 25043 net.cpp:410] relu7 <- fc7
I0908 15:44:29.303341 25043 net.cpp:357] relu7 -> fc7 (in-place)
I0908 15:44:29.303350 25043 net.cpp:120] Setting up relu7
I0908 15:44:29.303447 25043 net.cpp:127] Top shape: 32 4096 (131072)
I0908 15:44:29.303455 25043 layer_factory.hpp:74] Creating layer drop7
I0908 15:44:29.303463 25043 net.cpp:90] Creating Layer drop7
I0908 15:44:29.303468 25043 net.cpp:410] drop7 <- fc7
I0908 15:44:29.303475 25043 net.cpp:357] drop7 -> fc7 (in-place)
I0908 15:44:29.303483 25043 net.cpp:120] Setting up drop7
I0908 15:44:29.303489 25043 net.cpp:127] Top shape: 32 4096 (131072)
I0908 15:44:29.303494 25043 layer_factory.hpp:74] Creating layer fc8-t
I0908 15:44:29.303503 25043 net.cpp:90] Creating Layer fc8-t
I0908 15:44:29.303508 25043 net.cpp:410] fc8-t <- fc7
I0908 15:44:29.303516 25043 net.cpp:368] fc8-t -> fc8-t
I0908 15:44:29.303535 25043 net.cpp:120] Setting up fc8-t
I0908 15:44:29.308351 25043 net.cpp:127] Top shape: 32 100 (3200)
I0908 15:44:29.308372 25043 layer_factory.hpp:74] Creating layer fc8-t_fc8-t_0_split
I0908 15:44:29.308382 25043 net.cpp:90] Creating Layer fc8-t_fc8-t_0_split
I0908 15:44:29.308387 25043 net.cpp:410] fc8-t_fc8-t_0_split <- fc8-t
I0908 15:44:29.308394 25043 net.cpp:368] fc8-t_fc8-t_0_split -> fc8-t_fc8-t_0_split_0
I0908 15:44:29.308403 25043 net.cpp:368] fc8-t_fc8-t_0_split -> fc8-t_fc8-t_0_split_1
I0908 15:44:29.308411 25043 net.cpp:368] fc8-t_fc8-t_0_split -> fc8-t_fc8-t_0_split_2
I0908 15:44:29.308418 25043 net.cpp:120] Setting up fc8-t_fc8-t_0_split
I0908 15:44:29.308426 25043 net.cpp:127] Top shape: 32 100 (3200)
I0908 15:44:29.308432 25043 net.cpp:127] Top shape: 32 100 (3200)
I0908 15:44:29.308437 25043 net.cpp:127] Top shape: 32 100 (3200)
I0908 15:44:29.308442 25043 layer_factory.hpp:74] Creating layer accuracy@1
I0908 15:44:29.308449 25043 net.cpp:90] Creating Layer accuracy@1
I0908 15:44:29.308454 25043 net.cpp:410] accuracy@1 <- fc8-t_fc8-t_0_split_0
I0908 15:44:29.308460 25043 net.cpp:410] accuracy@1 <- label_data_1_split_0
I0908 15:44:29.308468 25043 net.cpp:368] accuracy@1 -> accuracy@1
I0908 15:44:29.308476 25043 net.cpp:120] Setting up accuracy@1
…
