…
I0908 15:49:29.050775 25770 net.cpp:287] The NetState phase (0) differed from the phase (1) specified by a rule in layer accuracy3-5
I0908 15:49:29.051614 25770 net.cpp:42] Initializing net from parameters: 
name: "beacon"
state {
  phase: TRAIN
}
layer {
  name: "data"
  type: "ImageData"
  top: "data"
  top: "label"
  include {
    phase: TRAIN
  }
  transform_param {
    mirror: true
    crop_size: 227
    mean_value: 104
    mean_value: 117
    mean_value: 123
  }
  image_data_param {
    source: "train_manifest"
    batch_size: 48
    new_height: 256
    new_width: 256
  }
}
layer {
  name: "conv1"
  type: "Convolution"
  bottom: "data"
  top: "conv1"
  param {
    lr_mult: 1
    decay_mult: 1
  }
  param {
    lr_mult: 2
    decay_mult: 0
  }
  convolution_param {
    num_output: 64
    pad: 3
    kernel_size: 7
    stride: 2
    weight_filler {
      type: "gaussian"
      std: 0.015
    }
    bias_filler {
      type: "constant"
      value: 0
    }
  }
}
layer {
  name: "relu1"
  type: "ReLU"
  bottom: "conv1"
  top: "conv1"
}
layer {
  name: "pool1"
  type: "Pooling"
  bottom: "conv1"
  top: "pool1"
  pooling_param {
    pool: MAX
    kernel_size: 3
    stride: 2
    pad: 0
  }
}
layer {
  name: "norm1"
  type: "LRN"
  bottom: "pool1"
  top: "norm1"
  lrn_param {
    local_size: 5
    alpha: 0.0001
    beta: 0.75
  }
}
layer {
  name: "reduction2"
  type: "Convolution"
  bottom: "norm1"
  top: "reduction2"
  param {
    lr_mult: 1
    decay_mult: 1
  }
  param {
    lr_mult: 2
    decay_mult: 0
  }
  convolution_param {
    num_output: 64
    pad: 0
    kernel_size: 1
    group: 1
    weight_filler {
      type: "xavier"
    }
    bias_filler {
      type: "constant"
      value: 0
    }
  }
}
layer {
  name: "relu_reduction2"
  type: "ReLU"
  bottom: "reduction2"
  top: "reduction2"
}
layer {
  name: "conv2"
  type: "Convolution"
  bottom: "reduction2"
  top: "conv2"
  param {
    lr_mult: 1
    decay_mult: 1
  }
  param {
    lr_mult: 2
    decay_mult: 0
  }
  convolution_param {
    num_output: 192
    pad: 1
    kernel_size: 3
    group: 1
    weight_filler {
      type: "gaussian"
      std: 0.02
    }
    bias_filler {
      type: "constant"
      value: 0
    }
  }
}
layer {
  name: "relu2"
  type: "ReLU"
  bottom: "conv2"
  top: "conv2"
}
layer {
  name: "norm2"
  type: "LRN"
  bottom: "conv2"
  top: "norm2"
  lrn_param {
    local_size: 5
    alpha: 0.0001
    beta: 0.75
  }
}
layer {
  name: "pool2"
  type: "Pooling"
  bottom: "norm2"
  top: "pool2"
  pooling_param {
    pool: MAX
    kernel_size: 3
    stride: 2
    pad: 0
  }
}
layer {
  name: "icp1_reduction1"
  type: "Convolution"
  bottom: "pool2"
  top: "icp1_reduction1"
  param {
    lr_mult: 1
    decay_mult: 1
  }
  param {
    lr_mult: 2
    decay_mult: 0
  }
  convolution_param {
    num_output: 96
    pad: 0
    kernel_size: 1
    weight_filler {
      type: "xavier"
    }
    bias_filler {
      type: "constant"
      value: 0
    }
  }
}
layer {
  name: "relu_icp1_reduction1"
  type: "ReLU"
  bottom: "icp1_reduction1"
  top: "icp1_reduction1"
}
layer {
  name: "icp1_reduction2"
  type: "Convolution"
  bottom: "pool2"
  top: "icp1_reduction2"
  param {
    lr_mult: 1
    decay_mult: 1
  }
  param {
    lr_mult: 2
    decay_mult: 0
  }
  convolution_param {
    num_output: 16
    pad: 0
    kernel_size: 1
    weight_filler {
      type: "xavier"
    }
    bias_filler {
      type: "constant"
      value: 0
    }
  }
}
layer {
  name: "relu_icp1_reduction2"
  type: "ReLU"
  bottom: "icp1_reduction2"
  top: "icp1_reduction2"
}
layer {
  name: "icp1_pool"
  type: "Pooling"
  bottom: "pool2"
  top: "icp1_pool"
  pooling_param {
    pool: MAX
    kernel_size: 3
    stride: 1
    pad: 1
  }
}
layer {
  name: "icp1_out0"
  type: "Convolution"
  bottom: "pool2"
  top: "icp1_out0"
  param {
    lr_mult: 1
    decay_mult: 1
  }
  param {
    lr_mult: 2
    decay_mult: 0
  }
  convolution_param {
    num_output: 64
    pad: 0
    kernel_size: 1
    weight_filler {
      type: "xavier"
    }
    bias_filler {
      type: "constant"
      value: 0
    }
  }
}
layer {
  name: "relu_icp1_out0"
  type: "ReLU"
  bottom: "icp1_out0"
  top: "icp1_out0"
}
layer {
  name: "icp1_out1"
  type: "Convolution"
  bottom: "icp1_reduction1"
  top: "icp1_out1"
  param {
    lr_mult: 1
    decay_mult: 1
  }
  param {
    lr_mult: 2
    decay_mult: 0
  }
  convolution_param {
    num_output: 128
    pad: 1
    kernel_size: 3
    weight_filler {
      type: "gaussian"
      std: 0.04
    }
    bias_filler {
      type: "constant"
      value: 0
    }
  }
}
layer {
  name: "relu_icp1_out1"
  type: "ReLU"
  bottom: "icp1_out1"
  top: "icp1_out1"
}
layer {
  name: "icp1_out2"
  type: "Convolution"
  bottom: "icp1_reduction2"
  top: "icp1_out2"
  param {
    lr_mult: 1
    decay_mult: 1
  }
  param {
    lr_mult: 2
    decay_mult: 0
  }
  convolution_param {
    num_output: 32
    pad: 2
    kernel_size: 5
    weight_filler {
      type: "gaussian"
      std: 0.08
    }
    bias_filler {
      type: "constant"
      value: 0
    }
  }
}
layer {
  name: "relu_icp1_out2"
  type: "ReLU"
  bottom: "icp1_out2"
  top: "icp1_out2"
}
layer {
  name: "icp1_out3"
  type: "Convolution"
  bottom: "icp1_pool"
  top: "icp1_out3"
  param {
    lr_mult: 1
    decay_mult: 1
  }
  param {
    lr_mult: 2
    decay_mult: 0
  }
  convolution_param {
    num_output: 32
    pad: 0
    kernel_size: 1
    weight_filler {
      type: "xavier"
    }
    bias_filler {
      type: "constant"
      value: 0
    }
  }
}
layer {
  name: "relu_icp1_out3"
  type: "ReLU"
  bottom: "icp1_out3"
  top: "icp1_out3"
}
layer {
  name: "icp2_in"
  type: "Concat"
  bottom: "icp1_out0"
  bottom: "icp1_out1"
  bottom: "icp1_out2"
  bottom: "icp1_out3"
  top: "icp2_in"
}
layer {
  name: "icp2_reduction1"
  type: "Convolution"
  bottom: "icp2_in"
  top: "icp2_reduction1"
  param {
    lr_mult: 1
    decay_mult: 1
  }
  param {
    lr_mult: 2
    decay_mult: 0
  }
  convolution_param {
    num_output: 128
    pad: 0
    kernel_size: 1
    weight_filler {
      type: "xavier"
    }
    bias_filler {
      type: "constant"
      value: 0
    }
  }
}
layer {
  name: "relu_icp2_reduction1"
  type: "ReLU"
  bottom: "icp2_reduction1"
  top: "icp2_reduction1"
}
layer {
  name: "icp2_reduction2"
  type: "Convolution"
  bottom: "icp2_in"
  top: "icp2_reduction2"
  param {
    lr_mult: 1
    decay_mult: 1
  }
  param {
    lr_mult: 2
    decay_mult: 0
  }
  convolution_param {
    num_output: 32
    pad: 0
    kernel_size: 1
    weight_filler {
      type: "xavier"
    }
    bias_filler {
      type: "constant"
      value: 0
    }
  }
}
layer {
  name: "relu_icp2_reduction2"
  type: "ReLU"
  bottom: "icp2_reduction2"
  top: "icp2_reduction2"
}
layer {
  name: "icp2_pool"
  type: "Pooling"
  bottom: "icp2_in"
  top: "icp2_pool"
  pooling_param {
    pool: MAX
    kernel_size: 3
    stride: 1
    pad: 1
  }
}
layer {
  name: "icp2_out0"
  type: "Convolution"
  bottom: "icp2_in"
  top: "icp2_out0"
  param {
    lr_mult: 1
    decay_mult: 1
  }
  param {
    lr_mult: 2
    decay_mult: 0
  }
  convolution_param {
    num_output: 128
    pad: 0
    kernel_size: 1
    weight_filler {
      type: "xavier"
    }
    bias_filler {
      type: "constant"
      value: 0
    }
  }
}
layer {
  name: "relu_icp2_out0"
  type: "ReLU"
  bottom: "icp2_out0"
  top: "icp2_out0"
}
layer {
  name: "icp2_out1"
  type: "Convolution"
  bottom: "icp2_reduction1"
  top: "icp2_out1"
  param {
    lr_mult: 1
    decay_mult: 1
  }
  param {
    lr_mult: 2
    decay_mult: 0
  }
  convolution_param {
    num_output: 192
    pad: 1
    kernel_size: 3
    weight_filler {
      type: "gaussian"
      std: 0.04
    }
    bias_filler {
      type: "constant"
      value: 0
    }
  }
}
layer {
  name: "relu_icp2_out1"
  type: "ReLU"
  bottom: "icp2_out1"
  top: "icp2_out1"
}
layer {
  name: "icp2_out2"
  type: "Convolution"
  bottom: "icp2_reduction2"
  top: "icp2_out2"
  param {
    lr_mult: 1
    decay_mult: 1
  }
  param {
    lr_mult: 2
    decay_mult: 0
  }
  convolution_param {
    num_output: 96
    pad: 2
    kernel_size: 5
    weight_filler {
      type: "gaussian"
      std: 0.08
    }
    bias_filler {
      type: "constant"
      value: 0
    }
  }
}
layer {
  name: "relu_icp2_out2"
  type: "ReLU"
  bottom: "icp2_out2"
  top: "icp2_out2"
}
layer {
  name: "icp2_out3"
  type: "Convolution"
  bottom: "icp2_pool"
  top: "icp2_out3"
  param {
    lr_mult: 1
    decay_mult: 1
  }
  param {
    lr_mult: 2
    decay_mult: 0
  }
  convolution_param {
    num_output: 64
    pad: 0
    kernel_size: 1
    weight_filler {
      type: "xavier"
    }
    bias_filler {
      type: "constant"
      value: 0
    }
  }
}
layer {
  name: "relu_icp2_out3"
  type: "ReLU"
  bottom: "icp2_out3"
  top: "icp2_out3"
}
layer {
  name: "icp2_out"
  type: "Concat"
  bottom: "icp2_out0"
  bottom: "icp2_out1"
  bottom: "icp2_out2"
  bottom: "icp2_out3"
  top: "icp2_out"
}
layer {
  name: "icp3_in"
  type: "Pooling"
  bottom: "icp2_out"
  top: "icp3_in"
  pooling_param {
    pool: MAX
    kernel_size: 3
    stride: 2
    pad: 0
  }
}
layer {
  name: "icp3_reduction1"
  type: "Convolution"
  bottom: "icp3_in"
  top: "icp3_reduction1"
  param {
    lr_mult: 1
    decay_mult: 1
  }
  param {
    lr_mult: 2
    decay_mult: 0
  }
  convolution_param {
    num_output: 96
    pad: 0
    kernel_size: 1
    weight_filler {
      type: "xavier"
    }
    bias_filler {
      type: "constant"
      value: 0
    }
  }
}
layer {
  name: "relu_icp3_reduction1"
  type: "ReLU"
  bottom: "icp3_reduction1"
  top: "icp3_reduction1"
}
layer {
  name: "icp3_reduction2"
  type: "Convolution"
  bottom: "icp3_in"
  top: "icp3_reduction2"
  param {
    lr_mult: 1
    decay_mult: 1
  }
  param {
    lr_mult: 2
    decay_mult: 0
  }
  convolution_param {
    num_output: 16
    pad: 0
    kernel_size: 1
    weight_filler {
      type: "xavier"
    }
    bias_filler {
      type: "constant"
      value: 0
    }
  }
}
layer {
  name: "relu_icp3_reduction2"
  type: "ReLU"
  bottom: "icp3_reduction2"
  top: "icp3_reduction2"
}
layer {
  name: "icp3_pool"
  type: "Pooling"
  bottom: "icp3_in"
  top: "icp3_pool"
  pooling_param {
    pool: MAX
    kernel_size: 3
    stride: 1
    pad: 1
  }
}
layer {
  name: "icp3_out0"
  type: "Convolution"
  bottom: "icp3_in"
  top: "icp3_out0"
  param {
    lr_mult: 1
    decay_mult: 1
  }
  param {
    lr_mult: 2
    decay_mult: 0
  }
  convolution_param {
    num_output: 192
    pad: 0
    kernel_size: 1
    weight_filler {
      type: "xavier"
    }
    bias_filler {
      type: "constant"
      value: 0
    }
  }
}
layer {
  name: "relu_icp3_out0"
  type: "ReLU"
  bottom: "icp3_out0"
  top: "icp3_out0"
}
layer {
  name: "icp3_out1"
  type: "Convolution"
  bottom: "icp3_reduction1"
  top: "icp3_out1"
  param {
    lr_mult: 1
    decay_mult: 1
  }
  param {
    lr_mult: 2
    decay_mult: 0
  }
  convolution_param {
    num_output: 208
    pad: 1
    kernel_size: 3
    weight_filler {
      type: "gaussian"
      std: 0.04
    }
    bias_filler {
      type: "constant"
      value: 0
    }
  }
}
layer {
  name: "relu_icp3_out1"
  type: "ReLU"
  bottom: "icp3_out1"
  top: "icp3_out1"
}
layer {
  name: "icp3_out2"
  type: "Convolution"
  bottom: "icp3_reduction2"
  top: "icp3_out2"
  param {
    lr_mult: 1
    decay_mult: 1
  }
  param {
    lr_mult: 2
    decay_mult: 0
  }
  convolution_param {
    num_output: 48
    pad: 2
    kernel_size: 5
    weight_filler {
      type: "gaussian"
      std: 0.08
    }
    bias_filler {
      type: "constant"
      value: 0
    }
  }
}
layer {
  name: "relu_icp3_out2"
  type: "ReLU"
  bottom: "icp3_out2"
  top: "icp3_out2"
}
layer {
  name: "icp3_out3"
  type: "Convolution"
  bottom: "icp3_pool"
  top: "icp3_out3"
  param {
    lr_mult: 1
    decay_mult: 1
  }
  param {
    lr_mult: 2
    decay_mult: 0
  }
  convolution_param {
    num_output: 64
    pad: 0
    kernel_size: 1
    weight_filler {
      type: "xavier"
    }
    bias_filler {
      type: "constant"
      value: 0
    }
  }
}
layer {
  name: "relu_icp3_out3"
  type: "ReLU"
  bottom: "icp3_out3"
  top: "icp3_out3"
}
layer {
  name: "icp3_out"
  type: "Concat"
  bottom: "icp3_out0"
  bottom: "icp3_out1"
  bottom: "icp3_out2"
  bottom: "icp3_out3"
  top: "icp3_out"
}
layer {
  name: "cls1_pool"
  type: "Pooling"
  bottom: "icp3_out"
  top: "cls1_pool"
  pooling_param {
    pool: AVE
    kernel_size: 5
    stride: 3
    pad: 0
  }
}
layer {
  name: "cls1_reduction"
  type: "Convolution"
  bottom: "cls1_pool"
  top: "cls1_reduction"
  param {
    lr_mult: 1
    decay_mult: 1
  }
  param {
    lr_mult: 2
    decay_mult: 0
  }
  convolution_param {
    num_output: 128
    pad: 0
    kernel_size: 1
    weight_filler {
      type: "xavier"
    }
    bias_filler {
      type: "constant"
      value: 0
    }
  }
}
layer {
  name: "relu_cls1_reduction"
  type: "ReLU"
  bottom: "cls1_reduction"
  top: "cls1_reduction"
}
layer {
  name: "cls1_fc1"
  type: "InnerProduct"
  bottom: "cls1_reduction"
  top: "cls1_fc1"
  param {
    lr_mult: 1
    decay_mult: 1
  }
  param {
    lr_mult: 2
    decay_mult: 0
  }
  inner_product_param {
    num_output: 1024
    weight_filler {
      type: "gaussian"
      std: 0.01
    }
    bias_filler {
      type: "constant"
      value: 0
    }
  }
}
layer {
  name: "relu_cls1_fc1"
  type: "ReLU"
  bottom: "cls1_fc1"
  top: "cls1_fc1"
}
layer {
  name: "cls1_drop"
  type: "Dropout"
  bottom: "cls1_fc1"
  top: "cls1_fc1"
  dropout_param {
    dropout_ratio: 0.7
  }
}
layer {
  name: "cls1_fc2-t"
  type: "InnerProduct"
  bottom: "cls1_fc1"
  top: "cls1_fc2-t"
  param {
    lr_mult: 10
    decay_mult: 1
  }
  param {
    lr_mult: 20
    decay_mult: 0
  }
  inner_product_param {
    num_output: 100
    weight_filler {
      type: "gaussian"
      std: 0.01
    }
    bias_filler {
      type: "constant"
      value: 0
    }
  }
}
layer {
  name: "loss1"
  type: "SoftmaxWithLoss"
  bottom: "cls1_fc2-t"
  bottom: "label"
  top: "loss1"
  loss_weight: 1
}
layer {
  name: "icp4_reduction1"
  type: "Convolution"
  bottom: "icp3_out"
  top: "icp4_reduction1"
  param {
    lr_mult: 1
    decay_mult: 1
  }
  param {
    lr_mult: 2
    decay_mult: 0
  }
  convolution_param {
    num_output: 112
    pad: 0
    kernel_size: 1
    weight_filler {
      type: "xavier"
    }
    bias_filler {
      type: "constant"
      value: 0
    }
  }
}
layer {
  name: "relu_icp4_reduction1"
  type: "ReLU"
  bottom: "icp4_reduction1"
  top: "icp4_reduction1"
}
layer {
  name: "icp4_reduction2"
  type: "Convolution"
  bottom: "icp3_out"
  top: "icp4_reduction2"
  param {
    lr_mult: 1
    decay_mult: 1
  }
  param {
    lr_mult: 2
    decay_mult: 0
  }
  convolution_param {
    num_output: 24
    pad: 0
    kernel_size: 1
    weight_filler {
      type: "xavier"
    }
    bias_filler {
      type: "constant"
      value: 0
    }
  }
}
layer {
  name: "relu_icp4_reduction2"
  type: "ReLU"
  bottom: "icp4_reduction2"
  top: "icp4_reduction2"
}
layer {
  name: "icp4_pool"
  type: "Pooling"
  bottom: "icp3_out"
  top: "icp4_pool"
  pooling_param {
    pool: MAX
    kernel_size: 3
    stride: 1
    pad: 1
  }
}
layer {
  name: "icp4_out0"
  type: "Convolution"
  bottom: "icp3_out"
  top: "icp4_out0"
  param {
    lr_mult: 1
    decay_mult: 1
  }
  param {
    lr_mult: 2
    decay_mult: 0
  }
  convolution_param {
    num_output: 160
    pad: 0
    kernel_size: 1
    weight_filler {
      type: "xavier"
    }
    bias_filler {
      type: "constant"
      value: 0
    }
  }
}
layer {
  name: "relu_icp4_out0"
  type: "ReLU"
  bottom: "icp4_out0"
  top: "icp4_out0"
}
layer {
  name: "icp4_out1"
  type: "Convolution"
  bottom: "icp4_reduction1"
  top: "icp4_out1"
  param {
    lr_mult: 1
    decay_mult: 1
  }
  param {
    lr_mult: 2
    decay_mult: 0
  }
  convolution_param {
    num_output: 224
    pad: 1
    kernel_size: 3
    weight_filler {
      type: "gaussian"
      std: 0.04
    }
    bias_filler {
      type: "constant"
      value: 0
    }
  }
}
layer {
  name: "relu_icp4_out1"
  type: "ReLU"
  bottom: "icp4_out1"
  top: "icp4_out1"
}
layer {
  name: "icp4_out2"
  type: "Convolution"
  bottom: "icp4_reduction2"
  top: "icp4_out2"
  param {
    lr_mult: 1
    decay_mult: 1
  }
  param {
    lr_mult: 2
    decay_mult: 0
  }
  convolution_param {
    num_output: 64
    pad: 2
    kernel_size: 5
    weight_filler {
      type: "gaussian"
      std: 0.08
    }
    bias_filler {
      type: "constant"
      value: 0
    }
  }
}
layer {
  name: "relu_icp4_out2"
  type: "ReLU"
  bottom: "icp4_out2"
  top: "icp4_out2"
}
layer {
  name: "icp4_out3"
  type: "Convolution"
  bottom: "icp4_pool"
  top: "icp4_out3"
  param {
    lr_mult: 1
    decay_mult: 1
  }
  param {
    lr_mult: 2
    decay_mult: 0
  }
  convolution_param {
    num_output: 64
    pad: 0
    kernel_size: 1
    weight_filler {
      type: "xavier"
    }
    bias_filler {
      type: "constant"
      value: 0
    }
  }
}
layer {
  name: "relu_icp4_out3"
  type: "ReLU"
  bottom: "icp4_out3"
  top: "icp4_out3"
}
layer {
  name: "icp4_out"
  type: "Concat"
  bottom: "icp4_out0"
  bottom: "icp4_out1"
  bottom: "icp4_out2"
  bottom: "icp4_out3"
  top: "icp4_out"
}
layer {
  name: "icp5_reduction1"
  type: "Convolution"
  bottom: "icp4_out"
  top: "icp5_reduction1"
  param {
    lr_mult: 1
    decay_mult: 1
  }
  param {
    lr_mult: 2
    decay_mult: 0
  }
  convolution_param {
    num_output: 128
    pad: 0
    kernel_size: 1
    weight_filler {
      type: "xavier"
    }
    bias_filler {
      type: "constant"
      value: 0
    }
  }
}
layer {
  name: "relu_icp5_reduction1"
  type: "ReLU"
  bottom: "icp5_reduction1"
  top: "icp5_reduction1"
}
layer {
  name: "icp5_reduction2"
  type: "Convolution"
  bottom: "icp4_out"
  top: "icp5_reduction2"
  param {
    lr_mult: 1
    decay_mult: 1
  }
  param {
    lr_mult: 2
    decay_mult: 0
  }
  convolution_param {
    num_output: 24
    pad: 0
    kernel_size: 1
    weight_filler {
      type: "xavier"
    }
    bias_filler {
      type: "constant"
      value: 0
    }
  }
}
layer {
  name: "relu_icp5_reduction2"
  type: "ReLU"
  bottom: "icp5_reduction2"
  top: "icp5_reduction2"
}
layer {
  name: "icp5_pool"
  type: "Pooling"
  bottom: "icp4_out"
  top: "icp5_pool"
  pooling_param {
    pool: MAX
    kernel_size: 3
    stride: 1
    pad: 1
  }
}
layer {
  name: "icp5_out0"
  type: "Convolution"
  bottom: "icp4_out"
  top: "icp5_out0"
  param {
    lr_mult: 1
    decay_mult: 1
  }
  param {
    lr_mult: 2
    decay_mult: 0
  }
  convolution_param {
    num_output: 128
    pad: 0
    kernel_size: 1
    weight_filler {
      type: "xavier"
    }
    bias_filler {
      type: "constant"
      value: 0
    }
  }
}
layer {
  name: "relu_icp5_out0"
  type: "ReLU"
  bottom: "icp5_out0"
  top: "icp5_out0"
}
layer {
  name: "icp5_out1"
  type: "Convolution"
  bottom: "icp5_reduction1"
  top: "icp5_out1"
  param {
    lr_mult: 1
    decay_mult: 1
  }
  param {
    lr_mult: 2
    decay_mult: 0
  }
  convolution_param {
    num_output: 256
    pad: 1
    kernel_size: 3
    weight_filler {
      type: "gaussian"
      std: 0.04
    }
    bias_filler {
      type: "constant"
      value: 0
    }
  }
}
layer {
  name: "relu_icp5_out1"
  type: "ReLU"
  bottom: "icp5_out1"
  top: "icp5_out1"
}
layer {
  name: "icp5_out2"
  type: "Convolution"
  bottom: "icp5_reduction2"
  top: "icp5_out2"
  param {
    lr_mult: 1
    decay_mult: 1
  }
  param {
    lr_mult: 2
    decay_mult: 0
  }
  convolution_param {
    num_output: 64
    pad: 2
    kernel_size: 5
    weight_filler {
      type: "gaussian"
      std: 0.08
    }
    bias_filler {
      type: "constant"
      value: 0
    }
  }
}
layer {
  name: "relu_icp5_out2"
  type: "ReLU"
  bottom: "icp5_out2"
  top: "icp5_out2"
}
layer {
  name: "icp5_out3"
  type: "Convolution"
  bottom: "icp5_pool"
  top: "icp5_out3"
  param {
    lr_mult: 1
    decay_mult: 1
  }
  param {
    lr_mult: 2
    decay_mult: 0
  }
  convolution_param {
    num_output: 64
    pad: 0
    kernel_size: 1
    weight_filler {
      type: "xavier"
    }
    bias_filler {
      type: "constant"
      value: 0
    }
  }
}
layer {
  name: "relu_icp5_out3"
  type: "ReLU"
  bottom: "icp5_out3"
  top: "icp5_out3"
}
layer {
  name: "icp5_out"
  type: "Concat"
  bottom: "icp5_out0"
  bottom: "icp5_out1"
  bottom: "icp5_out2"
  bottom: "icp5_out3"
  top: "icp5_out"
}
layer {
  name: "icp6_reduction1"
  type: "Convolution"
  bottom: "icp5_out"
  top: "icp6_reduction1"
  param {
    lr_mult: 1
    decay_mult: 1
  }
  param {
    lr_mult: 2
    decay_mult: 0
  }
  convolution_param {
    num_output: 144
    pad: 0
    kernel_size: 1
    weight_filler {
      type: "xavier"
    }
    bias_filler {
      type: "constant"
      value: 0
    }
  }
}
layer {
  name: "relu_icp6_reduction1"
  type: "ReLU"
  bottom: "icp6_reduction1"
  top: "icp6_reduction1"
}
layer {
  name: "icp6_reduction2"
  type: "Convolution"
  bottom: "icp5_out"
  top: "icp6_reduction2"
  param {
    lr_mult: 1
    decay_mult: 1
  }
  param {
    lr_mult: 2
    decay_mult: 0
  }
  convolution_param {
    num_output: 32
    pad: 0
    kernel_size: 1
    weight_filler {
      type: "xavier"
    }
    bias_filler {
      type: "constant"
      value: 0
    }
  }
}
layer {
  name: "relu_icp6_reduction2"
  type: "ReLU"
  bottom: "icp6_reduction2"
  top: "icp6_reduction2"
}
layer {
  name: "icp6_pool"
  type: "Pooling"
  bottom: "icp5_out"
  top: "icp6_pool"
  pooling_param {
    pool: MAX
    kernel_size: 3
    stride: 1
    pad: 1
  }
}
layer {
  name: "icp6_out0"
  type: "Convolution"
  bottom: "icp5_out"
  top: "icp6_out0"
  param {
    lr_mult: 1
    decay_mult: 1
  }
  param {
    lr_mult: 2
    decay_mult: 0
  }
  convolution_param {
    num_output: 112
    pad: 0
    kernel_size: 1
    weight_filler {
      type: "xavier"
    }
    bias_filler {
      type: "constant"
      value: 0
    }
  }
}
layer {
  name: "relu_icp6_out0"
  type: "ReLU"
  bottom: "icp6_out0"
  top: "icp6_out0"
}
layer {
  name: "icp6_out1"
  type: "Convolution"
  bottom: "icp6_reduction1"
  top: "icp6_out1"
  param {
    lr_mult: 1
    decay_mult: 1
  }
  param {
    lr_mult: 2
    decay_mult: 0
  }
  convolution_param {
    num_output: 288
    pad: 1
    kernel_size: 3
    weight_filler {
      type: "gaussian"
      std: 0.04
    }
    bias_filler {
      type: "constant"
      value: 0
    }
  }
}
layer {
  name: "relu_icp6_out1"
  type: "ReLU"
  bottom: "icp6_out1"
  top: "icp6_out1"
}
layer {
  name: "icp6_out2"
  type: "Convolution"
  bottom: "icp6_reduction2"
  top: "icp6_out2"
  param {
    lr_mult: 1
    decay_mult: 1
  }
  param {
    lr_mult: 2
    decay_mult: 0
  }
  convolution_param {
    num_output: 64
    pad: 2
    kernel_size: 5
    weight_filler {
      type: "gaussian"
      std: 0.08
    }
    bias_filler {
      type: "constant"
      value: 0
    }
  }
}
layer {
  name: "relu_icp6_out2"
  type: "ReLU"
  bottom: "icp6_out2"
  top: "icp6_out2"
}
layer {
  name: "icp6_out3"
  type: "Convolution"
  bottom: "icp6_pool"
  top: "icp6_out3"
  param {
    lr_mult: 1
    decay_mult: 1
  }
  param {
    lr_mult: 2
    decay_mult: 0
  }
  convolution_param {
    num_output: 64
    pad: 0
    kernel_size: 1
    weight_filler {
      type: "xavier"
    }
    bias_filler {
      type: "constant"
      value: 0
    }
  }
}
layer {
  name: "relu_icp6_out3"
  type: "ReLU"
  bottom: "icp6_out3"
  top: "icp6_out3"
}
layer {
  name: "icp6_out"
  type: "Concat"
  bottom: "icp6_out0"
  bottom: "icp6_out1"
  bottom: "icp6_out2"
  bottom: "icp6_out3"
  top: "icp6_out"
}
layer {
  name: "cls2_pool"
  type: "Pooling"
  bottom: "icp6_out"
  top: "cls2_pool"
  pooling_param {
    pool: AVE
    kernel_size: 5
    stride: 3
    pad: 0
  }
}
layer {
  name: "cls2_reduction"
  type: "Convolution"
  bottom: "cls2_pool"
  top: "cls2_reduction"
  param {
    lr_mult: 1
    decay_mult: 1
  }
  param {
    lr_mult: 2
    decay_mult: 0
  }
  convolution_param {
    num_output: 128
    pad: 0
    kernel_size: 1
    weight_filler {
      type: "xavier"
    }
    bias_filler {
      type: "constant"
      value: 0
    }
  }
}
layer {
  name: "relu_cls2_reduction"
  type: "ReLU"
  bottom: "cls2_reduction"
  top: "cls2_reduction"
}
layer {
  name: "cls2_fc1"
  type: "InnerProduct"
  bottom: "cls2_reduction"
  top: "cls2_fc1"
  param {
    lr_mult: 1
    decay_mult: 1
  }
  param {
    lr_mult: 2
    decay_mult: 0
  }
  inner_product_param {
    num_output: 1024
    weight_filler {
      type: "gaussian"
      std: 0.01
    }
    bias_filler {
      type: "constant"
      value: 0
    }
  }
}
layer {
  name: "relu_cls2_fc1"
  type: "ReLU"
  bottom: "cls2_fc1"
  top: "cls2_fc1"
}
layer {
  name: "cls2_drop"
  type: "Dropout"
  bottom: "cls2_fc1"
  top: "cls2_fc1"
  dropout_param {
    dropout_ratio: 0.7
  }
}
layer {
  name: "cls2_fc2-t"
  type: "InnerProduct"
  bottom: "cls2_fc1"
  top: "cls2_fc2-t"
  param {
    lr_mult: 10
    decay_mult: 1
  }
  param {
    lr_mult: 20
    decay_mult: 0
  }
  inner_product_param {
    num_output: 100
    weight_filler {
      type: "gaussian"
      std: 0.01
    }
    bias_filler {
      type: "constant"
      value: 0
    }
  }
}
layer {
  name: "loss2"
  type: "SoftmaxWithLoss"
  bottom: "cls2_fc2-t"
  bottom: "label"
  top: "loss2"
  loss_weight: 1
}
layer {
  name: "icp7_reduction1"
  type: "Convolution"
  bottom: "icp6_out"
  top: "icp7_reduction1"
  param {
    lr_mult: 1
    decay_mult: 1
  }
  param {
    lr_mult: 2
    decay_mult: 0
  }
  convolution_param {
    num_output: 160
    pad: 0
    kernel_size: 1
    weight_filler {
      type: "xavier"
    }
    bias_filler {
      type: "constant"
      value: 0
    }
  }
}
layer {
  name: "relu_icp7_reduction1"
  type: "ReLU"
  bottom: "icp7_reduction1"
  top: "icp7_reduction1"
}
layer {
  name: "icp7_reduction2"
  type: "Convolution"
  bottom: "icp6_out"
  top: "icp7_reduction2"
  param {
    lr_mult: 1
    decay_mult: 1
  }
  param {
    lr_mult: 2
    decay_mult: 0
  }
  convolution_param {
    num_output: 32
    pad: 0
    kernel_size: 1
    weight_filler {
      type: "xavier"
    }
    bias_filler {
      type: "constant"
      value: 0
    }
  }
}
layer {
  name: "relu_icp7_reduction2"
  type: "ReLU"
  bottom: "icp7_reduction2"
  top: "icp7_reduction2"
}
layer {
  name: "icp7_pool"
  type: "Pooling"
  bottom: "icp6_out"
  top: "icp7_pool"
  pooling_param {
    pool: MAX
    kernel_size: 3
    stride: 1
    pad: 1
  }
}
layer {
  name: "icp7_out0"
  type: "Convolution"
  bottom: "icp6_out"
  top: "icp7_out0"
  param {
    lr_mult: 1
    decay_mult: 1
  }
  param {
    lr_mult: 2
    decay_mult: 0
  }
  convolution_param {
    num_output: 256
    pad: 0
    kernel_size: 1
    weight_filler {
      type: "xavier"
    }
    bias_filler {
      type: "constant"
      value: 0
    }
  }
}
layer {
  name: "relu_icp7_out0"
  type: "ReLU"
  bottom: "icp7_out0"
  top: "icp7_out0"
}
layer {
  name: "icp7_out1"
  type: "Convolution"
  bottom: "icp7_reduction1"
  top: "icp7_out1"
  param {
    lr_mult: 1
    decay_mult: 1
  }
  param {
    lr_mult: 2
    decay_mult: 0
  }
  convolution_param {
    num_output: 320
    pad: 1
    kernel_size: 3
    weight_filler {
      type: "gaussian"
      std: 0.04
    }
    bias_filler {
      type: "constant"
      value: 0
    }
  }
}
layer {
  name: "relu_icp7_out1"
  type: "ReLU"
  bottom: "icp7_out1"
  top: "icp7_out1"
}
layer {
  name: "icp7_out2"
  type: "Convolution"
  bottom: "icp7_reduction2"
  top: "icp7_out2"
  param {
    lr_mult: 1
    decay_mult: 1
  }
  param {
    lr_mult: 2
    decay_mult: 0
  }
  convolution_param {
    num_output: 128
    pad: 2
    kernel_size: 5
    weight_filler {
      type: "gaussian"
      std: 0.08
    }
    bias_filler {
      type: "constant"
      value: 0
    }
  }
}
layer {
  name: "relu_icp7_out2"
  type: "ReLU"
  bottom: "icp7_out2"
  top: "icp7_out2"
}
layer {
  name: "icp7_out3"
  type: "Convolution"
  bottom: "icp7_pool"
  top: "icp7_out3"
  param {
    lr_mult: 1
    decay_mult: 1
  }
  param {
    lr_mult: 2
    decay_mult: 0
  }
  convolution_param {
    num_output: 128
    pad: 0
    kernel_size: 1
    weight_filler {
      type: "xavier"
    }
    bias_filler {
      type: "constant"
      value: 0
    }
  }
}
layer {
  name: "relu_icp7_out3"
  type: "ReLU"
  bottom: "icp7_out3"
  top: "icp7_out3"
}
layer {
  name: "icp7_out"
  type: "Concat"
  bottom: "icp7_out0"
  bottom: "icp7_out1"
  bottom: "icp7_out2"
  bottom: "icp7_out3"
  top: "icp7_out"
}
layer {
  name: "icp8_in"
  type: "Pooling"
  bottom: "icp7_out"
  top: "icp8_in"
  pooling_param {
    pool: MAX
    kernel_size: 3
    stride: 2
    pad: 0
  }
}
layer {
  name: "icp8_reduction1"
  type: "Convolution"
  bottom: "icp8_in"
  top: "icp8_reduction1"
  param {
    lr_mult: 1
    decay_mult: 1
  }
  param {
    lr_mult: 2
    decay_mult: 0
  }
  convolution_param {
    num_output: 160
    pad: 0
    kernel_size: 1
    weight_filler {
      type: "xavier"
    }
    bias_filler {
      type: "constant"
      value: 0
    }
  }
}
layer {
  name: "relu_icp8_reduction1"
  type: "ReLU"
  bottom: "icp8_reduction1"
  top: "icp8_reduction1"
}
layer {
  name: "icp8_reduction2"
  type: "Convolution"
  bottom: "icp8_in"
  top: "icp8_reduction2"
  param {
    lr_mult: 1
    decay_mult: 1
  }
  param {
    lr_mult: 2
    decay_mult: 0
  }
  convolution_param {
    num_output: 32
    pad: 0
    kernel_size: 1
    weight_filler {
      type: "xavier"
    }
    bias_filler {
      type: "constant"
      value: 0
    }
  }
}
layer {
  name: "relu_icp8_reduction2"
  type: "ReLU"
  bottom: "icp8_reduction2"
  top: "icp8_reduction2"
}
layer {
  name: "icp8_pool"
  type: "Pooling"
  bottom: "icp8_in"
  top: "icp8_pool"
  pooling_param {
    pool: MAX
    kernel_size: 3
    stride: 1
    pad: 1
  }
}
layer {
  name: "icp8_out0"
  type: "Convolution"
  bottom: "icp8_in"
  top: "icp8_out0"
  param {
    lr_mult: 1
    decay_mult: 1
  }
  param {
    lr_mult: 2
    decay_mult: 0
  }
  convolution_param {
    num_o
I0908 15:49:29.052661 25770 layer_factory.hpp:74] Creating layer data
I0908 15:49:29.052690 25770 net.cpp:90] Creating Layer data
I0908 15:49:29.052705 25770 net.cpp:368] data -> data
I0908 15:49:29.052732 25770 net.cpp:368] data -> label
I0908 15:49:29.052752 25770 net.cpp:120] Setting up data
I0908 15:49:29.053262 25770 image_data_layer.cpp:36] Opening file train_manifest
I0908 15:49:29.064051 25770 image_data_layer.cpp:51] A total of 18611 images.
I0908 15:49:29.071643 25770 image_data_layer.cpp:74] output data size: 48,3,227,227
I0908 15:49:29.075475 25770 net.cpp:127] Top shape: 48 3 227 227 (7420176)
I0908 15:49:29.075516 25770 net.cpp:127] Top shape: 48 (48)
I0908 15:49:29.075531 25770 layer_factory.hpp:74] Creating layer label_data_1_split
I0908 15:49:29.075553 25770 net.cpp:90] Creating Layer label_data_1_split
I0908 15:49:29.075567 25770 net.cpp:410] label_data_1_split <- label
I0908 15:49:29.075592 25770 net.cpp:368] label_data_1_split -> label_data_1_split_0
I0908 15:49:29.075628 25770 net.cpp:368] label_data_1_split -> label_data_1_split_1
I0908 15:49:29.075659 25770 net.cpp:368] label_data_1_split -> label_data_1_split_2
I0908 15:49:29.075675 25770 net.cpp:120] Setting up label_data_1_split
I0908 15:49:29.075693 25770 net.cpp:127] Top shape: 48 (48)
I0908 15:49:29.075706 25770 net.cpp:127] Top shape: 48 (48)
I0908 15:49:29.075717 25770 net.cpp:127] Top shape: 48 (48)
I0908 15:49:29.075728 25770 layer_factory.hpp:74] Creating layer conv1
I0908 15:49:29.075749 25770 net.cpp:90] Creating Layer conv1
I0908 15:49:29.075760 25770 net.cpp:410] conv1 <- data
I0908 15:49:29.075775 25770 net.cpp:368] conv1 -> conv1
I0908 15:49:29.075790 25770 net.cpp:120] Setting up conv1
I0908 15:49:29.912789 25770 net.cpp:127] Top shape: 48 64 114 114 (39923712)
I0908 15:49:29.912839 25770 layer_factory.hpp:74] Creating layer relu1
I0908 15:49:29.912859 25770 net.cpp:90] Creating Layer relu1
I0908 15:49:29.912875 25770 net.cpp:410] relu1 <- conv1
I0908 15:49:29.912892 25770 net.cpp:357] relu1 -> conv1 (in-place)
I0908 15:49:29.912909 25770 net.cpp:120] Setting up relu1
I0908 15:49:29.912972 25770 net.cpp:127] Top shape: 48 64 114 114 (39923712)
I0908 15:49:29.912984 25770 layer_factory.hpp:74] Creating layer pool1
I0908 15:49:29.913003 25770 net.cpp:90] Creating Layer pool1
I0908 15:49:29.913013 25770 net.cpp:410] pool1 <- conv1
I0908 15:49:29.913028 25770 net.cpp:368] pool1 -> pool1
I0908 15:49:29.913043 25770 net.cpp:120] Setting up pool1
I0908 15:49:29.913213 25770 net.cpp:127] Top shape: 48 64 57 57 (9980928)
I0908 15:49:29.913226 25770 layer_factory.hpp:74] Creating layer norm1
I0908 15:49:29.913242 25770 net.cpp:90] Creating Layer norm1
I0908 15:49:29.913254 25770 net.cpp:410] norm1 <- pool1
I0908 15:49:29.913267 25770 net.cpp:368] norm1 -> norm1
I0908 15:49:29.913282 25770 net.cpp:120] Setting up norm1
I0908 15:49:29.913300 25770 net.cpp:127] Top shape: 48 64 57 57 (9980928)
I0908 15:49:29.913311 25770 layer_factory.hpp:74] Creating layer reduction2
I0908 15:49:29.913327 25770 net.cpp:90] Creating Layer reduction2
I0908 15:49:29.913336 25770 net.cpp:410] reduction2 <- norm1
I0908 15:49:29.913350 25770 net.cpp:368] reduction2 -> reduction2
I0908 15:49:29.913368 25770 net.cpp:120] Setting up reduction2
I0908 15:49:29.913661 25770 net.cpp:127] Top shape: 48 64 57 57 (9980928)
I0908 15:49:29.913681 25770 layer_factory.hpp:74] Creating layer relu_reduction2
I0908 15:49:29.913696 25770 net.cpp:90] Creating Layer relu_reduction2
I0908 15:49:29.913707 25770 net.cpp:410] relu_reduction2 <- reduction2
I0908 15:49:29.913720 25770 net.cpp:357] relu_reduction2 -> reduction2 (in-place)
I0908 15:49:29.913734 25770 net.cpp:120] Setting up relu_reduction2
I0908 15:49:29.913794 25770 net.cpp:127] Top shape: 48 64 57 57 (9980928)
I0908 15:49:29.913805 25770 layer_factory.hpp:74] Creating layer conv2
I0908 15:49:29.913821 25770 net.cpp:90] Creating Layer conv2
I0908 15:49:29.913831 25770 net.cpp:410] conv2 <- reduction2
I0908 15:49:29.913846 25770 net.cpp:368] conv2 -> conv2
I0908 15:49:29.913861 25770 net.cpp:120] Setting up conv2
I0908 15:49:29.915350 25770 net.cpp:127] Top shape: 48 192 57 57 (29942784)
I0908 15:49:29.915371 25770 layer_factory.hpp:74] Creating layer relu2
I0908 15:49:29.915387 25770 net.cpp:90] Creating Layer relu2
I0908 15:49:29.915400 25770 net.cpp:410] relu2 <- conv2
I0908 15:49:29.915412 25770 net.cpp:357] relu2 -> conv2 (in-place)
I0908 15:49:29.915426 25770 net.cpp:120] Setting up relu2
I0908 15:49:29.915488 25770 net.cpp:127] Top shape: 48 192 57 57 (29942784)
I0908 15:49:29.915499 25770 layer_factory.hpp:74] Creating layer norm2
I0908 15:49:29.915513 25770 net.cpp:90] Creating Layer norm2
I0908 15:49:29.915523 25770 net.cpp:410] norm2 <- conv2
I0908 15:49:29.915536 25770 net.cpp:368] norm2 -> norm2
I0908 15:49:29.915550 25770 net.cpp:120] Setting up norm2
I0908 15:49:29.915566 25770 net.cpp:127] Top shape: 48 192 57 57 (29942784)
I0908 15:49:29.915577 25770 layer_factory.hpp:74] Creating layer pool2
I0908 15:49:29.915591 25770 net.cpp:90] Creating Layer pool2
I0908 15:49:29.915611 25770 net.cpp:410] pool2 <- norm2
I0908 15:49:29.915634 25770 net.cpp:368] pool2 -> pool2
I0908 15:49:29.915650 25770 net.cpp:120] Setting up pool2
I0908 15:49:29.915712 25770 net.cpp:127] Top shape: 48 192 28 28 (7225344)
I0908 15:49:29.915724 25770 layer_factory.hpp:74] Creating layer pool2_pool2_0_split
I0908 15:49:29.915738 25770 net.cpp:90] Creating Layer pool2_pool2_0_split
I0908 15:49:29.915748 25770 net.cpp:410] pool2_pool2_0_split <- pool2
I0908 15:49:29.915761 25770 net.cpp:368] pool2_pool2_0_split -> pool2_pool2_0_split_0
I0908 15:49:29.915777 25770 net.cpp:368] pool2_pool2_0_split -> pool2_pool2_0_split_1
I0908 15:49:29.915793 25770 net.cpp:368] pool2_pool2_0_split -> pool2_pool2_0_split_2
I0908 15:49:29.915810 25770 net.cpp:368] pool2_pool2_0_split -> pool2_pool2_0_split_3
I0908 15:49:29.915824 25770 net.cpp:120] Setting up pool2_pool2_0_split
I0908 15:49:29.915841 25770 net.cpp:127] Top shape: 48 192 28 28 (7225344)
I0908 15:49:29.915853 25770 net.cpp:127] Top shape: 48 192 28 28 (7225344)
I0908 15:49:29.915866 25770 net.cpp:127] Top shape: 48 192 28 28 (7225344)
I0908 15:49:29.915879 25770 net.cpp:127] Top shape: 48 192 28 28 (7225344)
I0908 15:49:29.915890 25770 layer_factory.hpp:74] Creating layer icp1_reduction1
I0908 15:49:29.915905 25770 net.cpp:90] Creating Layer icp1_reduction1
I0908 15:49:29.915915 25770 net.cpp:410] icp1_reduction1 <- pool2_pool2_0_split_0
I0908 15:49:29.915928 25770 net.cpp:368] icp1_reduction1 -> icp1_reduction1
I0908 15:49:29.915946 25770 net.cpp:120] Setting up icp1_reduction1
I0908 15:49:29.916319 25770 net.cpp:127] Top shape: 48 96 28 28 (3612672)
I0908 15:49:29.916337 25770 layer_factory.hpp:74] Creating layer relu_icp1_reduction1
I0908 15:49:29.916350 25770 net.cpp:90] Creating Layer relu_icp1_reduction1
I0908 15:49:29.916362 25770 net.cpp:410] relu_icp1_reduction1 <- icp1_reduction1
I0908 15:49:29.916373 25770 net.cpp:357] relu_icp1_reduction1 -> icp1_reduction1 (in-place)
I0908 15:49:29.916388 25770 net.cpp:120] Setting up relu_icp1_reduction1
I0908 15:49:29.916538 25770 net.cpp:127] Top shape: 48 96 28 28 (3612672)
I0908 15:49:29.916550 25770 layer_factory.hpp:74] Creating layer icp1_reduction2
I0908 15:49:29.916566 25770 net.cpp:90] Creating Layer icp1_reduction2
I0908 15:49:29.916577 25770 net.cpp:410] icp1_reduction2 <- pool2_pool2_0_split_1
I0908 15:49:29.916591 25770 net.cpp:368] icp1_reduction2 -> icp1_reduction2
I0908 15:49:29.916607 25770 net.cpp:120] Setting up icp1_reduction2
I0908 15:49:29.916883 25770 net.cpp:127] Top shape: 48 16 28 28 (602112)
I0908 15:49:29.916903 25770 layer_factory.hpp:74] Creating layer relu_icp1_reduction2
I0908 15:49:29.916920 25770 net.cpp:90] Creating Layer relu_icp1_reduction2
I0908 15:49:29.916932 25770 net.cpp:410] relu_icp1_reduction2 <- icp1_reduction2
I0908 15:49:29.916944 25770 net.cpp:357] relu_icp1_reduction2 -> icp1_reduction2 (in-place)
I0908 15:49:29.916960 25770 net.cpp:120] Setting up relu_icp1_reduction2
I0908 15:49:29.917018 25770 net.cpp:127] Top shape: 48 16 28 28 (602112)
I0908 15:49:29.917029 25770 layer_factory.hpp:74] Creating layer icp1_pool
I0908 15:49:29.917042 25770 layer_factory.cpp:60] CUDNN does not support padding or multiple tops. Using Caffe's own pooling layer.
I0908 15:49:29.917053 25770 net.cpp:90] Creating Layer icp1_pool
I0908 15:49:29.917064 25770 net.cpp:410] icp1_pool <- pool2_pool2_0_split_2
I0908 15:49:29.917078 25770 net.cpp:368] icp1_pool -> icp1_pool
I0908 15:49:29.917093 25770 net.cpp:120] Setting up icp1_pool
I0908 15:49:29.917110 25770 net.cpp:127] Top shape: 48 192 28 28 (7225344)
I0908 15:49:29.917121 25770 layer_factory.hpp:74] Creating layer icp1_out0
I0908 15:49:29.917135 25770 net.cpp:90] Creating Layer icp1_out0
I0908 15:49:29.917145 25770 net.cpp:410] icp1_out0 <- pool2_pool2_0_split_3
I0908 15:49:29.917160 25770 net.cpp:368] icp1_out0 -> icp1_out0
I0908 15:49:29.917176 25770 net.cpp:120] Setting up icp1_out0
I0908 15:49:29.917510 25770 net.cpp:127] Top shape: 48 64 28 28 (2408448)
I0908 15:49:29.917527 25770 layer_factory.hpp:74] Creating layer relu_icp1_out0
I0908 15:49:29.917548 25770 net.cpp:90] Creating Layer relu_icp1_out0
I0908 15:49:29.917567 25770 net.cpp:410] relu_icp1_out0 <- icp1_out0
I0908 15:49:29.917579 25770 net.cpp:357] relu_icp1_out0 -> icp1_out0 (in-place)
I0908 15:49:29.917593 25770 net.cpp:120] Setting up relu_icp1_out0
I0908 15:49:29.917654 25770 net.cpp:127] Top shape: 48 64 28 28 (2408448)
I0908 15:49:29.917665 25770 layer_factory.hpp:74] Creating layer icp1_out1
I0908 15:49:29.917678 25770 net.cpp:90] Creating Layer icp1_out1
I0908 15:49:29.917690 25770 net.cpp:410] icp1_out1 <- icp1_reduction1
I0908 15:49:29.917703 25770 net.cpp:368] icp1_out1 -> icp1_out1
I0908 15:49:29.917719 25770 net.cpp:120] Setting up icp1_out1
I0908 15:49:29.919241 25770 net.cpp:127] Top shape: 48 128 28 28 (4816896)
I0908 15:49:29.919261 25770 layer_factory.hpp:74] Creating layer relu_icp1_out1
I0908 15:49:29.919275 25770 net.cpp:90] Creating Layer relu_icp1_out1
I0908 15:49:29.919286 25770 net.cpp:410] relu_icp1_out1 <- icp1_out1
I0908 15:49:29.919298 25770 net.cpp:357] relu_icp1_out1 -> icp1_out1 (in-place)
I0908 15:49:29.919312 25770 net.cpp:120] Setting up relu_icp1_out1
I0908 15:49:29.919373 25770 net.cpp:127] Top shape: 48 128 28 28 (4816896)
I0908 15:49:29.919384 25770 layer_factory.hpp:74] Creating layer icp1_out2
I0908 15:49:29.919399 25770 net.cpp:90] Creating Layer icp1_out2
I0908 15:49:29.919409 25770 net.cpp:410] icp1_out2 <- icp1_reduction2
I0908 15:49:29.919423 25770 net.cpp:368] icp1_out2 -> icp1_out2
I0908 15:49:29.919438 25770 net.cpp:120] Setting up icp1_out2
I0908 15:49:29.919843 25770 net.cpp:127] Top shape: 48 32 28 28 (1204224)
I0908 15:49:29.919860 25770 layer_factory.hpp:74] Creating layer relu_icp1_out2
I0908 15:49:29.919875 25770 net.cpp:90] Creating Layer relu_icp1_out2
I0908 15:49:29.919888 25770 net.cpp:410] relu_icp1_out2 <- icp1_out2
I0908 15:49:29.919900 25770 net.cpp:357] relu_icp1_out2 -> icp1_out2 (in-place)
I0908 15:49:29.919915 25770 net.cpp:120] Setting up relu_icp1_out2
I0908 15:49:29.920064 25770 net.cpp:127] Top shape: 48 32 28 28 (1204224)
I0908 15:49:29.920078 25770 layer_factory.hpp:74] Creating layer icp1_out3
I0908 15:49:29.920092 25770 net.cpp:90] Creating Layer icp1_out3
I0908 15:49:29.920104 25770 net.cpp:410] icp1_out3 <- icp1_pool
I0908 15:49:29.920117 25770 net.cpp:368] icp1_out3 -> icp1_out3
I0908 15:49:29.920133 25770 net.cpp:120] Setting up icp1_out3
I0908 15:49:29.920433 25770 net.cpp:127] Top shape: 48 32 28 28 (1204224)
I0908 15:49:29.920454 25770 layer_factory.hpp:74] Creating layer relu_icp1_out3
I0908 15:49:29.920469 25770 net.cpp:90] Creating Layer relu_icp1_out3
I0908 15:49:29.920480 25770 net.cpp:410] relu_icp1_out3 <- icp1_out3
I0908 15:49:29.920493 25770 net.cpp:357] relu_icp1_out3 -> icp1_out3 (in-place)
I0908 15:49:29.920508 25770 net.cpp:120] Setting up relu_icp1_out3
I0908 15:49:29.920568 25770 net.cpp:127] Top shape: 48 32 28 28 (1204224)
I0908 15:49:29.920580 25770 layer_factory.hpp:74] Creating layer icp2_in
I0908 15:49:29.920593 25770 net.cpp:90] Creating Layer icp2_in
I0908 15:49:29.920604 25770 net.cpp:410] icp2_in <- icp1_out0
I0908 15:49:29.920616 25770 net.cpp:410] icp2_in <- icp1_out1
I0908 15:49:29.920627 25770 net.cpp:410] icp2_in <- icp1_out2
I0908 15:49:29.920639 25770 net.cpp:410] icp2_in <- icp1_out3
I0908 15:49:29.920653 25770 net.cpp:368] icp2_in -> icp2_in
I0908 15:49:29.920668 25770 net.cpp:120] Setting up icp2_in
I0908 15:49:29.920686 25770 net.cpp:127] Top shape: 48 256 28 28 (9633792)
I0908 15:49:29.920696 25770 layer_factory.hpp:74] Creating layer icp2_in_icp2_in_0_split
I0908 15:49:29.920708 25770 net.cpp:90] Creating Layer icp2_in_icp2_in_0_split
I0908 15:49:29.920719 25770 net.cpp:410] icp2_in_icp2_in_0_split <- icp2_in
I0908 15:49:29.920732 25770 net.cpp:368] icp2_in_icp2_in_0_split -> icp2_in_icp2_in_0_split_0
I0908 15:49:29.920747 25770 net.cpp:368] icp2_in_icp2_in_0_split -> icp2_in_icp2_in_0_split_1
I0908 15:49:29.920763 25770 net.cpp:368] icp2_in_icp2_in_0_split -> icp2_in_icp2_in_0_split_2
I0908 15:49:29.920780 25770 net.cpp:368] icp2_in_icp2_in_0_split -> icp2_in_icp2_in_0_split_3
I0908 15:49:29.920799 25770 net.cpp:120] Setting up icp2_in_icp2_in_0_split
I0908 15:49:29.920820 25770 net.cpp:127] Top shape: 48 256 28 28 (9633792)
I0908 15:49:29.920830 25770 net.cpp:127] Top shape: 48 256 28 28 (9633792)
I0908 15:49:29.920840 25770 net.cpp:127] Top shape: 48 256 28 28 (9633792)
I0908 15:49:29.920850 25770 net.cpp:127] Top shape: 48 256 28 28 (9633792)
I0908 15:49:29.920857 25770 layer_factory.hpp:74] Creating layer icp2_reduction1
I0908 15:49:29.920869 25770 net.cpp:90] Creating Layer icp2_reduction1
I0908 15:49:29.920878 25770 net.cpp:410] icp2_reduction1 <- icp2_in_icp2_in_0_split_0
I0908 15:49:29.920889 25770 net.cpp:368] icp2_reduction1 -> icp2_reduction1
I0908 15:49:29.920902 25770 net.cpp:120] Setting up icp2_reduction1
I0908 15:49:29.921387 25770 net.cpp:127] Top shape: 48 128 28 28 (4816896)
I0908 15:49:29.921406 25770 layer_factory.hpp:74] Creating layer relu_icp2_reduction1
I0908 15:49:29.921419 25770 net.cpp:90] Creating Layer relu_icp2_reduction1
I0908 15:49:29.921430 25770 net.cpp:410] relu_icp2_reduction1 <- icp2_reduction1
I0908 15:49:29.921443 25770 net.cpp:357] relu_icp2_reduction1 -> icp2_reduction1 (in-place)
I0908 15:49:29.921458 25770 net.cpp:120] Setting up relu_icp2_reduction1
I0908 15:49:29.921517 25770 net.cpp:127] Top shape: 48 128 28 28 (4816896)
I0908 15:49:29.921530 25770 layer_factory.hpp:74] Creating layer icp2_reduction2
I0908 15:49:29.921545 25770 net.cpp:90] Creating Layer icp2_reduction2
I0908 15:49:29.921555 25770 net.cpp:410] icp2_reduction2 <- icp2_in_icp2_in_0_split_1
I0908 15:49:29.921569 25770 net.cpp:368] icp2_reduction2 -> icp2_reduction2
I0908 15:49:29.921584 25770 net.cpp:120] Setting up icp2_reduction2
I0908 15:49:29.921891 25770 net.cpp:127] Top shape: 48 32 28 28 (1204224)
I0908 15:49:29.921910 25770 layer_factory.hpp:74] Creating layer relu_icp2_reduction2
I0908 15:49:29.921923 25770 net.cpp:90] Creating Layer relu_icp2_reduction2
I0908 15:49:29.921933 25770 net.cpp:410] relu_icp2_reduction2 <- icp2_reduction2
I0908 15:49:29.921947 25770 net.cpp:357] relu_icp2_reduction2 -> icp2_reduction2 (in-place)
I0908 15:49:29.921962 25770 net.cpp:120] Setting up relu_icp2_reduction2
I0908 15:49:29.922116 25770 net.cpp:127] Top shape: 48 32 28 28 (1204224)
I0908 15:49:29.922128 25770 layer_factory.hpp:74] Creating layer icp2_pool
I0908 15:49:29.922139 25770 layer_factory.cpp:60] CUDNN does not support padding or multiple tops. Using Caffe's own pooling layer.
I0908 15:49:29.922154 25770 net.cpp:90] Creating Layer icp2_pool
I0908 15:49:29.922164 25770 net.cpp:410] icp2_pool <- icp2_in_icp2_in_0_split_2
I0908 15:49:29.922178 25770 net.cpp:368] icp2_pool -> icp2_pool
I0908 15:49:29.922194 25770 net.cpp:120] Setting up icp2_pool
I0908 15:49:29.922211 25770 net.cpp:127] Top shape: 48 256 28 28 (9633792)
I0908 15:49:29.922222 25770 layer_factory.hpp:74] Creating layer icp2_out0
I0908 15:49:29.922237 25770 net.cpp:90] Creating Layer icp2_out0
I0908 15:49:29.922247 25770 net.cpp:410] icp2_out0 <- icp2_in_icp2_in_0_split_3
I0908 15:49:29.922262 25770 net.cpp:368] icp2_out0 -> icp2_out0
I0908 15:49:29.922277 25770 net.cpp:120] Setting up icp2_out0
I0908 15:49:29.922780 25770 net.cpp:127] Top shape: 48 128 28 28 (4816896)
I0908 15:49:29.922799 25770 layer_factory.hpp:74] Creating layer relu_icp2_out0
I0908 15:49:29.922813 25770 net.cpp:90] Creating Layer relu_icp2_out0
I0908 15:49:29.922826 25770 net.cpp:410] relu_icp2_out0 <- icp2_out0
I0908 15:49:29.922838 25770 net.cpp:357] relu_icp2_out0 -> icp2_out0 (in-place)
I0908 15:49:29.922852 25770 net.cpp:120] Setting up relu_icp2_out0
I0908 15:49:29.922912 25770 net.cpp:127] Top shape: 48 128 28 28 (4816896)
I0908 15:49:29.922924 25770 layer_factory.hpp:74] Creating layer icp2_out1
I0908 15:49:29.922938 25770 net.cpp:90] Creating Layer icp2_out1
I0908 15:49:29.922950 25770 net.cpp:410] icp2_out1 <- icp2_reduction1
I0908 15:49:29.922965 25770 net.cpp:368] icp2_out1 -> icp2_out1
I0908 15:49:29.922983 25770 net.cpp:120] Setting up icp2_out1
I0908 15:49:29.925758 25770 net.cpp:127] Top shape: 48 192 28 28 (7225344)
I0908 15:49:29.925781 25770 layer_factory.hpp:74] Creating layer relu_icp2_out1
I0908 15:49:29.925804 25770 net.cpp:90] Creating Layer relu_icp2_out1
I0908 15:49:29.925817 25770 net.cpp:410] relu_icp2_out1 <- icp2_out1
I0908 15:49:29.925829 25770 net.cpp:357] relu_icp2_out1 -> icp2_out1 (in-place)
I0908 15:49:29.925843 25770 net.cpp:120] Setting up relu_icp2_out1
I0908 15:49:29.925904 25770 net.cpp:127] Top shape: 48 192 28 28 (7225344)
I0908 15:49:29.925916 25770 layer_factory.hpp:74] Creating layer icp2_out2
I0908 15:49:29.925930 25770 net.cpp:90] Creating Layer icp2_out2
I0908 15:49:29.925941 25770 net.cpp:410] icp2_out2 <- icp2_reduction2
I0908 15:49:29.925956 25770 net.cpp:368] icp2_out2 -> icp2_out2
I0908 15:49:29.925972 25770 net.cpp:120] Setting up icp2_out2
I0908 15:49:29.927104 25770 net.cpp:127] Top shape: 48 96 28 28 (3612672)
I0908 15:49:29.927124 25770 layer_factory.hpp:74] Creating layer relu_icp2_out2
I0908 15:49:29.927136 25770 net.cpp:90] Creating Layer relu_icp2_out2
I0908 15:49:29.927148 25770 net.cpp:410] relu_icp2_out2 <- icp2_out2
I0908 15:49:29.927161 25770 net.cpp:357] relu_icp2_out2 -> icp2_out2 (in-place)
I0908 15:49:29.927175 25770 net.cpp:120] Setting up relu_icp2_out2
I0908 15:49:29.927235 25770 net.cpp:127] Top shape: 48 96 28 28 (3612672)
I0908 15:49:29.927247 25770 layer_factory.hpp:74] Creating layer icp2_out3
I0908 15:49:29.927261 25770 net.cpp:90] Creating Layer icp2_out3
I0908 15:49:29.927271 25770 net.cpp:410] icp2_out3 <- icp2_pool
I0908 15:49:29.927285 25770 net.cpp:368] icp2_out3 -> icp2_out3
I0908 15:49:29.927301 25770 net.cpp:120] Setting up icp2_out3
I0908 15:49:29.927659 25770 net.cpp:127] Top shape: 48 64 28 28 (2408448)
I0908 15:49:29.927677 25770 layer_factory.hpp:74] Creating layer relu_icp2_out3
I0908 15:49:29.927691 25770 net.cpp:90] Creating Layer relu_icp2_out3
I0908 15:49:29.927702 25770 net.cpp:410] relu_icp2_out3 <- icp2_out3
I0908 15:49:29.927716 25770 net.cpp:357] relu_icp2_out3 -> icp2_out3 (in-place)
I0908 15:49:29.927731 25770 net.cpp:120] Setting up relu_icp2_out3
I0908 15:49:29.927884 25770 net.cpp:127] Top shape: 48 64 28 28 (2408448)
I0908 15:49:29.927896 25770 layer_factory.hpp:74] Creating layer icp2_out
I0908 15:49:29.927911 25770 net.cpp:90] Creating Layer icp2_out
I0908 15:49:29.927922 25770 net.cpp:410] icp2_out <- icp2_out0
I0908 15:49:29.927933 25770 net.cpp:410] icp2_out <- icp2_out1
I0908 15:49:29.927945 25770 net.cpp:410] icp2_out <- icp2_out2
I0908 15:49:29.927958 25770 net.cpp:410] icp2_out <- icp2_out3
I0908 15:49:29.927971 25770 net.cpp:368] icp2_out -> icp2_out
I0908 15:49:29.927988 25770 net.cpp:120] Setting up icp2_out
I0908 15:49:29.928004 25770 net.cpp:127] Top shape: 48 480 28 28 (18063360)
I0908 15:49:29.928014 25770 layer_factory.hpp:74] Creating layer icp3_in
I0908 15:49:29.928028 25770 net.cpp:90] Creating Layer icp3_in
I0908 15:49:29.928038 25770 net.cpp:410] icp3_in <- icp2_out
I0908 15:49:29.928051 25770 net.cpp:368] icp3_in -> icp3_in
I0908 15:49:29.928066 25770 net.cpp:120] Setting up icp3_in
I0908 15:49:29.928128 25770 net.cpp:127] Top shape: 48 480 14 14 (4515840)
I0908 15:49:29.928139 25770 layer_factory.hpp:74] Creating layer icp3_in_icp3_in_0_split
I0908 15:49:29.928153 25770 net.cpp:90] Creating Layer icp3_in_icp3_in_0_split
I0908 15:49:29.928164 25770 net.cpp:410] icp3_in_icp3_in_0_split <- icp3_in
I0908 15:49:29.928177 25770 net.cpp:368] icp3_in_icp3_in_0_split -> icp3_in_icp3_in_0_split_0
I0908 15:49:29.928194 25770 net.cpp:368] icp3_in_icp3_in_0_split -> icp3_in_icp3_in_0_split_1
I0908 15:49:29.928210 25770 net.cpp:368] icp3_in_icp3_in_0_split -> icp3_in_icp3_in_0_split_2
I0908 15:49:29.928226 25770 net.cpp:368] icp3_in_icp3_in_0_split -> icp3_in_icp3_in_0_split_3
I0908 15:49:29.928241 25770 net.cpp:120] Setting up icp3_in_icp3_in_0_split
I0908 15:49:29.928257 25770 net.cpp:127] Top shape: 48 480 14 14 (4515840)
I0908 15:49:29.928270 25770 net.cpp:127] Top shape: 48 480 14 14 (4515840)
I0908 15:49:29.928282 25770 net.cpp:127] Top shape: 48 480 14 14 (4515840)
I0908 15:49:29.928293 25770 net.cpp:127] Top shape: 48 480 14 14 (4515840)
I0908 15:49:29.928316 25770 layer_factory.hpp:74] Creating layer icp3_reduction1
I0908 15:49:29.928340 25770 net.cpp:90] Creating Layer icp3_reduction1
I0908 15:49:29.928352 25770 net.cpp:410] icp3_reduction1 <- icp3_in_icp3_in_0_split_0
I0908 15:49:29.928366 25770 net.cpp:368] icp3_reduction1 -> icp3_reduction1
I0908 15:49:29.928382 25770 net.cpp:120] Setting up icp3_reduction1
I0908 15:49:29.928946 25770 net.cpp:127] Top shape: 48 96 14 14 (903168)
I0908 15:49:29.928964 25770 layer_factory.hpp:74] Creating layer relu_icp3_reduction1
I0908 15:49:29.928977 25770 net.cpp:90] Creating Layer relu_icp3_reduction1
I0908 15:49:29.928988 25770 net.cpp:410] relu_icp3_reduction1 <- icp3_reduction1
I0908 15:49:29.929002 25770 net.cpp:357] relu_icp3_reduction1 -> icp3_reduction1 (in-place)
I0908 15:49:29.929015 25770 net.cpp:120] Setting up relu_icp3_reduction1
I0908 15:49:29.929075 25770 net.cpp:127] Top shape: 48 96 14 14 (903168)
I0908 15:49:29.929086 25770 layer_factory.hpp:74] Creating layer icp3_reduction2
I0908 15:49:29.929100 25770 net.cpp:90] Creating Layer icp3_reduction2
I0908 15:49:29.929111 25770 net.cpp:410] icp3_reduction2 <- icp3_in_icp3_in_0_split_1
I0908 15:49:29.929126 25770 net.cpp:368] icp3_reduction2 -> icp3_reduction2
I0908 15:49:29.929142 25770 net.cpp:120] Setting up icp3_reduction2
I0908 15:49:29.929447 25770 net.cpp:127] Top shape: 48 16 14 14 (150528)
I0908 15:49:29.929469 25770 layer_factory.hpp:74] Creating layer relu_icp3_reduction2
I0908 15:49:29.929484 25770 net.cpp:90] Creating Layer relu_icp3_reduction2
I0908 15:49:29.929497 25770 net.cpp:410] relu_icp3_reduction2 <- icp3_reduction2
I0908 15:49:29.929509 25770 net.cpp:357] relu_icp3_reduction2 -> icp3_reduction2 (in-place)
I0908 15:49:29.929523 25770 net.cpp:120] Setting up relu_icp3_reduction2
I0908 15:49:29.929584 25770 net.cpp:127] Top shape: 48 16 14 14 (150528)
I0908 15:49:29.929594 25770 layer_factory.hpp:74] Creating layer icp3_pool
I0908 15:49:29.929606 25770 layer_factory.cpp:60] CUDNN does not support padding or multiple tops. Using Caffe's own pooling layer.
I0908 15:49:29.929617 25770 net.cpp:90] Creating Layer icp3_pool
I0908 15:49:29.929628 25770 net.cpp:410] icp3_pool <- icp3_in_icp3_in_0_split_2
I0908 15:49:29.929642 25770 net.cpp:368] icp3_pool -> icp3_pool
I0908 15:49:29.929657 25770 net.cpp:120] Setting up icp3_pool
I0908 15:49:29.929674 25770 net.cpp:127] Top shape: 48 480 14 14 (4515840)
I0908 15:49:29.929685 25770 layer_factory.hpp:74] Creating layer icp3_out0
I0908 15:49:29.929699 25770 net.cpp:90] Creating Layer icp3_out0
I0908 15:49:29.929710 25770 net.cpp:410] icp3_out0 <- icp3_in_icp3_in_0_split_3
I0908 15:49:29.929724 25770 net.cpp:368] icp3_out0 -> icp3_out0
I0908 15:49:29.929739 25770 net.cpp:120] Setting up icp3_out0
I0908 15:49:29.930572 25770 net.cpp:127] Top shape: 48 192 14 14 (1806336)
I0908 15:49:29.930589 25770 layer_factory.hpp:74] Creating layer relu_icp3_out0
I0908 15:49:29.930603 25770 net.cpp:90] Creating Layer relu_icp3_out0
I0908 15:49:29.930624 25770 net.cpp:410] relu_icp3_out0 <- icp3_out0
I0908 15:49:29.930636 25770 net.cpp:357] relu_icp3_out0 -> icp3_out0 (in-place)
I0908 15:49:29.930651 25770 net.cpp:120] Setting up relu_icp3_out0
I0908 15:49:29.930805 25770 net.cpp:127] Top shape: 48 192 14 14 (1806336)
I0908 15:49:29.930817 25770 layer_factory.hpp:74] Creating layer icp3_out1
I0908 15:49:29.930833 25770 net.cpp:90] Creating Layer icp3_out1
I0908 15:49:29.930845 25770 net.cpp:410] icp3_out1 <- icp3_reduction1
I0908 15:49:29.930860 25770 net.cpp:368] icp3_out1 -> icp3_out1
I0908 15:49:29.930876 25770 net.cpp:120] Setting up icp3_out1
I0908 15:49:29.933162 25770 net.cpp:127] Top shape: 48 208 14 14 (1956864)
I0908 15:49:29.933182 25770 layer_factory.hpp:74] Creating layer relu_icp3_out1
I0908 15:49:29.933195 25770 net.cpp:90] Creating Layer relu_icp3_out1
I0908 15:49:29.933205 25770 net.cpp:410] relu_icp3_out1 <- icp3_out1
I0908 15:49:29.933218 25770 net.cpp:357] relu_icp3_out1 -> icp3_out1 (in-place)
I0908 15:49:29.933233 25770 net.cpp:120] Setting up relu_icp3_out1
I0908 15:49:29.933300 25770 net.cpp:127] Top shape: 48 208 14 14 (1956864)
I0908 15:49:29.933316 25770 layer_factory.hpp:74] Creating layer icp3_out2
I0908 15:49:29.933332 25770 net.cpp:90] Creating Layer icp3_out2
I0908 15:49:29.933343 25770 net.cpp:410] icp3_out2 <- icp3_reduction2
I0908 15:49:29.933357 25770 net.cpp:368] icp3_out2 -> icp3_out2
I0908 15:49:29.933373 25770 net.cpp:120] Setting up icp3_out2
I0908 15:49:29.933851 25770 net.cpp:127] Top shape: 48 48 14 14 (451584)
I0908 15:49:29.933868 25770 layer_factory.hpp:74] Creating layer relu_icp3_out2
I0908 15:49:29.933882 25770 net.cpp:90] Creating Layer relu_icp3_out2
I0908 15:49:29.933893 25770 net.cpp:410] relu_icp3_out2 <- icp3_out2
I0908 15:49:29.933907 25770 net.cpp:357] relu_icp3_out2 -> icp3_out2 (in-place)
I0908 15:49:29.933922 25770 net.cpp:120] Setting up relu_icp3_out2
I0908 15:49:29.933980 25770 net.cpp:127] Top shape: 48 48 14 14 (451584)
I0908 15:49:29.933992 25770 layer_factory.hpp:74] Creating layer icp3_out3
I0908 15:49:29.934007 25770 net.cpp:90] Creating Layer icp3_out3
I0908 15:49:29.934018 25770 net.cpp:410] icp3_out3 <- icp3_pool
I0908 15:49:29.934033 25770 net.cpp:368] icp3_out3 -> icp3_out3
I0908 15:49:29.934049 25770 net.cpp:120] Setting up icp3_out3
I0908 15:49:29.934494 25770 net.cpp:127] Top shape: 48 64 14 14 (602112)
I0908 15:49:29.934511 25770 layer_factory.hpp:74] Creating layer relu_icp3_out3
I0908 15:49:29.934525 25770 net.cpp:90] Creating Layer relu_icp3_out3
I0908 15:49:29.934536 25770 net.cpp:410] relu_icp3_out3 <- icp3_out3
I0908 15:49:29.934550 25770 net.cpp:357] relu_icp3_out3 -> icp3_out3 (in-place)
I0908 15:49:29.934564 25770 net.cpp:120] Setting up relu_icp3_out3
I0908 15:49:29.934628 25770 net.cpp:127] Top shape: 48 64 14 14 (602112)
I0908 15:49:29.934640 25770 layer_factory.hpp:74] Creating layer icp3_out
I0908 15:49:29.934653 25770 net.cpp:90] Creating Layer icp3_out
I0908 15:49:29.934664 25770 net.cpp:410] icp3_out <- icp3_out0
I0908 15:49:29.934675 25770 net.cpp:410] icp3_out <- icp3_out1
I0908 15:49:29.934687 25770 net.cpp:410] icp3_out <- icp3_out2
I0908 15:49:29.934700 25770 net.cpp:410] icp3_out <- icp3_out3
I0908 15:49:29.934715 25770 net.cpp:368] icp3_out -> icp3_out
I0908 15:49:29.934731 25770 net.cpp:120] Setting up icp3_out
I0908 15:49:29.934746 25770 net.cpp:127] Top shape: 48 512 14 14 (4816896)
I0908 15:49:29.934756 25770 layer_factory.hpp:74] Creating layer icp3_out_icp3_out_0_split
I0908 15:49:29.934769 25770 net.cpp:90] Creating Layer icp3_out_icp3_out_0_split
I0908 15:49:29.934779 25770 net.cpp:410] icp3_out_icp3_out_0_split <- icp3_out
I0908 15:49:29.934793 25770 net.cpp:368] icp3_out_icp3_out_0_split -> icp3_out_icp3_out_0_split_0
I0908 15:49:29.934809 25770 net.cpp:368] icp3_out_icp3_out_0_split -> icp3_out_icp3_out_0_split_1
I0908 15:49:29.934826 25770 net.cpp:368] icp3_out_icp3_out_0_split -> icp3_out_icp3_out_0_split_2
I0908 15:49:29.934844 25770 net.cpp:368] icp3_out_icp3_out_0_split -> icp3_out_icp3_out_0_split_3
I0908 15:49:29.934859 25770 net.cpp:368] icp3_out_icp3_out_0_split -> icp3_out_icp3_out_0_split_4
I0908 15:49:29.934873 25770 net.cpp:120] Setting up icp3_out_icp3_out_0_split
I0908 15:49:29.934890 25770 net.cpp:127] Top shape: 48 512 14 14 (4816896)
I0908 15:49:29.934902 25770 net.cpp:127] Top shape: 48 512 14 14 (4816896)
I0908 15:49:29.934916 25770 net.cpp:127] Top shape: 48 512 14 14 (4816896)
I0908 15:49:29.934928 25770 net.cpp:127] Top shape: 48 512 14 14 (4816896)
I0908 15:49:29.934942 25770 net.cpp:127] Top shape: 48 512 14 14 (4816896)
I0908 15:49:29.934952 25770 layer_factory.hpp:74] Creating layer cls1_pool
I0908 15:49:29.934967 25770 net.cpp:90] Creating Layer cls1_pool
I0908 15:49:29.934976 25770 net.cpp:410] cls1_pool <- icp3_out_icp3_out_0_split_0
I0908 15:49:29.934989 25770 net.cpp:368] cls1_pool -> cls1_pool
I0908 15:49:29.935004 25770 net.cpp:120] Setting up cls1_pool
I0908 15:49:29.935155 25770 net.cpp:127] Top shape: 48 512 4 4 (393216)
I0908 15:49:29.935168 25770 layer_factory.hpp:74] Creating layer cls1_reduction
I0908 15:49:29.935184 25770 net.cpp:90] Creating Layer cls1_reduction
I0908 15:49:29.935199 25770 net.cpp:410] cls1_reduction <- cls1_pool
I0908 15:49:29.935223 25770 net.cpp:368] cls1_reduction -> cls1_reduction
I0908 15:49:29.935240 25770 net.cpp:120] Setting up cls1_reduction
I0908 15:49:29.935899 25770 net.cpp:127] Top shape: 48 128 4 4 (98304)
I0908 15:49:29.935917 25770 layer_factory.hpp:74] Creating layer relu_cls1_reduction
I0908 15:49:29.935931 25770 net.cpp:90] Creating Layer relu_cls1_reduction
I0908 15:49:29.935942 25770 net.cpp:410] relu_cls1_reduction <- cls1_reduction
I0908 15:49:29.935955 25770 net.cpp:357] relu_cls1_reduction -> cls1_reduction (in-place)
I0908 15:49:29.935968 25770 net.cpp:120] Setting up relu_cls1_reduction
I0908 15:49:29.936028 25770 net.cpp:127] Top shape: 48 128 4 4 (98304)
I0908 15:49:29.936039 25770 layer_factory.hpp:74] Creating layer cls1_fc1
I0908 15:49:29.936059 25770 net.cpp:90] Creating Layer cls1_fc1
I0908 15:49:29.936069 25770 net.cpp:410] cls1_fc1 <- cls1_reduction
I0908 15:49:29.936084 25770 net.cpp:368] cls1_fc1 -> cls1_fc1
I0908 15:49:29.936100 25770 net.cpp:120] Setting up cls1_fc1
I0908 15:49:29.959874 25770 net.cpp:127] Top shape: 48 1024 (49152)
I0908 15:49:29.959913 25770 layer_factory.hpp:74] Creating layer relu_cls1_fc1
I0908 15:49:29.959929 25770 net.cpp:90] Creating Layer relu_cls1_fc1
I0908 15:49:29.959942 25770 net.cpp:410] relu_cls1_fc1 <- cls1_fc1
I0908 15:49:29.959959 25770 net.cpp:357] relu_cls1_fc1 -> cls1_fc1 (in-place)
I0908 15:49:29.959976 25770 net.cpp:120] Setting up relu_cls1_fc1
I0908 15:49:29.960077 25770 net.cpp:127] Top shape: 48 1024 (49152)
I0908 15:49:29.960088 25770 layer_factory.hpp:74] Creating layer cls1_drop
I0908 15:49:29.960113 25770 net.cpp:90] Creating Layer cls1_drop
I0908 15:49:29.960122 25770 net.cpp:410] cls1_drop <- cls1_fc1
I0908 15:49:29.960135 25770 net.cpp:357] cls1_drop -> cls1_fc1 (in-place)
I0908 15:49:29.960150 25770 net.cpp:120] Setting up cls1_drop
I0908 15:49:29.960171 25770 net.cpp:127] Top shape: 48 1024 (49152)
I0908 15:49:29.960182 25770 layer_factory.hpp:74] Creating layer cls1_fc2-t
I0908 15:49:29.960197 25770 net.cpp:90] Creating Layer cls1_fc2-t
I0908 15:49:29.960207 25770 net.cpp:410] cls1_fc2-t <- cls1_fc1
I0908 15:49:29.960222 25770 net.cpp:368] cls1_fc2-t -> cls1_fc2-t
I0908 15:49:29.960238 25770 net.cpp:120] Setting up cls1_fc2-t
I0908 15:49:29.961417 25770 net.cpp:127] Top shape: 48 100 (4800)
I0908 15:49:29.961433 25770 layer_factory.hpp:74] Creating layer loss1
I0908 15:49:29.961448 25770 net.cpp:90] Creating Layer loss1
I0908 15:49:29.961459 25770 net.cpp:410] loss1 <- cls1_fc2-t
I0908 15:49:29.961472 25770 net.cpp:410] loss1 <- label_data_1_split_0
I0908 15:49:29.961486 25770 net.cpp:368] loss1 -> loss1
I0908 15:49:29.961501 25770 net.cpp:120] Setting up loss1
I0908 15:49:29.961518 25770 layer_factory.hpp:74] Creating layer loss1
I0908 15:49:29.961772 25770 net.cpp:127] Top shape: (1)
I0908 15:49:29.961786 25770 net.cpp:129]     with loss weight 1
I0908 15:49:29.961814 25770 layer_factory.hpp:74] Creating layer icp4_reduction1
I0908 15:49:29.961830 25770 net.cpp:90] Creating Layer icp4_reduction1
I0908 15:49:29.961841 25770 net.cpp:410] icp4_reduction1 <- icp3_out_icp3_out_0_split_1
I0908 15:49:29.961856 25770 net.cpp:368] icp4_reduction1 -> icp4_reduction1
I0908 15:49:29.961872 25770 net.cpp:120] Setting up icp4_reduction1
I0908 15:49:29.962492 25770 net.cpp:127] Top shape: 48 112 14 14 (1053696)
I0908 15:49:29.962512 25770 layer_factory.hpp:74] Creating layer relu_icp4_reduction1
I0908 15:49:29.962525 25770 net.cpp:90] Creating Layer relu_icp4_reduction1
I0908 15:49:29.962535 25770 net.cpp:410] relu_icp4_reduction1 <- icp4_reduction1
I0908 15:49:29.962548 25770 net.cpp:357] relu_icp4_reduction1 -> icp4_reduction1 (in-place)
I0908 15:49:29.962563 25770 net.cpp:120] Setting up relu_icp4_reduction1
I0908 15:49:29.962630 25770 net.cpp:127] Top shape: 48 112 14 14 (1053696)
I0908 15:49:29.962642 25770 layer_factory.hpp:74] Creating layer icp4_reduction2
I0908 15:49:29.962656 25770 net.cpp:90] Creating Layer icp4_reduction2
I0908 15:49:29.962668 25770 net.cpp:410] icp4_reduction2 <- icp3_out_icp3_out_0_split_2
I0908 15:49:29.962700 25770 net.cpp:368] icp4_reduction2 -> icp4_reduction2
I0908 15:49:29.962718 25770 net.cpp:120] Setting up icp4_reduction2
I0908 15:49:29.963058 25770 net.cpp:127] Top shape: 48 24 14 14 (225792)
I0908 15:49:29.963076 25770 layer_factory.hpp:74] Creating layer relu_icp4_reduction2
I0908 15:49:29.963090 25770 net.cpp:90] Creating Layer relu_icp4_reduction2
I0908 15:49:29.963101 25770 net.cpp:410] relu_icp4_reduction2 <- icp4_reduction2
I0908 15:49:29.963114 25770 net.cpp:357] relu_icp4_reduction2 -> icp4_reduction2 (in-place)
I0908 15:49:29.963129 25770 net.cpp:120] Setting up relu_icp4_reduction2
I0908 15:49:29.963188 25770 net.cpp:127] Top shape: 48 24 14 14 (225792)
I0908 15:49:29.963201 25770 layer_factory.hpp:74] Creating layer icp4_pool
I0908 15:49:29.963212 25770 layer_factory.cpp:60] CUDNN does not support padding or multiple tops. Using Caffe's own pooling layer.
I0908 15:49:29.963223 25770 net.cpp:90] Creating Layer icp4_pool
I0908 15:49:29.963234 25770 net.cpp:410] icp4_pool <- icp3_out_icp3_out_0_split_3
I0908 15:49:29.963248 25770 net.cpp:368] icp4_pool -> icp4_pool
I0908 15:49:29.963263 25770 net.cpp:120] Setting up icp4_pool
I0908 15:49:29.963282 25770 net.cpp:127] Top shape: 48 512 14 14 (4816896)
I0908 15:49:29.963292 25770 layer_factory.hpp:74] Creating layer icp4_out0
I0908 15:49:29.963307 25770 net.cpp:90] Creating Layer icp4_out0
I0908 15:49:29.963317 25770 net.cpp:410] icp4_out0 <- icp3_out_icp3_out_0_split_4
I0908 15:49:29.963331 25770 net.cpp:368] icp4_out0 -> icp4_out0
I0908 15:49:29.963347 25770 net.cpp:120] Setting up icp4_out0
I0908 15:49:29.964104 25770 net.cpp:127] Top shape: 48 160 14 14 (1505280)
I0908 15:49:29.964123 25770 layer_factory.hpp:74] Creating layer relu_icp4_out0
I0908 15:49:29.964136 25770 net.cpp:90] Creating Layer relu_icp4_out0
I0908 15:49:29.964148 25770 net.cpp:410] relu_icp4_out0 <- icp4_out0
I0908 15:49:29.964159 25770 net.cpp:357] relu_icp4_out0 -> icp4_out0 (in-place)
I0908 15:49:29.964174 25770 net.cpp:120] Setting up relu_icp4_out0
I0908 15:49:29.964234 25770 net.cpp:127] Top shape: 48 160 14 14 (1505280)
I0908 15:49:29.964246 25770 layer_factory.hpp:74] Creating layer icp4_out1
I0908 15:49:29.964260 25770 net.cpp:90] Creating Layer icp4_out1
I0908 15:49:29.964272 25770 net.cpp:410] icp4_out1 <- icp4_reduction1
I0908 15:49:29.964287 25770 net.cpp:368] icp4_out1 -> icp4_out1
I0908 15:49:29.964303 25770 net.cpp:120] Setting up icp4_out1
I0908 15:49:29.967123 25770 net.cpp:127] Top shape: 48 224 14 14 (2107392)
I0908 15:49:29.967141 25770 layer_factory.hpp:74] Creating layer relu_icp4_out1
I0908 15:49:29.967155 25770 net.cpp:90] Creating Layer relu_icp4_out1
I0908 15:49:29.967166 25770 net.cpp:410] relu_icp4_out1 <- icp4_out1
I0908 15:49:29.967180 25770 net.cpp:357] relu_icp4_out1 -> icp4_out1 (in-place)
I0908 15:49:29.967193 25770 net.cpp:120] Setting up relu_icp4_out1
I0908 15:49:29.967347 25770 net.cpp:127] Top shape: 48 224 14 14 (2107392)
I0908 15:49:29.967360 25770 layer_factory.hpp:74] Creating layer icp4_out2
I0908 15:49:29.967375 25770 net.cpp:90] Creating Layer icp4_out2
I0908 15:49:29.967387 25770 net.cpp:410] icp4_out2 <- icp4_reduction2
I0908 15:49:29.967401 25770 net.cpp:368] icp4_out2 -> icp4_out2
I0908 15:49:29.967424 25770 net.cpp:120] Setting up icp4_out2
I0908 15:49:29.968119 25770 net.cpp:127] Top shape: 48 64 14 14 (602112)
I0908 15:49:29.968138 25770 layer_factory.hpp:74] Creating layer relu_icp4_out2
I0908 15:49:29.968152 25770 net.cpp:90] Creating Layer relu_icp4_out2
I0908 15:49:29.968164 25770 net.cpp:410] relu_icp4_out2 <- icp4_out2
I0908 15:49:29.968178 25770 net.cpp:357] relu_icp4_out2 -> icp4_out2 (in-place)
I0908 15:49:29.968191 25770 net.cpp:120] Setting up relu_icp4_out2
I0908 15:49:29.968252 25770 net.cpp:127] Top shape: 48 64 14 14 (602112)
I0908 15:49:29.968263 25770 layer_factory.hpp:74] Creating layer icp4_out3
I0908 15:49:29.968277 25770 net.cpp:90] Creating Layer icp4_out3
I0908 15:49:29.968289 25770 net.cpp:410] icp4_out3 <- icp4_pool
I0908 15:49:29.968303 25770 net.cpp:368] icp4_out3 -> icp4_out3
I0908 15:49:29.968323 25770 net.cpp:120] Setting up icp4_out3
I0908 15:49:29.968791 25770 net.cpp:127] Top shape: 48 64 14 14 (602112)
I0908 15:49:29.968809 25770 layer_factory.hpp:74] Creating layer relu_icp4_out3
I0908 15:49:29.968823 25770 net.cpp:90] Creating Layer relu_icp4_out3
I0908 15:49:29.968834 25770 net.cpp:410] relu_icp4_out3 <- icp4_out3
I0908 15:49:29.968847 25770 net.cpp:357] relu_icp4_out3 -> icp4_out3 (in-place)
I0908 15:49:29.968861 25770 net.cpp:120] Setting up relu_icp4_out3
I0908 15:49:29.968921 25770 net.cpp:127] Top shape: 48 64 14 14 (602112)
I0908 15:49:29.968932 25770 layer_factory.hpp:74] Creating layer icp4_out
I0908 15:49:29.968946 25770 net.cpp:90] Creating Layer icp4_out
I0908 15:49:29.968957 25770 net.cpp:410] icp4_out <- icp4_out0
I0908 15:49:29.968969 25770 net.cpp:410] icp4_out <- icp4_out1
I0908 15:49:29.968981 25770 net.cpp:410] icp4_out <- icp4_out2
I0908 15:49:29.968994 25770 net.cpp:410] icp4_out <- icp4_out3
I0908 15:49:29.969008 25770 net.cpp:368] icp4_out -> icp4_out
I0908 15:49:29.969023 25770 net.cpp:120] Setting up icp4_out
I0908 15:49:29.969041 25770 net.cpp:127] Top shape: 48 512 14 14 (4816896)
I0908 15:49:29.969051 25770 layer_factory.hpp:74] Creating layer icp4_out_icp4_out_0_split
I0908 15:49:29.969064 25770 net.cpp:90] Creating Layer icp4_out_icp4_out_0_split
I0908 15:49:29.969075 25770 net.cpp:410] icp4_out_icp4_out_0_split <- icp4_out
I0908 15:49:29.969089 25770 net.cpp:368] icp4_out_icp4_out_0_split -> icp4_out_icp4_out_0_split_0
I0908 15:49:29.969105 25770 net.cpp:368] icp4_out_icp4_out_0_split -> icp4_out_icp4_out_0_split_1
I0908 15:49:29.969120 25770 net.cpp:368] icp4_out_icp4_out_0_split -> icp4_out_icp4_out_0_split_2
I0908 15:49:29.969136 25770 net.cpp:368] icp4_out_icp4_out_0_split -> icp4_out_icp4_out_0_split_3
I0908 15:49:29.969151 25770 net.cpp:120] Setting up icp4_out_icp4_out_0_split
I0908 15:49:29.969167 25770 net.cpp:127] Top shape: 48 512 14 14 (4816896)
I0908 15:49:29.969179 25770 net.cpp:127] Top shape: 48 512 14 14 (4816896)
I0908 15:49:29.969190 25770 net.cpp:127] Top shape: 48 512 14 14 (4816896)
I0908 15:49:29.969202 25770 net.cpp:127] Top shape: 48 512 14 14 (4816896)
I0908 15:49:29.969213 25770 layer_factory.hpp:74] Creating layer icp5_reduction1
I0908 15:49:29.969228 25770 net.cpp:90] Creating Layer icp5_reduction1
I0908 15:49:29.969238 25770 net.cpp:410] icp5_reduction1 <- icp4_out_icp4_out_0_split_0
I0908 15:49:29.969252 25770 net.cpp:368] icp5_reduction1 -> icp5_reduction1
I0908 15:49:29.969267 25770 net.cpp:120] Setting up icp5_reduction1
I0908 15:49:29.969933 25770 net.cpp:127] Top shape: 48 128 14 14 (1204224)
I0908 15:49:29.969951 25770 layer_factory.hpp:74] Creating layer relu_icp5_reduction1
I0908 15:49:29.969966 25770 net.cpp:90] Creating Layer relu_icp5_reduction1
I0908 15:49:29.969979 25770 net.cpp:410] relu_icp5_reduction1 <- icp5_reduction1
I0908 15:49:29.969992 25770 net.cpp:357] relu_icp5_reduction1 -> icp5_reduction1 (in-place)
I0908 15:49:29.970006 25770 net.cpp:120] Setting up relu_icp5_reduction1
I0908 15:49:29.970067 25770 net.cpp:127] Top shape: 48 128 14 14 (1204224)
I0908 15:49:29.970077 25770 layer_factory.hpp:74] Creating layer icp5_reduction2
I0908 15:49:29.970093 25770 net.cpp:90] Creating Layer icp5_reduction2
I0908 15:49:29.970103 25770 net.cpp:410] icp5_reduction2 <- icp4_out_icp4_out_0_split_1
I0908 15:49:29.970118 25770 net.cpp:368] icp5_reduction2 -> icp5_reduction2
I0908 15:49:29.970134 25770 net.cpp:120] Setting up icp5_reduction2
I0908 15:49:29.970471 25770 net.cpp:127] Top shape: 48 24 14 14 (225792)
I0908 15:49:29.970489 25770 layer_factory.hpp:74] Creating layer relu_icp5_reduction2
I0908 15:49:29.970504 25770 net.cpp:90] Creating Layer relu_icp5_reduction2
I0908 15:49:29.970515 25770 net.cpp:410] relu_icp5_reduction2 <- icp5_reduction2
I0908 15:49:29.970527 25770 net.cpp:357] relu_icp5_reduction2 -> icp5_reduction2 (in-place)
I0908 15:49:29.970542 25770 net.cpp:120] Setting up relu_icp5_reduction2
I0908 15:49:29.970698 25770 net.cpp:127] Top shape: 48 24 14 14 (225792)
I0908 15:49:29.970716 25770 layer_factory.hpp:74] Creating layer icp5_pool
I0908 15:49:29.970737 25770 layer_factory.cpp:60] CUDNN does not support padding or multiple tops. Using Caffe's own pooling layer.
I0908 15:49:29.970752 25770 net.cpp:90] Creating Layer icp5_pool
I0908 15:49:29.970763 25770 net.cpp:410] icp5_pool <- icp4_out_icp4_out_0_split_2
I0908 15:49:29.970777 25770 net.cpp:368] icp5_pool -> icp5_pool
I0908 15:49:29.970793 25770 net.cpp:120] Setting up icp5_pool
I0908 15:49:29.970810 25770 net.cpp:127] Top shape: 48 512 14 14 (4816896)
I0908 15:49:29.970821 25770 layer_factory.hpp:74] Creating layer icp5_out0
I0908 15:49:29.970835 25770 net.cpp:90] Creating Layer icp5_out0
I0908 15:49:29.970846 25770 net.cpp:410] icp5_out0 <- icp4_out_icp4_out_0_split_3
I0908 15:49:29.970861 25770 net.cpp:368] icp5_out0 -> icp5_out0
I0908 15:49:29.970876 25770 net.cpp:120] Setting up icp5_out0
I0908 15:49:29.971541 25770 net.cpp:127] Top shape: 48 128 14 14 (1204224)
I0908 15:49:29.971568 25770 layer_factory.hpp:74] Creating layer relu_icp5_out0
I0908 15:49:29.971582 25770 net.cpp:90] Creating Layer relu_icp5_out0
I0908 15:49:29.971592 25770 net.cpp:410] relu_icp5_out0 <- icp5_out0
I0908 15:49:29.971606 25770 net.cpp:357] relu_icp5_out0 -> icp5_out0 (in-place)
I0908 15:49:29.971621 25770 net.cpp:120] Setting up relu_icp5_out0
I0908 15:49:29.971684 25770 net.cpp:127] Top shape: 48 128 14 14 (1204224)
I0908 15:49:29.971696 25770 layer_factory.hpp:74] Creating layer icp5_out1
I0908 15:49:29.971711 25770 net.cpp:90] Creating Layer icp5_out1
I0908 15:49:29.971722 25770 net.cpp:410] icp5_out1 <- icp5_reduction1
I0908 15:49:29.971737 25770 net.cpp:368] icp5_out1 -> icp5_out1
I0908 15:49:29.971753 25770 net.cpp:120] Setting up icp5_out1
I0908 15:49:29.975378 25770 net.cpp:127] Top shape: 48 256 14 14 (2408448)
I0908 15:49:29.975397 25770 layer_factory.hpp:74] Creating layer relu_icp5_out1
I0908 15:49:29.975410 25770 net.cpp:90] Creating Layer relu_icp5_out1
I0908 15:49:29.975422 25770 net.cpp:410] relu_icp5_out1 <- icp5_out1
I0908 15:49:29.975438 25770 net.cpp:357] relu_icp5_out1 -> icp5_out1 (in-place)
I0908 15:49:29.975452 25770 net.cpp:120] Setting up relu_icp5_out1
I0908 15:49:29.975518 25770 net.cpp:127] Top shape: 48 256 14 14 (2408448)
I0908 15:49:29.975530 25770 layer_factory.hpp:74] Creating layer icp5_out2
I0908 15:49:29.975546 25770 net.cpp:90] Creating Layer icp5_out2
I0908 15:49:29.975558 25770 net.cpp:410] icp5_out2 <- icp5_reduction2
I0908 15:49:29.975572 25770 net.cpp:368] icp5_out2 -> icp5_out2
I0908 15:49:29.975591 25770 net.cpp:120] Setting up icp5_out2
I0908 15:49:29.976323 25770 net.cpp:127] Top shape: 48 64 14 14 (602112)
I0908 15:49:29.976341 25770 layer_factory.hpp:74] Creating layer relu_icp5_out2
I0908 15:49:29.976356 25770 net.cpp:90] Creating Layer relu_icp5_out2
I0908 15:49:29.976366 25770 net.cpp:410] relu_icp5_out2 <- icp5_out2
I0908 15:49:29.976378 25770 net.cpp:357] relu_icp5_out2 -> icp5_out2 (in-place)
I0908 15:49:29.976393 25770 net.cpp:120] Setting up relu_icp5_out2
I0908 15:49:29.976459 25770 net.cpp:127] Top shape: 48 64 14 14 (602112)
I0908 15:49:29.976469 25770 layer_factory.hpp:74] Creating layer icp5_out3
I0908 15:49:29.976486 25770 net.cpp:90] Creating Layer icp5_out3
I0908 15:49:29.976497 25770 net.cpp:410] icp5_out3 <- icp5_pool
I0908 15:49:29.976511 25770 net.cpp:368] icp5_out3 -> icp5_out3
I0908 15:49:29.976526 25770 net.cpp:120] Setting up icp5_out3
I0908 15:49:29.977015 25770 net.cpp:127] Top shape: 48 64 14 14 (602112)
I0908 15:49:29.977031 25770 layer_factory.hpp:74] Creating layer relu_icp5_out3
I0908 15:49:29.977046 25770 net.cpp:90] Creating Layer relu_icp5_out3
I0908 15:49:29.977056 25770 net.cpp:410] relu_icp5_out3 <- icp5_out3
I0908 15:49:29.977072 25770 net.cpp:357] relu_icp5_out3 -> icp5_out3 (in-place)
I0908 15:49:29.977087 25770 net.cpp:120] Setting up relu_icp5_out3
I0908 15:49:29.977246 25770 net.cpp:127] Top shape: 48 64 14 14 (602112)
I0908 15:49:29.977259 25770 layer_factory.hpp:74] Creating layer icp5_out
I0908 15:49:29.977274 25770 net.cpp:90] Creating Layer icp5_out
I0908 15:49:29.977291 25770 net.cpp:410] icp5_out <- icp5_out0
I0908 15:49:29.977313 25770 net.cpp:410] icp5_out <- icp5_out1
I0908 15:49:29.977325 25770 net.cpp:410] icp5_out <- icp5_out2
I0908 15:49:29.977339 25770 net.cpp:410] icp5_out <- icp5_out3
I0908 15:49:29.977352 25770 net.cpp:368] icp5_out -> icp5_out
I0908 15:49:29.977367 25770 net.cpp:120] Setting up icp5_out
I0908 15:49:29.977383 25770 net.cpp:127] Top shape: 48 512 14 14 (4816896)
I0908 15:49:29.977394 25770 layer_factory.hpp:74] Creating layer icp5_out_icp5_out_0_split
I0908 15:49:29.977409 25770 net.cpp:90] Creating Layer icp5_out_icp5_out_0_split
I0908 15:49:29.977421 25770 net.cpp:410] icp5_out_icp5_out_0_split <- icp5_out
I0908 15:49:29.977432 25770 net.cpp:368] icp5_out_icp5_out_0_split -> icp5_out_icp5_out_0_split_0
I0908 15:49:29.977448 25770 net.cpp:368] icp5_out_icp5_out_0_split -> icp5_out_icp5_out_0_split_1
I0908 15:49:29.977465 25770 net.cpp:368] icp5_out_icp5_out_0_split -> icp5_out_icp5_out_0_split_2
I0908 15:49:29.977480 25770 net.cpp:368] icp5_out_icp5_out_0_split -> icp5_out_icp5_out_0_split_3
I0908 15:49:29.977494 25770 net.cpp:120] Setting up icp5_out_icp5_out_0_split
I0908 15:49:29.977511 25770 net.cpp:127] Top shape: 48 512 14 14 (4816896)
I0908 15:49:29.977524 25770 net.cpp:127] Top shape: 48 512 14 14 (4816896)
I0908 15:49:29.977535 25770 net.cpp:127] Top shape: 48 512 14 14 (4816896)
I0908 15:49:29.977546 25770 net.cpp:127] Top shape: 48 512 14 14 (4816896)
I0908 15:49:29.977555 25770 layer_factory.hpp:74] Creating layer icp6_reduction1
I0908 15:49:29.977573 25770 net.cpp:90] Creating Layer icp6_reduction1
I0908 15:49:29.977584 25770 net.cpp:410] icp6_reduction1 <- icp5_out_icp5_out_0_split_0
I0908 15:49:29.977599 25770 net.cpp:368] icp6_reduction1 -> icp6_reduction1
I0908 15:49:29.977614 25770 net.cpp:120] Setting up icp6_reduction1
I0908 15:49:29.978374 25770 net.cpp:127] Top shape: 48 144 14 14 (1354752)
I0908 15:49:29.978392 25770 layer_factory.hpp:74] Creating layer relu_icp6_reduction1
I0908 15:49:29.978409 25770 net.cpp:90] Creating Layer relu_icp6_reduction1
I0908 15:49:29.978418 25770 net.cpp:410] relu_icp6_reduction1 <- icp6_reduction1
I0908 15:49:29.978431 25770 net.cpp:357] relu_icp6_reduction1 -> icp6_reduction1 (in-place)
I0908 15:49:29.978446 25770 net.cpp:120] Setting up relu_icp6_reduction1
I0908 15:49:29.978510 25770 net.cpp:127] Top shape: 48 144 14 14 (1354752)
I0908 15:49:29.978521 25770 layer_factory.hpp:74] Creating layer icp6_reduction2
I0908 15:49:29.978538 25770 net.cpp:90] Creating Layer icp6_reduction2
I0908 15:49:29.978549 25770 net.cpp:410] icp6_reduction2 <- icp5_out_icp5_out_0_split_1
I0908 15:49:29.978561 25770 net.cpp:368] icp6_reduction2 -> icp6_reduction2
I0908 15:49:29.978577 25770 net.cpp:120] Setting up icp6_reduction2
I0908 15:49:29.978974 25770 net.cpp:127] Top shape: 48 32 14 14 (301056)
I0908 15:49:29.978992 25770 layer_factory.hpp:74] Creating layer relu_icp6_reduction2
I0908 15:49:29.979006 25770 net.cpp:90] Creating Layer relu_icp6_reduction2
I0908 15:49:29.979017 25770 net.cpp:410] relu_icp6_reduction2 <- icp6_reduction2
I0908 15:49:29.979029 25770 net.cpp:357] relu_icp6_reduction2 -> icp6_reduction2 (in-place)
I0908 15:49:29.979043 25770 net.cpp:120] Setting up relu_icp6_reduction2
I0908 15:49:29.979110 25770 net.cpp:127] Top shape: 48 32 14 14 (301056)
I0908 15:49:29.979121 25770 layer_factory.hpp:74] Creating layer icp6_pool
I0908 15:49:29.979132 25770 layer_factory.cpp:60] CUDNN does not support padding or multiple tops. Using Caffe's own pooling layer.
I0908 15:49:29.979146 25770 net.cpp:90] Creating Layer icp6_pool
I0908 15:49:29.979156 25770 net.cpp:410] icp6_pool <- icp5_out_icp5_out_0_split_2
I0908 15:49:29.979169 25770 net.cpp:368] icp6_pool -> icp6_pool
I0908 15:49:29.979184 25770 net.cpp:120] Setting up icp6_pool
I0908 15:49:29.979202 25770 net.cpp:127] Top shape: 48 512 14 14 (4816896)
I0908 15:49:29.979213 25770 layer_factory.hpp:74] Creating layer icp6_out0
I0908 15:49:29.979229 25770 net.cpp:90] Creating Layer icp6_out0
I0908 15:49:29.979239 25770 net.cpp:410] icp6_out0 <- icp5_out_icp5_out_0_split_3
I0908 15:49:29.979262 25770 net.cpp:368] icp6_out0 -> icp6_out0
I0908 15:49:29.979285 25770 net.cpp:120] Setting up icp6_out0
I0908 15:49:29.979940 25770 net.cpp:127] Top shape: 48 112 14 14 (1053696)
I0908 15:49:29.979959 25770 layer_factory.hpp:74] Creating layer relu_icp6_out0
I0908 15:49:29.979974 25770 net.cpp:90] Creating Layer relu_icp6_out0
I0908 15:49:29.979985 25770 net.cpp:410] relu_icp6_out0 <- icp6_out0
I0908 15:49:29.979997 25770 net.cpp:357] relu_icp6_out0 -> icp6_out0 (in-place)
I0908 15:49:29.980015 25770 net.cpp:120] Setting up relu_icp6_out0
I0908 15:49:29.980173 25770 net.cpp:127] Top shape: 48 112 14 14 (1053696)
I0908 15:49:29.980186 25770 layer_factory.hpp:74] Creating layer icp6_out1
I0908 15:49:29.980201 25770 net.cpp:90] Creating Layer icp6_out1
I0908 15:49:29.980212 25770 net.cpp:410] icp6_out1 <- icp6_reduction1
I0908 15:49:29.980228 25770 net.cpp:368] icp6_out1 -> icp6_out1
I0908 15:49:29.980244 25770 net.cpp:120] Setting up icp6_out1
I0908 15:49:29.984899 25770 net.cpp:127] Top shape: 48 288 14 14 (2709504)
I0908 15:49:29.984917 25770 layer_factory.hpp:74] Creating layer relu_icp6_out1
I0908 15:49:29.984932 25770 net.cpp:90] Creating Layer relu_icp6_out1
I0908 15:49:29.984944 25770 net.cpp:410] relu_icp6_out1 <- icp6_out1
I0908 15:49:29.984957 25770 net.cpp:357] relu_icp6_out1 -> icp6_out1 (in-place)
I0908 15:49:29.984971 25770 net.cpp:120] Setting up relu_icp6_out1
I0908 15:49:29.985036 25770 net.cpp:127] Top shape: 48 288 14 14 (2709504)
I0908 15:49:29.985049 25770 layer_factory.hpp:74] Creating layer icp6_out2
I0908 15:49:29.985062 25770 net.cpp:90] Creating Layer icp6_out2
I0908 15:49:29.985074 25770 net.cpp:410] icp6_out2 <- icp6_reduction2
I0908 15:49:29.985091 25770 net.cpp:368] icp6_out2 -> icp6_out2
I0908 15:49:29.985107 25770 net.cpp:120] Setting up icp6_out2
I0908 15:49:29.985991 25770 net.cpp:127] Top shape: 48 64 14 14 (602112)
I0908 15:49:29.986008 25770 layer_factory.hpp:74] Creating layer relu_icp6_out2
I0908 15:49:29.986021 25770 net.cpp:90] Creating Layer relu_icp6_out2
I0908 15:49:29.986032 25770 net.cpp:410] relu_icp6_out2 <- icp6_out2
I0908 15:49:29.986049 25770 net.cpp:357] relu_icp6_out2 -> icp6_out2 (in-place)
I0908 15:49:29.986063 25770 net.cpp:120] Setting up relu_icp6_out2
I0908 15:49:29.986129 25770 net.cpp:127] Top shape: 48 64 14 14 (602112)
I0908 15:49:29.986140 25770 layer_factory.hpp:74] Creating layer icp6_out3
I0908 15:49:29.986155 25770 net.cpp:90] Creating Layer icp6_out3
I0908 15:49:29.986166 25770 net.cpp:410] icp6_out3 <- icp6_pool
I0908 15:49:29.986181 25770 net.cpp:368] icp6_out3 -> icp6_out3
I0908 15:49:29.986196 25770 net.cpp:120] Setting up icp6_out3
I0908 15:49:29.986692 25770 net.cpp:127] Top shape: 48 64 14 14 (602112)
I0908 15:49:29.986711 25770 layer_factory.hpp:74] Creating layer relu_icp6_out3
I0908 15:49:29.986724 25770 net.cpp:90] Creating Layer relu_icp6_out3
I0908 15:49:29.986737 25770 net.cpp:410] relu_icp6_out3 <- icp6_out3
I0908 15:49:29.986752 25770 net.cpp:357] relu_icp6_out3 -> icp6_out3 (in-place)
I0908 15:49:29.986765 25770 net.cpp:120] Setting up relu_icp6_out3
I0908 15:49:29.986832 25770 net.cpp:127] Top shape: 48 64 14 14 (602112)
I0908 15:49:29.986843 25770 layer_factory.hpp:74] Creating layer icp6_out
I0908 15:49:29.986857 25770 net.cpp:90] Creating Layer icp6_out
I0908 15:49:29.986867 25770 net.cpp:410] icp6_out <- icp6_out0
I0908 15:49:29.986879 25770 net.cpp:410] icp6_out <- icp6_out1
I0908 15:49:29.986891 25770 net.cpp:410] icp6_out <- icp6_out2
I0908 15:49:29.986901 25770 net.cpp:410] icp6_out <- icp6_out3
I0908 15:49:29.986917 25770 net.cpp:368] icp6_out -> icp6_out
I0908 15:49:29.986932 25770 net.cpp:120] Setting up icp6_out
I0908 15:49:29.986948 25770 net.cpp:127] Top shape: 48 528 14 14 (4967424)
I0908 15:49:29.986958 25770 layer_factory.hpp:74] Creating layer icp6_out_icp6_out_0_split
I0908 15:49:29.986971 25770 net.cpp:90] Creating Layer icp6_out_icp6_out_0_split
I0908 15:49:29.986981 25770 net.cpp:410] icp6_out_icp6_out_0_split <- icp6_out
I0908 15:49:29.986996 25770 net.cpp:368] icp6_out_icp6_out_0_split -> icp6_out_icp6_out_0_split_0
I0908 15:49:29.987021 25770 net.cpp:368] icp6_out_icp6_out_0_split -> icp6_out_icp6_out_0_split_1
I0908 15:49:29.987038 25770 net.cpp:368] icp6_out_icp6_out_0_split -> icp6_out_icp6_out_0_split_2
I0908 15:49:29.987054 25770 net.cpp:368] icp6_out_icp6_out_0_split -> icp6_out_icp6_out_0_split_3
I0908 15:49:29.987069 25770 net.cpp:368] icp6_out_icp6_out_0_split -> icp6_out_icp6_out_0_split_4
I0908 15:49:29.987085 25770 net.cpp:120] Setting up icp6_out_icp6_out_0_split
I0908 15:49:29.987102 25770 net.cpp:127] Top shape: 48 528 14 14 (4967424)
I0908 15:49:29.987113 25770 net.cpp:127] Top shape: 48 528 14 14 (4967424)
I0908 15:49:29.987125 25770 net.cpp:127] Top shape: 48 528 14 14 (4967424)
I0908 15:49:29.987138 25770 net.cpp:127] Top shape: 48 528 14 14 (4967424)
I0908 15:49:29.987149 25770 net.cpp:127] Top shape: 48 528 14 14 (4967424)
I0908 15:49:29.987159 25770 layer_factory.hpp:74] Creating layer cls2_pool
I0908 15:49:29.987174 25770 net.cpp:90] Creating Layer cls2_pool
I0908 15:49:29.987184 25770 net.cpp:410] cls2_pool <- icp6_out_icp6_out_0_split_0
I0908 15:49:29.987196 25770 net.cpp:368] cls2_pool -> cls2_pool
I0908 15:49:29.987210 25770 net.cpp:120] Setting up cls2_pool
I0908 15:49:29.987373 25770 net.cpp:127] Top shape: 48 528 4 4 (405504)
I0908 15:49:29.987386 25770 layer_factory.hpp:74] Creating layer cls2_reduction
I0908 15:49:29.987404 25770 net.cpp:90] Creating Layer cls2_reduction
I0908 15:49:29.987416 25770 net.cpp:410] cls2_reduction <- cls2_pool
I0908 15:49:29.987431 25770 net.cpp:368] cls2_reduction -> cls2_reduction
I0908 15:49:29.987445 25770 net.cpp:120] Setting up cls2_reduction
I0908 15:49:29.988164 25770 net.cpp:127] Top shape: 48 128 4 4 (98304)
I0908 15:49:29.988183 25770 layer_factory.hpp:74] Creating layer relu_cls2_reduction
I0908 15:49:29.988200 25770 net.cpp:90] Creating Layer relu_cls2_reduction
I0908 15:49:29.988212 25770 net.cpp:410] relu_cls2_reduction <- cls2_reduction
I0908 15:49:29.988225 25770 net.cpp:357] relu_cls2_reduction -> cls2_reduction (in-place)
I0908 15:49:29.988240 25770 net.cpp:120] Setting up relu_cls2_reduction
I0908 15:49:29.988306 25770 net.cpp:127] Top shape: 48 128 4 4 (98304)
I0908 15:49:29.988317 25770 layer_factory.hpp:74] Creating layer cls2_fc1
I0908 15:49:29.988332 25770 net.cpp:90] Creating Layer cls2_fc1
I0908 15:49:29.988343 25770 net.cpp:410] cls2_fc1 <- cls2_reduction
I0908 15:49:29.988358 25770 net.cpp:368] cls2_fc1 -> cls2_fc1
I0908 15:49:29.988375 25770 net.cpp:120] Setting up cls2_fc1
I0908 15:49:30.012411 25770 net.cpp:127] Top shape: 48 1024 (49152)
I0908 15:49:30.012452 25770 layer_factory.hpp:74] Creating layer relu_cls2_fc1
I0908 15:49:30.012472 25770 net.cpp:90] Creating Layer relu_cls2_fc1
I0908 15:49:30.012485 25770 net.cpp:410] relu_cls2_fc1 <- cls2_fc1
I0908 15:49:30.012501 25770 net.cpp:357] relu_cls2_fc1 -> cls2_fc1 (in-place)
I0908 15:49:30.012517 25770 net.cpp:120] Setting up relu_cls2_fc1
I0908 15:49:30.012626 25770 net.cpp:127] Top shape: 48 1024 (49152)
I0908 15:49:30.012639 25770 layer_factory.hpp:74] Creating layer cls2_drop
I0908 15:49:30.012653 25770 net.cpp:90] Creating Layer cls2_drop
I0908 15:49:30.012663 25770 net.cpp:410] cls2_drop <- cls2_fc1
I0908 15:49:30.012678 25770 net.cpp:357] cls2_drop -> cls2_fc1 (in-place)
I0908 15:49:30.012692 25770 net.cpp:120] Setting up cls2_drop
I0908 15:49:30.012708 25770 net.cpp:127] Top shape: 48 1024 (49152)
I0908 15:49:30.012719 25770 layer_factory.hpp:74] Creating layer cls2_fc2-t
I0908 15:49:30.012735 25770 net.cpp:90] Creating Layer cls2_fc2-t
I0908 15:49:30.012744 25770 net.cpp:410] cls2_fc2-t <- cls2_fc1
I0908 15:49:30.012758 25770 net.cpp:368] cls2_fc2-t -> cls2_fc2-t
I0908 15:49:30.012775 25770 net.cpp:120] Setting up cls2_fc2-t
I0908 15:49:30.014003 25770 net.cpp:127] Top shape: 48 100 (4800)
I0908 15:49:30.014019 25770 layer_factory.hpp:74] Creating layer loss2
I0908 15:49:30.014036 25770 net.cpp:90] Creating Layer loss2
I0908 15:49:30.014047 25770 net.cpp:410] loss2 <- cls2_fc2-t
I0908 15:49:30.014060 25770 net.cpp:410] loss2 <- label_data_1_split_1
I0908 15:49:30.014084 25770 net.cpp:368] loss2 -> loss2
I0908 15:49:30.014108 25770 net.cpp:120] Setting up loss2
I0908 15:49:30.014122 25770 layer_factory.hpp:74] Creating layer loss2
I0908 15:49:30.014205 25770 net.cpp:127] Top shape: (1)
I0908 15:49:30.014216 25770 net.cpp:129]     with loss weight 1
I0908 15:49:30.014236 25770 layer_factory.hpp:74] Creating layer icp7_reduction1
I0908 15:49:30.014255 25770 net.cpp:90] Creating Layer icp7_reduction1
I0908 15:49:30.014266 25770 net.cpp:410] icp7_reduction1 <- icp6_out_icp6_out_0_split_1
I0908 15:49:30.014281 25770 net.cpp:368] icp7_reduction1 -> icp7_reduction1
I0908 15:49:30.014298 25770 net.cpp:120] Setting up icp7_reduction1
I0908 15:49:30.015238 25770 net.cpp:127] Top shape: 48 160 14 14 (1505280)
I0908 15:49:30.015257 25770 layer_factory.hpp:74] Creating layer relu_icp7_reduction1
I0908 15:49:30.015271 25770 net.cpp:90] Creating Layer relu_icp7_reduction1
I0908 15:49:30.015282 25770 net.cpp:410] relu_icp7_reduction1 <- icp7_reduction1
I0908 15:49:30.015295 25770 net.cpp:357] relu_icp7_reduction1 -> icp7_reduction1 (in-place)
I0908 15:49:30.015310 25770 net.cpp:120] Setting up relu_icp7_reduction1
I0908 15:49:30.015472 25770 net.cpp:127] Top shape: 48 160 14 14 (1505280)
I0908 15:49:30.015486 25770 layer_factory.hpp:74] Creating layer icp7_reduction2
I0908 15:49:30.015502 25770 net.cpp:90] Creating Layer icp7_reduction2
I0908 15:49:30.015514 25770 net.cpp:410] icp7_reduction2 <- icp6_out_icp6_out_0_split_2
I0908 15:49:30.015532 25770 net.cpp:368] icp7_reduction2 -> icp7_reduction2
I0908 15:49:30.015547 25770 net.cpp:120] Setting up icp7_reduction2
I0908 15:49:30.015935 25770 net.cpp:127] Top shape: 48 32 14 14 (301056)
I0908 15:49:30.015954 25770 layer_factory.hpp:74] Creating layer relu_icp7_reduction2
I0908 15:49:30.015966 25770 net.cpp:90] Creating Layer relu_icp7_reduction2
I0908 15:49:30.015977 25770 net.cpp:410] relu_icp7_reduction2 <- icp7_reduction2
I0908 15:49:30.015991 25770 net.cpp:357] relu_icp7_reduction2 -> icp7_reduction2 (in-place)
I0908 15:49:30.016005 25770 net.cpp:120] Setting up relu_icp7_reduction2
I0908 15:49:30.016072 25770 net.cpp:127] Top shape: 48 32 14 14 (301056)
I0908 15:49:30.016083 25770 layer_factory.hpp:74] Creating layer icp7_pool
I0908 15:49:30.016094 25770 layer_factory.cpp:60] CUDNN does not support padding or multiple tops. Using Caffe's own pooling layer.
I0908 15:49:30.016106 25770 net.cpp:90] Creating Layer icp7_pool
I0908 15:49:30.016118 25770 net.cpp:410] icp7_pool <- icp6_out_icp6_out_0_split_3
I0908 15:49:30.016131 25770 net.cpp:368] icp7_pool -> icp7_pool
I0908 15:49:30.016145 25770 net.cpp:120] Setting up icp7_pool
I0908 15:49:30.016165 25770 net.cpp:127] Top shape: 48 528 14 14 (4967424)
I0908 15:49:30.016175 25770 layer_factory.hpp:74] Creating layer icp7_out0
I0908 15:49:30.016191 25770 net.cpp:90] Creating Layer icp7_out0
I0908 15:49:30.016201 25770 net.cpp:410] icp7_out0 <- icp6_out_icp6_out_0_split_4
I0908 15:49:30.016216 25770 net.cpp:368] icp7_out0 -> icp7_out0
I0908 15:49:30.016232 25770 net.cpp:120] Setting up icp7_out0
I0908 15:49:30.017395 25770 net.cpp:127] Top shape: 48 256 14 14 (2408448)
I0908 15:49:30.017413 25770 layer_factory.hpp:74] Creating layer relu_icp7_out0
I0908 15:49:30.017429 25770 net.cpp:90] Creating Layer relu_icp7_out0
I0908 15:49:30.017441 25770 net.cpp:410] relu_icp7_out0 <- icp7_out0
I0908 15:49:30.017453 25770 net.cpp:357] relu_icp7_out0 -> icp7_out0 (in-place)
I0908 15:49:30.017467 25770 net.cpp:120] Setting up relu_icp7_out0
I0908 15:49:30.017532 25770 net.cpp:127] Top shape: 48 256 14 14 (2408448)
I0908 15:49:30.017545 25770 layer_factory.hpp:74] Creating layer icp7_out1
I0908 15:49:30.017560 25770 net.cpp:90] Creating Layer icp7_out1
I0908 15:49:30.017571 25770 net.cpp:410] icp7_out1 <- icp7_reduction1
I0908 15:49:30.017588 25770 net.cpp:368] icp7_out1 -> icp7_out1
I0908 15:49:30.017603 25770 net.cpp:120] Setting up icp7_out1
I0908 15:49:30.023360 25770 net.cpp:127] Top shape: 48 320 14 14 (3010560)
I0908 15:49:30.023381 25770 layer_factory.hpp:74] Creating layer relu_icp7_out1
I0908 15:49:30.023418 25770 net.cpp:90] Creating Layer relu_icp7_out1
I0908 15:49:30.023437 25770 net.cpp:410] relu_icp7_out1 <- icp7_out1
I0908 15:49:30.023452 25770 net.cpp:357] relu_icp7_out1 -> icp7_out1 (in-place)
I0908 15:49:30.023468 25770 net.cpp:120] Setting up relu_icp7_out1
I0908 15:49:30.023538 25770 net.cpp:127] Top shape: 48 320 14 14 (3010560)
I0908 15:49:30.023550 25770 layer_factory.hpp:74] Creating layer icp7_out2
I0908 15:49:30.023566 25770 net.cpp:90] Creating Layer icp7_out2
I0908 15:49:30.023576 25770 net.cpp:410] icp7_out2 <- icp7_reduction2
I0908 15:49:30.023592 25770 net.cpp:368] icp7_out2 -> icp7_out2
I0908 15:49:30.023608 25770 net.cpp:120] Setting up icp7_out2
I0908 15:49:30.025094 25770 net.cpp:127] Top shape: 48 128 14 14 (1204224)
I0908 15:49:30.025112 25770 layer_factory.hpp:74] Creating layer relu_icp7_out2
I0908 15:49:30.025127 25770 net.cpp:90] Creating Layer relu_icp7_out2
I0908 15:49:30.025140 25770 net.cpp:410] relu_icp7_out2 <- icp7_out2
I0908 15:49:30.025152 25770 net.cpp:357] relu_icp7_out2 -> icp7_out2 (in-place)
I0908 15:49:30.025166 25770 net.cpp:120] Setting up relu_icp7_out2
I0908 15:49:30.025327 25770 net.cpp:127] Top shape: 48 128 14 14 (1204224)
I0908 15:49:30.025343 25770 layer_factory.hpp:74] Creating layer icp7_out3
I0908 15:49:30.025360 25770 net.cpp:90] Creating Layer icp7_out3
I0908 15:49:30.025372 25770 net.cpp:410] icp7_out3 <- icp7_pool
I0908 15:49:30.025385 25770 net.cpp:368] icp7_out3 -> icp7_out3
I0908 15:49:30.025401 25770 net.cpp:120] Setting up icp7_out3
I0908 15:49:30.026124 25770 net.cpp:127] Top shape: 48 128 14 14 (1204224)
I0908 15:49:30.026144 25770 layer_factory.hpp:74] Creating layer relu_icp7_out3
I0908 15:49:30.026160 25770 net.cpp:90] Creating Layer relu_icp7_out3
I0908 15:49:30.026171 25770 net.cpp:410] relu_icp7_out3 <- icp7_out3
I0908 15:49:30.026185 25770 net.cpp:357] relu_icp7_out3 -> icp7_out3 (in-place)
I0908 15:49:30.026198 25770 net.cpp:120] Setting up relu_icp7_out3
I0908 15:49:30.026265 25770 net.cpp:127] Top shape: 48 128 14 14 (1204224)
I0908 15:49:30.026276 25770 layer_factory.hpp:74] Creating layer icp7_out
I0908 15:49:30.026290 25770 net.cpp:90] Creating Layer icp7_out
I0908 15:49:30.026300 25770 net.cpp:410] icp7_out <- icp7_out0
I0908 15:49:30.026312 25770 net.cpp:410] icp7_out <- icp7_out1
I0908 15:49:30.026324 25770 net.cpp:410] icp7_out <- icp7_out2
I0908 15:49:30.026336 25770 net.cpp:410] icp7_out <- icp7_out3
I0908 15:49:30.026350 25770 net.cpp:368] icp7_out -> icp7_out
I0908 15:49:30.026365 25770 net.cpp:120] Setting up icp7_out
I0908 15:49:30.026381 25770 net.cpp:127] Top shape: 48 832 14 14 (7827456)
I0908 15:49:30.026392 25770 layer_factory.hpp:74] Creating layer icp8_in
I0908 15:49:30.026408 25770 net.cpp:90] Creating Layer icp8_in
I0908 15:49:30.026418 25770 net.cpp:410] icp8_in <- icp7_out
I0908 15:49:30.026432 25770 net.cpp:368] icp8_in -> icp8_in
I0908 15:49:30.026446 25770 net.cpp:120] Setting up icp8_in
I0908 15:49:30.026517 25770 net.cpp:127] Top shape: 48 832 7 7 (1956864)
I0908 15:49:30.026528 25770 layer_factory.hpp:74] Creating layer icp8_in_icp8_in_0_split
I0908 15:49:30.026543 25770 net.cpp:90] Creating Layer icp8_in_icp8_in_0_split
I0908 15:49:30.026554 25770 net.cpp:410] icp8_in_icp8_in_0_split <- icp8_in
I0908 15:49:30.026567 25770 net.cpp:368] icp8_in_icp8_in_0_split -> icp8_in_icp8_in_0_split_0
I0908 15:49:30.026583 25770 net.cpp:368] icp8_in_icp8_in_0_split -> icp8_in_icp8_in_0_split_1
I0908 15:49:30.026599 25770 net.cpp:368] icp8_in_icp8_in_0_split -> icp8_in_icp8_in_0_split_2
I0908 15:49:30.026623 25770 net.cpp:368] icp8_in_icp8_in_0_split -> icp8_in_icp8_in_0_split_3
I0908 15:49:30.026638 25770 net.cpp:120] Setting up icp8_in_icp8_in_0_split
I0908 15:49:30.026654 25770 net.cpp:127] Top shape: 48 832 7 7 (1956864)
I0908 15:49:30.026666 25770 net.cpp:127] Top shape: 48 832 7 7 (1956864)
I0908 15:49:30.026677 25770 net.cpp:127] Top shape: 48 832 7 7 (1956864)
I0908 15:49:30.026690 25770 net.cpp:127] Top shape: 48 832 7 7 (1956864)
I0908 15:49:30.026700 25770 layer_factory.hpp:74] Creating layer icp8_reduction1
I0908 15:49:30.026717 25770 net.cpp:90] Creating Layer icp8_reduction1
I0908 15:49:30.026736 25770 net.cpp:410] icp8_reduction1 <- icp8_in_icp8_in_0_split_0
I0908 15:49:30.026752 25770 net.cpp:368] icp8_reduction1 -> icp8_reduction1
I0908 15:49:30.026767 25770 net.cpp:120] Setting up icp8_reduction1
I0908 15:49:30.027920 25770 net.cpp:127] Top shape: 48 160 7 7 (376320)
I0908 15:49:30.027938 25770 layer_factory.hpp:74] Creating layer relu_icp8_reduction1
I0908 15:49:30.027952 25770 net.cpp:90] Creating Layer relu_icp8_reduction1
I0908 15:49:30.027963 25770 net.cpp:410] relu_icp8_reduction1 <- icp8_reduction1
I0908 15:49:30.027978 25770 net.cpp:357] relu_icp8_reduction1 -> icp8_reduction1 (in-place)
I0908 15:49:30.027992 25770 net.cpp:120] Setting up relu_icp8_reduction1
I0908 15:49:30.028156 25770 net.cpp:127] Top shape: 48 160 7 7 (376320)
I0908 15:49:30.028170 25770 layer_factory.hpp:74] Creating layer icp8_reduction2
I0908 15:49:30.028187 25770 net.cpp:90] Creating Layer icp8_reduction2
I0908 15:49:30.028198 25770 net.cpp:410] icp8_reduction2 <- icp8_in_icp8_in_0_split_1
I0908 15:49:30.028213 25770 net.cpp:368] icp8_reduction2 -> icp8_reduction2
I0908 15:49:30.028229 25770 net.cpp:120] Setting up icp8_reduction2
I0908 15:49:30.028687 25770 net.cpp:127] Top shape: 48 32 7 7 (75264)
I0908 15:49:30.028704 25770 layer_factory.hpp:74] Creating layer relu_icp8_reduction2
I0908 15:49:30.028718 25770 net.cpp:90] Creating Layer relu_icp8_reduction2
I0908 15:49:30.028729 25770 net.cpp:410] relu_icp8_reduction2 <- icp8_reduction2
I0908 15:49:30.028744 25770 net.cpp:357] relu_icp8_reduction2 -> icp8_reduction2 (in-place)
I0908 15:49:30.028759 25770 net.cpp:120] Setting up relu_icp8_reduction2
I0908 15:49:30.028826 25770 net.cpp:127] Top shape: 48 32 7 7 (75264)
I0908 15:49:30.028837 25770 layer_factory.hpp:74] Creating layer icp8_pool
I0908 15:49:30.028848 25770 layer_factory.cpp:60] CUDNN does not support padding or multiple tops. Using Caffe's own pooling layer.
I0908 15:49:30.028861 25770 net.cpp:90] Creating Layer icp8_pool
I0908 15:49:30.028872 25770 net.cpp:410] icp8_pool <- icp8_in_icp8_in_0_split_2
I0908 15:49:30.028885 25770 net.cpp:368] icp8_pool -> icp8_pool
I0908 15:49:30.028903 25770 net.cpp:120] Setting up icp8_pool
I0908 15:49:30.028919 25770 net.cpp:127] Top shape: 48 832 7 7 (1956864)
I0908 15:49:30.028930 25770 layer_factory.hpp:74] Creating layer icp8_out0
I0908 15:49:30.028944 25770 net.cpp:90] Creating Layer icp8_out0
I0908 15:49:30.028955 25770 net.cpp:410] icp8_out0 <- icp8_in_icp8_in_0_split_3
I0908 15:49:30.028972 25770 net.cpp:368] icp8_out0 -> icp8_out0
I0908 15:49:30.028987 25770 net.cpp:120] Setting up icp8_out0
I0908 15:49:30.030675 25770 net.cpp:127] Top shape: 48 256 7 7 (602112)
I0908 15:49:30.030694 25770 layer_factory.hpp:74] Creating layer relu_icp8_out0
I0908 15:49:30.030710 25770 net.cpp:90] Creating Layer relu_icp8_out0
I0908 15:49:30.030722 25770 net.cpp:410] relu_icp8_out0 <- icp8_out0
I0908 15:49:30.030735 25770 net.cpp:357] relu_icp8_out0 -> icp8_out0 (in-place)
I0908 15:49:30.030750 25770 net.cpp:120] Setting up relu_icp8_out0
I0908 15:49:30.030818 25770 net.cpp:127] Top shape: 48 256 7 7 (602112)
I0908 15:49:30.030829 25770 layer_factory.hpp:74] Creating layer icp8_out1
I0908 15:49:30.030846 25770 net.cpp:90] Creating Layer icp8_out1
I0908 15:49:30.030858 25770 net.cpp:410] icp8_out1 <- icp8_reduction1
I0908 15:49:30.030874 25770 net.cpp:368] icp8_out1 -> icp8_out1
I0908 15:49:30.030889 25770 net.cpp:120] Setting up icp8_out1
I0908 15:49:30.036610 25770 net.cpp:127] Top shape: 48 320 7 7 (752640)
I0908 15:49:30.036631 25770 layer_factory.hpp:74] Creating layer relu_icp8_out1
I0908 15:49:30.036645 25770 net.cpp:90] Creating Layer relu_icp8_out1
I0908 15:49:30.036659 25770 net.cpp:410] relu_icp8_out1 <- icp8_out1
I0908 15:49:30.036674 25770 net.cpp:357] relu_icp8_out1 -> icp8_out1 (in-place)
I0908 15:49:30.036690 25770 net.cpp:120] Setting up relu_icp8_out1
I0908 15:49:30.036757 25770 net.cpp:127] Top shape: 48 320 7 7 (752640)
I0908 15:49:30.036777 25770 layer_factory.hpp:74] Creating layer icp8_out2
I0908 15:49:30.036804 25770 net.cpp:90] Creating Layer icp8_out2
I0908 15:49:30.036816 25770 net.cpp:410] icp8_out2 <- icp8_reduction2
I0908 15:49:30.036830 25770 net.cpp:368] icp8_out2 -> icp8_out2
I0908 15:49:30.036846 25770 net.cpp:120] Setting up icp8_out2
I0908 15:49:30.038374 25770 net.cpp:127] Top shape: 48 128 7 7 (301056)
I0908 15:49:30.038393 25770 layer_factory.hpp:74] Creating layer relu_icp8_out2
I0908 15:49:30.038408 25770 net.cpp:90] Creating Layer relu_icp8_out2
I0908 15:49:30.038419 25770 net.cpp:410] relu_icp8_out2 <- icp8_out2
I0908 15:49:30.038431 25770 net.cpp:357] relu_icp8_out2 -> icp8_out2 (in-place)
I0908 15:49:30.038446 25770 net.cpp:120] Setting up relu_icp8_out2
I0908 15:49:30.038609 25770 net.cpp:127] Top shape: 48 128 7 7 (301056)
I0908 15:49:30.038622 25770 layer_factory.hpp:74] Creating layer icp8_out3
I0908 15:49:30.038637 25770 net.cpp:90] Creating Layer icp8_out3
I0908 15:49:30.038650 25770 net.cpp:410] icp8_out3 <- icp8_pool
I0908 15:49:30.038668 25770 net.cpp:368] icp8_out3 -> icp8_out3
I0908 15:49:30.038684 25770 net.cpp:120] Setting up icp8_out3
I0908 15:49:30.039670 25770 net.cpp:127] Top shape: 48 128 7 7 (301056)
I0908 15:49:30.039688 25770 layer_factory.hpp:74] Creating layer relu_icp8_out3
I0908 15:49:30.039702 25770 net.cpp:90] Creating Layer relu_icp8_out3
I0908 15:49:30.039713 25770 net.cpp:410] relu_icp8_out3 <- icp8_out3
I0908 15:49:30.039726 25770 net.cpp:357] relu_icp8_out3 -> icp8_out3 (in-place)
I0908 15:49:30.039741 25770 net.cpp:120] Setting up relu_icp8_out3
I0908 15:49:30.039808 25770 net.cpp:127] Top shape: 48 128 7 7 (301056)
I0908 15:49:30.039819 25770 layer_factory.hpp:74] Creating layer icp8_out
I0908 15:49:30.039832 25770 net.cpp:90] Creating Layer icp8_out
I0908 15:49:30.039844 25770 net.cpp:410] icp8_out <- icp8_out0
I0908 15:49:30.039855 25770 net.cpp:410] icp8_out <- icp8_out1
I0908 15:49:30.039867 25770 net.cpp:410] icp8_out <- icp8_out2
I0908 15:49:30.039877 25770 net.cpp:410] icp8_out <- icp8_out3
I0908 15:49:30.039893 25770 net.cpp:368] icp8_out -> icp8_out
I0908 15:49:30.039909 25770 net.cpp:120] Setting up icp8_out
I0908 15:49:30.039926 25770 net.cpp:127] Top shape: 48 832 7 7 (1956864)
I0908 15:49:30.039937 25770 layer_factory.hpp:74] Creating layer icp8_out_icp8_out_0_split
I0908 15:49:30.039949 25770 net.cpp:90] Creating Layer icp8_out_icp8_out_0_split
I0908 15:49:30.039958 25770 net.cpp:410] icp8_out_icp8_out_0_split <- icp8_out
I0908 15:49:30.039971 25770 net.cpp:368] icp8_out_icp8_out_0_split -> icp8_out_icp8_out_0_split_0
I0908 15:49:30.039990 25770 net.cpp:368] icp8_out_icp8_out_0_split -> icp8_out_icp8_out_0_split_1
I0908 15:49:30.040007 25770 net.cpp:368] icp8_out_icp8_out_0_split -> icp8_out_icp8_out_0_split_2
I0908 15:49:30.040024 25770 net.cpp:368] icp8_out_icp8_out_0_split -> icp8_out_icp8_out_0_split_3
I0908 15:49:30.040037 25770 net.cpp:120] Setting up icp8_out_icp8_out_0_split
I0908 15:49:30.040053 25770 net.cpp:127] Top shape: 48 832 7 7 (1956864)
I0908 15:49:30.040066 25770 net.cpp:127] Top shape: 48 832 7 7 (1956864)
I0908 15:49:30.040076 25770 net.cpp:127] Top shape: 48 832 7 7 (1956864)
I0908 15:49:30.040088 25770 net.cpp:127] Top shape: 48 832 7 7 (1956864)
I0908 15:49:30.040097 25770 layer_factory.hpp:74] Creating layer icp9_reduction1
I0908 15:49:30.040115 25770 net.cpp:90] Creating Layer icp9_reduction1
I0908 15:49:30.040125 25770 net.cpp:410] icp9_reduction1 <- icp8_out_icp8_out_0_split_0
I0908 15:49:30.040139 25770 net.cpp:368] icp9_reduction1 -> icp9_reduction1
I0908 15:49:30.040155 25770 net.cpp:120] Setting up icp9_reduction1
I0908 15:49:30.041492 25770 net.cpp:127] Top shape: 48 192 7 7 (451584)
I0908 15:49:30.041510 25770 layer_factory.hpp:74] Creating layer relu_icp9_reduction1
I0908 15:49:30.041527 25770 net.cpp:90] Creating Layer relu_icp9_reduction1
I0908 15:49:30.041538 25770 net.cpp:410] relu_icp9_reduction1 <- icp9_reduction1
I0908 15:49:30.041550 25770 net.cpp:357] relu_icp9_reduction1 -> icp9_reduction1 (in-place)
I0908 15:49:30.041564 25770 net.cpp:120] Setting up relu_icp9_reduction1
I0908 15:49:30.041636 25770 net.cpp:127] Top shape: 48 192 7 7 (451584)
I0908 15:49:30.041654 25770 layer_factory.hpp:74] Creating layer icp9_reduction2
I0908 15:49:30.041671 25770 net.cpp:90] Creating Layer icp9_reduction2
I0908 15:49:30.041682 25770 net.cpp:410] icp9_reduction2 <- icp8_out_icp8_out_0_split_1
I0908 15:49:30.041702 25770 net.cpp:368] icp9_reduction2 -> icp9_reduction2
I0908 15:49:30.041718 25770 net.cpp:120] Setting up icp9_reduction2
I0908 15:49:30.042263 25770 net.cpp:127] Top shape: 48 48 7 7 (112896)
I0908 15:49:30.042280 25770 layer_factory.hpp:74] Creating layer relu_icp9_reduction2
I0908 15:49:30.042296 25770 net.cpp:90] Creating Layer relu_icp9_reduction2
I0908 15:49:30.042307 25770 net.cpp:410] relu_icp9_reduction2 <- icp9_reduction2
I0908 15:49:30.042321 25770 net.cpp:357] relu_icp9_reduction2 -> icp9_reduction2 (in-place)
I0908 15:49:30.042335 25770 net.cpp:120] Setting up relu_icp9_reduction2
I0908 15:49:30.042404 25770 net.cpp:127] Top shape: 48 48 7 7 (112896)
I0908 15:49:30.042417 25770 layer_factory.hpp:74] Creating layer icp9_pool
I0908 15:49:30.042426 25770 layer_factory.cpp:60] CUDNN does not support padding or multiple tops. Using Caffe's own pooling layer.
I0908 15:49:30.042440 25770 net.cpp:90] Creating Layer icp9_pool
I0908 15:49:30.042451 25770 net.cpp:410] icp9_pool <- icp8_out_icp8_out_0_split_2
I0908 15:49:30.042464 25770 net.cpp:368] icp9_pool -> icp9_pool
I0908 15:49:30.042495 25770 net.cpp:120] Setting up icp9_pool
I0908 15:49:30.042515 25770 net.cpp:127] Top shape: 48 832 7 7 (1956864)
I0908 15:49:30.042526 25770 layer_factory.hpp:74] Creating layer icp9_out0
I0908 15:49:30.042541 25770 net.cpp:90] Creating Layer icp9_out0
I0908 15:49:30.042551 25770 net.cpp:410] icp9_out0 <- icp8_out_icp8_out_0_split_3
I0908 15:49:30.042565 25770 net.cpp:368] icp9_out0 -> icp9_out0
I0908 15:49:30.042580 25770 net.cpp:120] Setting up icp9_out0
I0908 15:49:30.044975 25770 net.cpp:127] Top shape: 48 384 7 7 (903168)
I0908 15:49:30.044993 25770 layer_factory.hpp:74] Creating layer relu_icp9_out0
I0908 15:49:30.045006 25770 net.cpp:90] Creating Layer relu_icp9_out0
I0908 15:49:30.045018 25770 net.cpp:410] relu_icp9_out0 <- icp9_out0
I0908 15:49:30.045032 25770 net.cpp:357] relu_icp9_out0 -> icp9_out0 (in-place)
I0908 15:49:30.045045 25770 net.cpp:120] Setting up relu_icp9_out0
I0908 15:49:30.045207 25770 net.cpp:127] Top shape: 48 384 7 7 (903168)
I0908 15:49:30.045219 25770 layer_factory.hpp:74] Creating layer icp9_out1
I0908 15:49:30.045236 25770 net.cpp:90] Creating Layer icp9_out1
I0908 15:49:30.045248 25770 net.cpp:410] icp9_out1 <- icp9_reduction1
I0908 15:49:30.045264 25770 net.cpp:368] icp9_out1 -> icp9_out1
I0908 15:49:30.045280 25770 net.cpp:120] Setting up icp9_out1
I0908 15:49:30.053179 25770 net.cpp:127] Top shape: 48 384 7 7 (903168)
I0908 15:49:30.053200 25770 layer_factory.hpp:74] Creating layer relu_icp9_out1
I0908 15:49:30.053216 25770 net.cpp:90] Creating Layer relu_icp9_out1
I0908 15:49:30.053230 25770 net.cpp:410] relu_icp9_out1 <- icp9_out1
I0908 15:49:30.053241 25770 net.cpp:357] relu_icp9_out1 -> icp9_out1 (in-place)
I0908 15:49:30.053256 25770 net.cpp:120] Setting up relu_icp9_out1
I0908 15:49:30.053326 25770 net.cpp:127] Top shape: 48 384 7 7 (903168)
I0908 15:49:30.053339 25770 layer_factory.hpp:74] Creating layer icp9_out2
I0908 15:49:30.053354 25770 net.cpp:90] Creating Layer icp9_out2
I0908 15:49:30.053366 25770 net.cpp:410] icp9_out2 <- icp9_reduction2
I0908 15:49:30.053380 25770 net.cpp:368] icp9_out2 -> icp9_out2
I0908 15:49:30.053396 25770 net.cpp:120] Setting up icp9_out2
I0908 15:49:30.055495 25770 net.cpp:127] Top shape: 48 128 7 7 (301056)
I0908 15:49:30.055515 25770 layer_factory.hpp:74] Creating layer relu_icp9_out2
I0908 15:49:30.055527 25770 net.cpp:90] Creating Layer relu_icp9_out2
I0908 15:49:30.055539 25770 net.cpp:410] relu_icp9_out2 <- icp9_out2
I0908 15:49:30.055552 25770 net.cpp:357] relu_icp9_out2 -> icp9_out2 (in-place)
I0908 15:49:30.055567 25770 net.cpp:120] Setting up relu_icp9_out2
I0908 15:49:30.055636 25770 net.cpp:127] Top shape: 48 128 7 7 (301056)
I0908 15:49:30.055655 25770 layer_factory.hpp:74] Creating layer icp9_out3
I0908 15:49:30.055680 25770 net.cpp:90] Creating Layer icp9_out3
I0908 15:49:30.055692 25770 net.cpp:410] icp9_out3 <- icp9_pool
I0908 15:49:30.055708 25770 net.cpp:368] icp9_out3 -> icp9_out3
I0908 15:49:30.055724 25770 net.cpp:120] Setting up icp9_out3
I0908 15:49:30.056715 25770 net.cpp:127] Top shape: 48 128 7 7 (301056)
I0908 15:49:30.056733 25770 layer_factory.hpp:74] Creating layer relu_icp9_out3
I0908 15:49:30.056747 25770 net.cpp:90] Creating Layer relu_icp9_out3
I0908 15:49:30.056758 25770 net.cpp:410] relu_icp9_out3 <- icp9_out3
I0908 15:49:30.056771 25770 net.cpp:357] relu_icp9_out3 -> icp9_out3 (in-place)
I0908 15:49:30.056785 25770 net.cpp:120] Setting up relu_icp9_out3
I0908 15:49:30.056854 25770 net.cpp:127] Top shape: 48 128 7 7 (301056)
I0908 15:49:30.056864 25770 layer_factory.hpp:74] Creating layer icp9_out
I0908 15:49:30.056877 25770 net.cpp:90] Creating Layer icp9_out
I0908 15:49:30.056890 25770 net.cpp:410] icp9_out <- icp9_out0
I0908 15:49:30.056901 25770 net.cpp:410] icp9_out <- icp9_out1
I0908 15:49:30.056912 25770 net.cpp:410] icp9_out <- icp9_out2
I0908 15:49:30.056924 25770 net.cpp:410] icp9_out <- icp9_out3
I0908 15:49:30.056936 25770 net.cpp:368] icp9_out -> icp9_out
I0908 15:49:30.056951 25770 net.cpp:120] Setting up icp9_out
I0908 15:49:30.056968 25770 net.cpp:127] Top shape: 48 1024 7 7 (2408448)
I0908 15:49:30.056978 25770 layer_factory.hpp:74] Creating layer cls3_pool
I0908 15:49:30.056995 25770 net.cpp:90] Creating Layer cls3_pool
I0908 15:49:30.057005 25770 net.cpp:410] cls3_pool <- icp9_out
I0908 15:49:30.057020 25770 net.cpp:368] cls3_pool -> cls3_pool
I0908 15:49:30.057034 25770 net.cpp:120] Setting up cls3_pool
I0908 15:49:30.057199 25770 net.cpp:127] Top shape: 48 1024 1 1 (49152)
I0908 15:49:30.057210 25770 layer_factory.hpp:74] Creating layer cls3_drop
I0908 15:49:30.057227 25770 net.cpp:90] Creating Layer cls3_drop
I0908 15:49:30.057238 25770 net.cpp:410] cls3_drop <- cls3_pool
I0908 15:49:30.057251 25770 net.cpp:357] cls3_drop -> cls3_pool (in-place)
I0908 15:49:30.057265 25770 net.cpp:120] Setting up cls3_drop
I0908 15:49:30.057281 25770 net.cpp:127] Top shape: 48 1024 1 1 (49152)
I0908 15:49:30.057291 25770 layer_factory.hpp:74] Creating layer cls3_fc-t
I0908 15:49:30.057307 25770 net.cpp:90] Creating Layer cls3_fc-t
I0908 15:49:30.057317 25770 net.cpp:410] cls3_fc-t <- cls3_pool
I0908 15:49:30.057333 25770 net.cpp:368] cls3_fc-t -> cls3_fc-t
I0908 15:49:30.057349 25770 net.cpp:120] Setting up cls3_fc-t
I0908 15:49:30.058578 25770 net.cpp:127] Top shape: 48 100 (4800)
I0908 15:49:30.058593 25770 layer_factory.hpp:74] Creating layer loss3
I0908 15:49:30.058615 25770 net.cpp:90] Creating Layer loss3
I0908 15:49:30.058629 25770 net.cpp:410] loss3 <- cls3_fc-t
I0908 15:49:30.058641 25770 net.cpp:410] loss3 <- label_data_1_split_2
I0908 15:49:30.058655 25770 net.cpp:368] loss3 -> loss3
I0908 15:49:30.058670 25770 net.cpp:120] Setting up loss3
I0908 15:49:30.058684 25770 layer_factory.hpp:74] Creating layer loss3
…
I0908 15:49:30.064741 25770 net.cpp:287] The NetState phase (1) differed from the phase (0) specified by a rule in layer data
I0908 15:49:30.065660 25770 net.cpp:42] Initializing net from parameters: 
name: "beacon"
state {
  phase: TEST
}
layer {
  name: "data"
  type: "ImageData"
  top: "data"
  top: "label"
  include {
    phase: TEST
  }
  transform_param {
    mirror: false
    crop_size: 227
    mean_value: 104
    mean_value: 117
    mean_value: 123
  }
  image_data_param {
    source: "test_manifest"
    batch_size: 24
    new_height: 256
    new_width: 256
  }
}
layer {
  name: "conv1"
  type: "Convolution"
  bottom: "data"
  top: "conv1"
  param {
    lr_mult: 1
    decay_mult: 1
  }
  param {
    lr_mult: 2
    decay_mult: 0
  }
  convolution_param {
    num_output: 64
    pad: 3
    kernel_size: 7
    stride: 2
    weight_filler {
      type: "gaussian"
      std: 0.015
    }
    bias_filler {
      type: "constant"
      value: 0
    }
  }
}
layer {
  name: "relu1"
  type: "ReLU"
  bottom: "conv1"
  top: "conv1"
}
layer {
  name: "pool1"
  type: "Pooling"
  bottom: "conv1"
  top: "pool1"
  pooling_param {
    pool: MAX
    kernel_size: 3
    stride: 2
    pad: 0
  }
}
layer {
  name: "norm1"
  type: "LRN"
  bottom: "pool1"
  top: "norm1"
  lrn_param {
    local_size: 5
    alpha: 0.0001
    beta: 0.75
  }
}
layer {
  name: "reduction2"
  type: "Convolution"
  bottom: "norm1"
  top: "reduction2"
  param {
    lr_mult: 1
    decay_mult: 1
  }
  param {
    lr_mult: 2
    decay_mult: 0
  }
  convolution_param {
    num_output: 64
    pad: 0
    kernel_size: 1
    group: 1
    weight_filler {
      type: "xavier"
    }
    bias_filler {
      type: "constant"
      value: 0
    }
  }
}
layer {
  name: "relu_reduction2"
  type: "ReLU"
  bottom: "reduction2"
  top: "reduction2"
}
layer {
  name: "conv2"
  type: "Convolution"
  bottom: "reduction2"
  top: "conv2"
  param {
    lr_mult: 1
    decay_mult: 1
  }
  param {
    lr_mult: 2
    decay_mult: 0
  }
  convolution_param {
    num_output: 192
    pad: 1
    kernel_size: 3
    group: 1
    weight_filler {
      type: "gaussian"
      std: 0.02
    }
    bias_filler {
      type: "constant"
      value: 0
    }
  }
}
layer {
  name: "relu2"
  type: "ReLU"
  bottom: "conv2"
  top: "conv2"
}
layer {
  name: "norm2"
  type: "LRN"
  bottom: "conv2"
  top: "norm2"
  lrn_param {
    local_size: 5
    alpha: 0.0001
    beta: 0.75
  }
}
layer {
  name: "pool2"
  type: "Pooling"
  bottom: "norm2"
  top: "pool2"
  pooling_param {
    pool: MAX
    kernel_size: 3
    stride: 2
    pad: 0
  }
}
layer {
  name: "icp1_reduction1"
  type: "Convolution"
  bottom: "pool2"
  top: "icp1_reduction1"
  param {
    lr_mult: 1
    decay_mult: 1
  }
  param {
    lr_mult: 2
    decay_mult: 0
  }
  convolution_param {
    num_output: 96
    pad: 0
    kernel_size: 1
    weight_filler {
      type: "xavier"
    }
    bias_filler {
      type: "constant"
      value: 0
    }
  }
}
layer {
  name: "relu_icp1_reduction1"
  type: "ReLU"
  bottom: "icp1_reduction1"
  top: "icp1_reduction1"
}
layer {
  name: "icp1_reduction2"
  type: "Convolution"
  bottom: "pool2"
  top: "icp1_reduction2"
  param {
    lr_mult: 1
    decay_mult: 1
  }
  param {
    lr_mult: 2
    decay_mult: 0
  }
  convolution_param {
    num_output: 16
    pad: 0
    kernel_size: 1
    weight_filler {
      type: "xavier"
    }
    bias_filler {
      type: "constant"
      value: 0
    }
  }
}
layer {
  name: "relu_icp1_reduction2"
  type: "ReLU"
  bottom: "icp1_reduction2"
  top: "icp1_reduction2"
}
layer {
  name: "icp1_pool"
  type: "Pooling"
  bottom: "pool2"
  top: "icp1_pool"
  pooling_param {
    pool: MAX
    kernel_size: 3
    stride: 1
    pad: 1
  }
}
layer {
  name: "icp1_out0"
  type: "Convolution"
  bottom: "pool2"
  top: "icp1_out0"
  param {
    lr_mult: 1
    decay_mult: 1
  }
  param {
    lr_mult: 2
    decay_mult: 0
  }
  convolution_param {
    num_output: 64
    pad: 0
    kernel_size: 1
    weight_filler {
      type: "xavier"
    }
    bias_filler {
      type: "constant"
      value: 0
    }
  }
}
layer {
  name: "relu_icp1_out0"
  type: "ReLU"
  bottom: "icp1_out0"
  top: "icp1_out0"
}
layer {
  name: "icp1_out1"
  type: "Convolution"
  bottom: "icp1_reduction1"
  top: "icp1_out1"
  param {
    lr_mult: 1
    decay_mult: 1
  }
  param {
    lr_mult: 2
    decay_mult: 0
  }
  convolution_param {
    num_output: 128
    pad: 1
    kernel_size: 3
    weight_filler {
      type: "gaussian"
      std: 0.04
    }
    bias_filler {
      type: "constant"
      value: 0
    }
  }
}
layer {
  name: "relu_icp1_out1"
  type: "ReLU"
  bottom: "icp1_out1"
  top: "icp1_out1"
}
layer {
  name: "icp1_out2"
  type: "Convolution"
  bottom: "icp1_reduction2"
  top: "icp1_out2"
  param {
    lr_mult: 1
    decay_mult: 1
  }
  param {
    lr_mult: 2
    decay_mult: 0
  }
  convolution_param {
    num_output: 32
    pad: 2
    kernel_size: 5
    weight_filler {
      type: "gaussian"
      std: 0.08
    }
    bias_filler {
      type: "constant"
      value: 0
    }
  }
}
layer {
  name: "relu_icp1_out2"
  type: "ReLU"
  bottom: "icp1_out2"
  top: "icp1_out2"
}
layer {
  name: "icp1_out3"
  type: "Convolution"
  bottom: "icp1_pool"
  top: "icp1_out3"
  param {
    lr_mult: 1
    decay_mult: 1
  }
  param {
    lr_mult: 2
    decay_mult: 0
  }
  convolution_param {
    num_output: 32
    pad: 0
    kernel_size: 1
    weight_filler {
      type: "xavier"
    }
    bias_filler {
      type: "constant"
      value: 0
    }
  }
}
layer {
  name: "relu_icp1_out3"
  type: "ReLU"
  bottom: "icp1_out3"
  top: "icp1_out3"
}
layer {
  name: "icp2_in"
  type: "Concat"
  bottom: "icp1_out0"
  bottom: "icp1_out1"
  bottom: "icp1_out2"
  bottom: "icp1_out3"
  top: "icp2_in"
}
layer {
  name: "icp2_reduction1"
  type: "Convolution"
  bottom: "icp2_in"
  top: "icp2_reduction1"
  param {
    lr_mult: 1
    decay_mult: 1
  }
  param {
    lr_mult: 2
    decay_mult: 0
  }
  convolution_param {
    num_output: 128
    pad: 0
    kernel_size: 1
    weight_filler {
      type: "xavier"
    }
    bias_filler {
      type: "constant"
      value: 0
    }
  }
}
layer {
  name: "relu_icp2_reduction1"
  type: "ReLU"
  bottom: "icp2_reduction1"
  top: "icp2_reduction1"
}
layer {
  name: "icp2_reduction2"
  type: "Convolution"
  bottom: "icp2_in"
  top: "icp2_reduction2"
  param {
    lr_mult: 1
    decay_mult: 1
  }
  param {
    lr_mult: 2
    decay_mult: 0
  }
  convolution_param {
    num_output: 32
    pad: 0
    kernel_size: 1
    weight_filler {
      type: "xavier"
    }
    bias_filler {
      type: "constant"
      value: 0
    }
  }
}
layer {
  name: "relu_icp2_reduction2"
  type: "ReLU"
  bottom: "icp2_reduction2"
  top: "icp2_reduction2"
}
layer {
  name: "icp2_pool"
  type: "Pooling"
  bottom: "icp2_in"
  top: "icp2_pool"
  pooling_param {
    pool: MAX
    kernel_size: 3
    stride: 1
    pad: 1
  }
}
layer {
  name: "icp2_out0"
  type: "Convolution"
  bottom: "icp2_in"
  top: "icp2_out0"
  param {
    lr_mult: 1
    decay_mult: 1
  }
  param {
    lr_mult: 2
    decay_mult: 0
  }
  convolution_param {
    num_output: 128
    pad: 0
    kernel_size: 1
    weight_filler {
      type: "xavier"
    }
    bias_filler {
      type: "constant"
      value: 0
    }
  }
}
layer {
  name: "relu_icp2_out0"
  type: "ReLU"
  bottom: "icp2_out0"
  top: "icp2_out0"
}
layer {
  name: "icp2_out1"
  type: "Convolution"
  bottom: "icp2_reduction1"
  top: "icp2_out1"
  param {
    lr_mult: 1
    decay_mult: 1
  }
  param {
    lr_mult: 2
    decay_mult: 0
  }
  convolution_param {
    num_output: 192
    pad: 1
    kernel_size: 3
    weight_filler {
      type: "gaussian"
      std: 0.04
    }
    bias_filler {
      type: "constant"
      value: 0
    }
  }
}
layer {
  name: "relu_icp2_out1"
  type: "ReLU"
  bottom: "icp2_out1"
  top: "icp2_out1"
}
layer {
  name: "icp2_out2"
  type: "Convolution"
  bottom: "icp2_reduction2"
  top: "icp2_out2"
  param {
    lr_mult: 1
    decay_mult: 1
  }
  param {
    lr_mult: 2
    decay_mult: 0
  }
  convolution_param {
    num_output: 96
    pad: 2
    kernel_size: 5
    weight_filler {
      type: "gaussian"
      std: 0.08
    }
    bias_filler {
      type: "constant"
      value: 0
    }
  }
}
layer {
  name: "relu_icp2_out2"
  type: "ReLU"
  bottom: "icp2_out2"
  top: "icp2_out2"
}
layer {
  name: "icp2_out3"
  type: "Convolution"
  bottom: "icp2_pool"
  top: "icp2_out3"
  param {
    lr_mult: 1
    decay_mult: 1
  }
  param {
    lr_mult: 2
    decay_mult: 0
  }
  convolution_param {
    num_output: 64
    pad: 0
    kernel_size: 1
    weight_filler {
      type: "xavier"
    }
    bias_filler {
      type: "constant"
      value: 0
    }
  }
}
layer {
  name: "relu_icp2_out3"
  type: "ReLU"
  bottom: "icp2_out3"
  top: "icp2_out3"
}
layer {
  name: "icp2_out"
  type: "Concat"
  bottom: "icp2_out0"
  bottom: "icp2_out1"
  bottom: "icp2_out2"
  bottom: "icp2_out3"
  top: "icp2_out"
}
layer {
  name: "icp3_in"
  type: "Pooling"
  bottom: "icp2_out"
  top: "icp3_in"
  pooling_param {
    pool: MAX
    kernel_size: 3
    stride: 2
    pad: 0
  }
}
layer {
  name: "icp3_reduction1"
  type: "Convolution"
  bottom: "icp3_in"
  top: "icp3_reduction1"
  param {
    lr_mult: 1
    decay_mult: 1
  }
  param {
    lr_mult: 2
    decay_mult: 0
  }
  convolution_param {
    num_output: 96
    pad: 0
    kernel_size: 1
    weight_filler {
      type: "xavier"
    }
    bias_filler {
      type: "constant"
      value: 0
    }
  }
}
layer {
  name: "relu_icp3_reduction1"
  type: "ReLU"
  bottom: "icp3_reduction1"
  top: "icp3_reduction1"
}
layer {
  name: "icp3_reduction2"
  type: "Convolution"
  bottom: "icp3_in"
  top: "icp3_reduction2"
  param {
    lr_mult: 1
    decay_mult: 1
  }
  param {
    lr_mult: 2
    decay_mult: 0
  }
  convolution_param {
    num_output: 16
    pad: 0
    kernel_size: 1
    weight_filler {
      type: "xavier"
    }
    bias_filler {
      type: "constant"
      value: 0
    }
  }
}
layer {
  name: "relu_icp3_reduction2"
  type: "ReLU"
  bottom: "icp3_reduction2"
  top: "icp3_reduction2"
}
layer {
  name: "icp3_pool"
  type: "Pooling"
  bottom: "icp3_in"
  top: "icp3_pool"
  pooling_param {
    pool: MAX
    kernel_size: 3
    stride: 1
    pad: 1
  }
}
layer {
  name: "icp3_out0"
  type: "Convolution"
  bottom: "icp3_in"
  top: "icp3_out0"
  param {
    lr_mult: 1
    decay_mult: 1
  }
  param {
    lr_mult: 2
    decay_mult: 0
  }
  convolution_param {
    num_output: 192
    pad: 0
    kernel_size: 1
    weight_filler {
      type: "xavier"
    }
    bias_filler {
      type: "constant"
      value: 0
    }
  }
}
layer {
  name: "relu_icp3_out0"
  type: "ReLU"
  bottom: "icp3_out0"
  top: "icp3_out0"
}
layer {
  name: "icp3_out1"
  type: "Convolution"
  bottom: "icp3_reduction1"
  top: "icp3_out1"
  param {
    lr_mult: 1
    decay_mult: 1
  }
  param {
    lr_mult: 2
    decay_mult: 0
  }
  convolution_param {
    num_output: 208
    pad: 1
    kernel_size: 3
    weight_filler {
      type: "gaussian"
      std: 0.04
    }
    bias_filler {
      type: "constant"
      value: 0
    }
  }
}
layer {
  name: "relu_icp3_out1"
  type: "ReLU"
  bottom: "icp3_out1"
  top: "icp3_out1"
}
layer {
  name: "icp3_out2"
  type: "Convolution"
  bottom: "icp3_reduction2"
  top: "icp3_out2"
  param {
    lr_mult: 1
    decay_mult: 1
  }
  param {
    lr_mult: 2
    decay_mult: 0
  }
  convolution_param {
    num_output: 48
    pad: 2
    kernel_size: 5
    weight_filler {
      type: "gaussian"
      std: 0.08
    }
    bias_filler {
      type: "constant"
      value: 0
    }
  }
}
layer {
  name: "relu_icp3_out2"
  type: "ReLU"
  bottom: "icp3_out2"
  top: "icp3_out2"
}
layer {
  name: "icp3_out3"
  type: "Convolution"
  bottom: "icp3_pool"
  top: "icp3_out3"
  param {
    lr_mult: 1
    decay_mult: 1
  }
  param {
    lr_mult: 2
    decay_mult: 0
  }
  convolution_param {
    num_output: 64
    pad: 0
    kernel_size: 1
    weight_filler {
      type: "xavier"
    }
    bias_filler {
      type: "constant"
      value: 0
    }
  }
}
layer {
  name: "relu_icp3_out3"
  type: "ReLU"
  bottom: "icp3_out3"
  top: "icp3_out3"
}
layer {
  name: "icp3_out"
  type: "Concat"
  bottom: "icp3_out0"
  bottom: "icp3_out1"
  bottom: "icp3_out2"
  bottom: "icp3_out3"
  top: "icp3_out"
}
layer {
  name: "cls1_pool"
  type: "Pooling"
  bottom: "icp3_out"
  top: "cls1_pool"
  pooling_param {
    pool: AVE
    kernel_size: 5
    stride: 3
    pad: 0
  }
}
layer {
  name: "cls1_reduction"
  type: "Convolution"
  bottom: "cls1_pool"
  top: "cls1_reduction"
  param {
    lr_mult: 1
    decay_mult: 1
  }
  param {
    lr_mult: 2
    decay_mult: 0
  }
  convolution_param {
    num_output: 128
    pad: 0
    kernel_size: 1
    weight_filler {
      type: "xavier"
    }
    bias_filler {
      type: "constant"
      value: 0
    }
  }
}
layer {
  name: "relu_cls1_reduction"
  type: "ReLU"
  bottom: "cls1_reduction"
  top: "cls1_reduction"
}
layer {
  name: "cls1_fc1"
  type: "InnerProduct"
  bottom: "cls1_reduction"
  top: "cls1_fc1"
  param {
    lr_mult: 1
    decay_mult: 1
  }
  param {
    lr_mult: 2
    decay_mult: 0
  }
  inner_product_param {
    num_output: 1024
    weight_filler {
      type: "gaussian"
      std: 0.01
    }
    bias_filler {
      type: "constant"
      value: 0
    }
  }
}
layer {
  name: "relu_cls1_fc1"
  type: "ReLU"
  bottom: "cls1_fc1"
  top: "cls1_fc1"
}
layer {
  name: "cls1_drop"
  type: "Dropout"
  bottom: "cls1_fc1"
  top: "cls1_fc1"
  dropout_param {
    dropout_ratio: 0.7
  }
}
layer {
  name: "cls1_fc2-t"
  type: "InnerProduct"
  bottom: "cls1_fc1"
  top: "cls1_fc2-t"
  param {
    lr_mult: 10
    decay_mult: 1
  }
  param {
    lr_mult: 20
    decay_mult: 0
  }
  inner_product_param {
    num_output: 100
    weight_filler {
      type: "gaussian"
      std: 0.01
    }
    bias_filler {
      type: "constant"
      value: 0
    }
  }
}
layer {
  name: "loss1"
  type: "SoftmaxWithLoss"
  bottom: "cls1_fc2-t"
  bottom: "label"
  top: "loss1"
  loss_weight: 1
}
layer {
  name: "accuracy1-1"
  type: "Accuracy"
  bottom: "cls1_fc2-t"
  bottom: "label"
  top: "accuracy1-1"
  include {
    phase: TEST
  }
}
layer {
  name: "accuracy1-5"
  type: "Accuracy"
  bottom: "cls1_fc2-t"
  bottom: "label"
  top: "accuracy1-5"
  include {
    phase: TEST
  }
  accuracy_param {
    top_k: 5
  }
}
layer {
  name: "icp4_reduction1"
  type: "Convolution"
  bottom: "icp3_out"
  top: "icp4_reduction1"
  param {
    lr_mult: 1
    decay_mult: 1
  }
  param {
    lr_mult: 2
    decay_mult: 0
  }
  convolution_param {
    num_output: 112
    pad: 0
    kernel_size: 1
    weight_filler {
      type: "xavier"
    }
    bias_filler {
      type: "constant"
      value: 0
    }
  }
}
layer {
  name: "relu_icp4_reduction1"
  type: "ReLU"
  bottom: "icp4_reduction1"
  top: "icp4_reduction1"
}
layer {
  name: "icp4_reduction2"
  type: "Convolution"
  bottom: "icp3_out"
  top: "icp4_reduction2"
  param {
    lr_mult: 1
    decay_mult: 1
  }
  param {
    lr_mult: 2
    decay_mult: 0
  }
  convolution_param {
    num_output: 24
    pad: 0
    kernel_size: 1
    weight_filler {
      type: "xavier"
    }
    bias_filler {
      type: "constant"
      value: 0
    }
  }
}
layer {
  name: "relu_icp4_reduction2"
  type: "ReLU"
  bottom: "icp4_reduction2"
  top: "icp4_reduction2"
}
layer {
  name: "icp4_pool"
  type: "Pooling"
  bottom: "icp3_out"
  top: "icp4_pool"
  pooling_param {
    pool: MAX
    kernel_size: 3
    stride: 1
    pad: 1
  }
}
layer {
  name: "icp4_out0"
  type: "Convolution"
  bottom: "icp3_out"
  top: "icp4_out0"
  param {
    lr_mult: 1
    decay_mult: 1
  }
  param {
    lr_mult: 2
    decay_mult: 0
  }
  convolution_param {
    num_output: 160
    pad: 0
    kernel_size: 1
    weight_filler {
      type: "xavier"
    }
    bias_filler {
      type: "constant"
      value: 0
    }
  }
}
layer {
  name: "relu_icp4_out0"
  type: "ReLU"
  bottom: "icp4_out0"
  top: "icp4_out0"
}
layer {
  name: "icp4_out1"
  type: "Convolution"
  bottom: "icp4_reduction1"
  top: "icp4_out1"
  param {
    lr_mult: 1
    decay_mult: 1
  }
  param {
    lr_mult: 2
    decay_mult: 0
  }
  convolution_param {
    num_output: 224
    pad: 1
    kernel_size: 3
    weight_filler {
      type: "gaussian"
      std: 0.04
    }
    bias_filler {
      type: "constant"
      value: 0
    }
  }
}
layer {
  name: "relu_icp4_out1"
  type: "ReLU"
  bottom: "icp4_out1"
  top: "icp4_out1"
}
layer {
  name: "icp4_out2"
  type: "Convolution"
  bottom: "icp4_reduction2"
  top: "icp4_out2"
  param {
    lr_mult: 1
    decay_mult: 1
  }
  param {
    lr_mult: 2
    decay_mult: 0
  }
  convolution_param {
    num_output: 64
    pad: 2
    kernel_size: 5
    weight_filler {
      type: "gaussian"
      std: 0.08
    }
    bias_filler {
      type: "constant"
      value: 0
    }
  }
}
layer {
  name: "relu_icp4_out2"
  type: "ReLU"
  bottom: "icp4_out2"
  top: "icp4_out2"
}
layer {
  name: "icp4_out3"
  type: "Convolution"
  bottom: "icp4_pool"
  top: "icp4_out3"
  param {
    lr_mult: 1
    decay_mult: 1
  }
  param {
    lr_mult: 2
    decay_mult: 0
  }
  convolution_param {
    num_output: 64
    pad: 0
    kernel_size: 1
    weight_filler {
      type: "xavier"
    }
    bias_filler {
      type: "constant"
      value: 0
    }
  }
}
layer {
  name: "relu_icp4_out3"
  type: "ReLU"
  bottom: "icp4_out3"
  top: "icp4_out3"
}
layer {
  name: "icp4_out"
  type: "Concat"
  bottom: "icp4_out0"
  bottom: "icp4_out1"
  bottom: "icp4_out2"
  bottom: "icp4_out3"
  top: "icp4_out"
}
layer {
  name: "icp5_reduction1"
  type: "Convolution"
  bottom: "icp4_out"
  top: "icp5_reduction1"
  param {
    lr_mult: 1
    decay_mult: 1
  }
  param {
    lr_mult: 2
    decay_mult: 0
  }
  convolution_param {
    num_output: 128
    pad: 0
    kernel_size: 1
    weight_filler {
      type: "xavier"
    }
    bias_filler {
      type: "constant"
      value: 0
    }
  }
}
layer {
  name: "relu_icp5_reduction1"
  type: "ReLU"
  bottom: "icp5_reduction1"
  top: "icp5_reduction1"
}
layer {
  name: "icp5_reduction2"
  type: "Convolution"
  bottom: "icp4_out"
  top: "icp5_reduction2"
  param {
    lr_mult: 1
    decay_mult: 1
  }
  param {
    lr_mult: 2
    decay_mult: 0
  }
  convolution_param {
    num_output: 24
    pad: 0
    kernel_size: 1
    weight_filler {
      type: "xavier"
    }
    bias_filler {
      type: "constant"
      value: 0
    }
  }
}
layer {
  name: "relu_icp5_reduction2"
  type: "ReLU"
  bottom: "icp5_reduction2"
  top: "icp5_reduction2"
}
layer {
  name: "icp5_pool"
  type: "Pooling"
  bottom: "icp4_out"
  top: "icp5_pool"
  pooling_param {
    pool: MAX
    kernel_size: 3
    stride: 1
    pad: 1
  }
}
layer {
  name: "icp5_out0"
  type: "Convolution"
  bottom: "icp4_out"
  top: "icp5_out0"
  param {
    lr_mult: 1
    decay_mult: 1
  }
  param {
    lr_mult: 2
    decay_mult: 0
  }
  convolution_param {
    num_output: 128
    pad: 0
    kernel_size: 1
    weight_filler {
      type: "xavier"
    }
    bias_filler {
      type: "constant"
      value: 0
    }
  }
}
layer {
  name: "relu_icp5_out0"
  type: "ReLU"
  bottom: "icp5_out0"
  top: "icp5_out0"
}
layer {
  name: "icp5_out1"
  type: "Convolution"
  bottom: "icp5_reduction1"
  top: "icp5_out1"
  param {
    lr_mult: 1
    decay_mult: 1
  }
  param {
    lr_mult: 2
    decay_mult: 0
  }
  convolution_param {
    num_output: 256
    pad: 1
    kernel_size: 3
    weight_filler {
      type: "gaussian"
      std: 0.04
    }
    bias_filler {
      type: "constant"
      value: 0
    }
  }
}
layer {
  name: "relu_icp5_out1"
  type: "ReLU"
  bottom: "icp5_out1"
  top: "icp5_out1"
}
layer {
  name: "icp5_out2"
  type: "Convolution"
  bottom: "icp5_reduction2"
  top: "icp5_out2"
  param {
    lr_mult: 1
    decay_mult: 1
  }
  param {
    lr_mult: 2
    decay_mult: 0
  }
  convolution_param {
    num_output: 64
    pad: 2
    kernel_size: 5
    weight_filler {
      type: "gaussian"
      std: 0.08
    }
    bias_filler {
      type: "constant"
      value: 0
    }
  }
}
layer {
  name: "relu_icp5_out2"
  type: "ReLU"
  bottom: "icp5_out2"
  top: "icp5_out2"
}
layer {
  name: "icp5_out3"
  type: "Convolution"
  bottom: "icp5_pool"
  top: "icp5_out3"
  param {
    lr_mult: 1
    decay_mult: 1
  }
  param {
    lr_mult: 2
    decay_mult: 0
  }
  convolution_param {
    num_output: 64
    pad: 0
    kernel_size: 1
    weight_filler {
      type: "xavier"
    }
    bias_filler {
      type: "constant"
      value: 0
    }
  }
}
layer {
  name: "relu_icp5_out3"
  type: "ReLU"
  bottom: "icp5_out3"
  top: "icp5_out3"
}
layer {
  name: "icp5_out"
  type: "Concat"
  bottom: "icp5_out0"
  bottom: "icp5_out1"
  bottom: "icp5_out2"
  bottom: "icp5_out3"
  top: "icp5_out"
}
layer {
  name: "icp6_reduction1"
  type: "Convolution"
  bottom: "icp5_out"
  top: "icp6_reduction1"
  param {
    lr_mult: 1
    decay_mult: 1
  }
  param {
    lr_mult: 2
    decay_mult: 0
  }
  convolution_param {
    num_output: 144
    pad: 0
    kernel_size: 1
    weight_filler {
      type: "xavier"
    }
    bias_filler {
      type: "constant"
      value: 0
    }
  }
}
layer {
  name: "relu_icp6_reduction1"
  type: "ReLU"
  bottom: "icp6_reduction1"
  top: "icp6_reduction1"
}
layer {
  name: "icp6_reduction2"
  type: "Convolution"
  bottom: "icp5_out"
  top: "icp6_reduction2"
  param {
    lr_mult: 1
    decay_mult: 1
  }
  param {
    lr_mult: 2
    decay_mult: 0
  }
  convolution_param {
    num_output: 32
    pad: 0
    kernel_size: 1
    weight_filler {
      type: "xavier"
    }
    bias_filler {
      type: "constant"
      value: 0
    }
  }
}
layer {
  name: "relu_icp6_reduction2"
  type: "ReLU"
  bottom: "icp6_reduction2"
  top: "icp6_reduction2"
}
layer {
  name: "icp6_pool"
  type: "Pooling"
  bottom: "icp5_out"
  top: "icp6_pool"
  pooling_param {
    pool: MAX
    kernel_size: 3
    stride: 1
    pad: 1
  }
}
layer {
  name: "icp6_out0"
  type: "Convolution"
  bottom: "icp5_out"
  top: "icp6_out0"
  param {
    lr_mult: 1
    decay_mult: 1
  }
  param {
    lr_mult: 2
    decay_mult: 0
  }
  convolution_param {
    num_output: 112
    pad: 0
    kernel_size: 1
    weight_filler {
      type: "xavier"
    }
    bias_filler {
      type: "constant"
      value: 0
    }
  }
}
layer {
  name: "relu_icp6_out0"
  type: "ReLU"
  bottom: "icp6_out0"
  top: "icp6_out0"
}
layer {
  name: "icp6_out1"
  type: "Convolution"
  bottom: "icp6_reduction1"
  top: "icp6_out1"
  param {
    lr_mult: 1
    decay_mult: 1
  }
  param {
    lr_mult: 2
    decay_mult: 0
  }
  convolution_param {
    num_output: 288
    pad: 1
    kernel_size: 3
    weight_filler {
      type: "gaussian"
      std: 0.04
    }
    bias_filler {
      type: "constant"
      value: 0
    }
  }
}
layer {
  name: "relu_icp6_out1"
  type: "ReLU"
  bottom: "icp6_out1"
  top: "icp6_out1"
}
layer {
  name: "icp6_out2"
  type: "Convolution"
  bottom: "icp6_reduction2"
  top: "icp6_out2"
  param {
    lr_mult: 1
    decay_mult: 1
  }
  param {
    lr_mult: 2
    decay_mult: 0
  }
  convolution_param {
    num_output: 64
    pad: 2
    kernel_size: 5
    weight_filler {
      type: "gaussian"
      std: 0.08
    }
    bias_filler {
      type: "constant"
      value: 0
    }
  }
}
layer {
  name: "relu_icp6_out2"
  type: "ReLU"
  bottom: "icp6_out2"
  top: "icp6_out2"
}
layer {
  name: "icp6_out3"
  type: "Convolution"
  bottom: "icp6_pool"
  top: "icp6_out3"
  param {
    lr_mult: 1
    decay_mult: 1
  }
  param {
    lr_mult: 2
    decay_mult: 0
  }
  convolution_param {
    num_output: 64
    pad: 0
    kernel_size: 1
    weight_filler {
      type: "xavier"
    }
    bias_filler {
      type: "constant"
      value: 0
    }
  }
}
layer {
  name: "relu_icp6_out3"
  type: "ReLU"
  bottom: "icp6_out3"
  top: "icp6_out3"
}
layer {
  name: "icp6_out"
  type: "Concat"
  bottom: "icp6_out0"
  bottom: "icp6_out1"
  bottom: "icp6_out2"
  bottom: "icp6_out3"
  top: "icp6_out"
}
layer {
  name: "cls2_pool"
  type: "Pooling"
  bottom: "icp6_out"
  top: "cls2_pool"
  pooling_param {
    pool: AVE
    kernel_size: 5
    stride: 3
    pad: 0
  }
}
layer {
  name: "cls2_reduction"
  type: "Convolution"
  bottom: "cls2_pool"
  top: "cls2_reduction"
  param {
    lr_mult: 1
    decay_mult: 1
  }
  param {
    lr_mult: 2
    decay_mult: 0
  }
  convolution_param {
    num_output: 128
    pad: 0
    kernel_size: 1
    weight_filler {
      type: "xavier"
    }
    bias_filler {
      type: "constant"
      value: 0
    }
  }
}
layer {
  name: "relu_cls2_reduction"
  type: "ReLU"
  bottom: "cls2_reduction"
  top: "cls2_reduction"
}
layer {
  name: "cls2_fc1"
  type: "InnerProduct"
  bottom: "cls2_reduction"
  top: "cls2_fc1"
  param {
    lr_mult: 1
    decay_mult: 1
  }
  param {
    lr_mult: 2
    decay_mult: 0
  }
  inner_product_param {
    num_output: 1024
    weight_filler {
      type: "gaussian"
      std: 0.01
    }
    bias_filler {
      type: "constant"
      value: 0
    }
  }
}
layer {
  name: "relu_cls2_fc1"
  type: "ReLU"
  bottom: "cls2_fc1"
  top: "cls2_fc1"
}
layer {
  name: "cls2_drop"
  type: "Dropout"
  bottom: "cls2_fc1"
  top: "cls2_fc1"
  dropout_param {
    dropout_ratio: 0.7
  }
}
layer {
  name: "cls2_fc2-t"
  type: "InnerProduct"
  bottom: "cls2_fc1"
  top: "cls2_fc2-t"
  param {
    lr_mult: 10
    decay_mult: 1
  }
  param {
    lr_mult: 20
    decay_mult: 0
  }
  inner_product_param {
    num_output: 100
    weight_filler {
      type: "gaussian"
      std: 0.01
    }
    bias_filler {
      type: "constant"
      value: 0
    }
  }
}
layer {
  name: "loss2"
  type: "SoftmaxWithLoss"
  bottom: "cls2_fc2-t"
  bottom: "label"
  top: "loss2"
  loss_weight: 1
}
layer {
  name: "accuracy2-1"
  type: "Accuracy"
  bottom: "cls2_fc2-t"
  bottom: "label"
  top: "accuracy2-1"
  include {
    phase: TEST
  }
}
layer {
  name: "accuracy2-5"
  type: "Accuracy"
  bottom: "cls2_fc2-t"
  bottom: "label"
  top: "accuracy2-5"
  include {
    phase: TEST
  }
  accuracy_param {
    top_k: 5
  }
}
layer {
  name: "icp7_reduction1"
  type: "Convolution"
  bottom: "icp6_out"
  top: "icp7_reduction1"
  param {
    lr_mult: 1
    decay_mult: 1
  }
  param {
    lr_mult: 2
    decay_mult: 0
  }
  convolution_param {
    num_output: 160
    pad: 0
    kernel_size: 1
    weight_filler {
      type: "xavier"
    }
    bias_filler {
      type: "constant"
      value: 0
    }
  }
}
layer {
  name: "relu_icp7_reduction1"
  type: "ReLU"
  bottom: "icp7_reduction1"
  top: "icp7_reduction1"
}
layer {
  name: "icp7_reduction2"
  type: "Convolution"
  bottom: "icp6_out"
  top: "icp7_reduction2"
  param {
    lr_mult: 1
    decay_mult: 1
  }
  param {
    lr_mult: 2
    decay_mult: 0
  }
  convolution_param {
    num_output: 32
    pad: 0
    kernel_size: 1
    weight_filler {
      type: "xavier"
    }
    bias_filler {
      type: "constant"
      value: 0
    }
  }
}
layer {
  name: "relu_icp7_reduction2"
  type: "ReLU"
  bottom: "icp7_reduction2"
  top: "icp7_reduction2"
}
layer {
  name: "icp7_pool"
  type: "Pooling"
  bottom: "icp6_out"
  top: "icp7_pool"
  pooling_param {
    pool: MAX
    kernel_size: 3
    stride: 1
    pad: 1
  }
}
layer {
  name: "icp7_out0"
  type: "Convolution"
  bottom: "icp6_out"
  top: "icp7_out0"
  param {
    lr_mult: 1
    decay_mult: 1
  }
  param {
    lr_mult: 2
    decay_mult: 0
  }
  convolution_param {
    num_output: 256
    pad: 0
    kernel_size: 1
    weight_filler {
      type: "xavier"
    }
    bias_filler {
      type: "constant"
      value: 0
    }
  }
}
layer {
  name: "relu_icp7_out0"
  type: "ReLU"
  bottom: "icp7_out0"
  top: "icp7_out0"
}
layer {
  name: "icp7_out1"
  type: "Convolution"
  bottom: "icp7_reduction1"
  top: "icp7_out1"
  param {
    lr_mult: 1
    decay_mult: 1
  }
  param {
    lr_mult: 2
    decay_mult: 0
  }
  convolution_param {
    num_output: 320
    pad: 1
    kernel_size: 3
    weight_filler {
      type: "gaussian"
      std: 0.04
    }
    bias_filler {
      type: "constant"
      value: 0
    }
  }
}
layer {
  name: "relu_icp7_out1"
  type: "ReLU"
  bottom: "icp7_out1"
  top: "icp7_out1"
}
layer {
  name: "icp7_out2"
  type: "Convolution"
  bottom: "icp7_reduction2"
  top: "icp7_out2"
  param {
    lr_mult: 1
    decay_mult: 1
  }
  param {
    lr_mult: 2
    decay_mult: 0
  }
  convolution_param {
    num_output: 128
    pad: 2
    kernel_size: 5
    weight_filler {
      type: "gaussian"
      std: 0.08
    }
    bias_filler {
      type: "constant"
      value: 0
    }
  }
}
layer {
  name: "relu_icp7_out2"
  type: "ReLU"
  bottom: "icp7_out2"
  top: "icp7_out2"
}
layer {
  name: "icp7_out3"
  type: "Convolution"
  bottom: "icp7_pool"
  top: "icp7_out3"
  param {
    lr_mult: 1
    decay_mult: 1
  }
  param {
    lr_mult: 2
    decay_mult: 0
  }
  convolution_param {
    num_output: 128
    pad: 0
    kernel_size: 1
    weight_filler {
      type: "xavier"
    }
    bias_filler {
      type: "constant"
      value: 0
    }
  }
}
layer {
  name: "relu_icp7_out3"
  type: "ReLU"
  bottom: "icp7_out3"
  top: "icp7_out3"
}
layer {
  name: "icp7_out"
  type: "Concat"
  bottom: "icp7_out0"
  bottom: "icp7_out1"
  bottom: "icp7_out2"
  bottom: "icp7_out3"
  top: "icp7_out"
}
layer {
  name: "icp8_in"
  type: "Pooling"
  bottom: "icp7_out"
  top: "icp8_in"
  pooling_param {
    pool: MAX
    kernel_size: 3
    stride: 2
    pad: 0
  }
}
layer {
  name: "icp8_reduction1"
  type: "Convolution"
  bottom: "icp8_in"
  top: "icp8_reduction1"
  param {
    lr_mult: 1
    decay_mult: 1
  }
  param {
    lr_mult: 2
    decay_mult: 0
  }
  convolution_param {
    num_output: 160
    pad: 0
    kernel_size: 1
    weight_filler {
      type: "xavier"
    }
    bias_filler {
      type: "constant"
      value: 0
    }
  }
}
layer {
  name: "relu_icp8_reduction1"
  type: "ReLU"
  bottom: "icp8_reduction1"
  top: "icp8_reduction1"
}
layer {
  name: "icp8_reduction2"
  type: "Convolution"
  bottom: "icp8_in"
  top: "icp8_reduction2"
  param {
    lr_mult: 1
    decay_mult: 1
  }
  param {
    lr_mult: 2
    decay_mult: 0
  }
  convolution_param {
    
I0908 15:49:30.066792 25770 layer_factory.hpp:74] Creating layer data
I0908 15:49:30.066814 25770 net.cpp:90] Creating Layer data
I0908 15:49:30.066826 25770 net.cpp:368] data -> data
I0908 15:49:30.066843 25770 net.cpp:368] data -> label
I0908 15:49:30.066859 25770 net.cpp:120] Setting up data
I0908 15:49:30.066870 25770 image_data_layer.cpp:36] Opening file test_manifest
I0908 15:49:30.067888 25770 image_data_layer.cpp:51] A total of 1425 images.
I0908 15:49:30.073251 25770 image_data_layer.cpp:74] output data size: 24,3,227,227
I0908 15:49:30.075060 25770 net.cpp:127] Top shape: 24 3 227 227 (3710088)
I0908 15:49:30.075096 25770 net.cpp:127] Top shape: 24 (24)
I0908 15:49:30.075109 25770 layer_factory.hpp:74] Creating layer label_data_1_split
I0908 15:49:30.075132 25770 net.cpp:90] Creating Layer label_data_1_split
I0908 15:49:30.075145 25770 net.cpp:410] label_data_1_split <- label
I0908 15:49:30.075161 25770 net.cpp:368] label_data_1_split -> label_data_1_split_0
I0908 15:49:30.075192 25770 net.cpp:368] label_data_1_split -> label_data_1_split_1
I0908 15:49:30.075217 25770 net.cpp:368] label_data_1_split -> label_data_1_split_2
I0908 15:49:30.075234 25770 net.cpp:368] label_data_1_split -> label_data_1_split_3
I0908 15:49:30.075250 25770 net.cpp:368] label_data_1_split -> label_data_1_split_4
I0908 15:49:30.075266 25770 net.cpp:368] label_data_1_split -> label_data_1_split_5
I0908 15:49:30.075283 25770 net.cpp:368] label_data_1_split -> label_data_1_split_6
I0908 15:49:30.075299 25770 net.cpp:368] label_data_1_split -> label_data_1_split_7
I0908 15:49:30.075314 25770 net.cpp:368] label_data_1_split -> label_data_1_split_8
I0908 15:49:30.075330 25770 net.cpp:120] Setting up label_data_1_split
I0908 15:49:30.075350 25770 net.cpp:127] Top shape: 24 (24)
I0908 15:49:30.075361 25770 net.cpp:127] Top shape: 24 (24)
I0908 15:49:30.075372 25770 net.cpp:127] Top shape: 24 (24)
I0908 15:49:30.075386 25770 net.cpp:127] Top shape: 24 (24)
I0908 15:49:30.075397 25770 net.cpp:127] Top shape: 24 (24)
I0908 15:49:30.075408 25770 net.cpp:127] Top shape: 24 (24)
I0908 15:49:30.075422 25770 net.cpp:127] Top shape: 24 (24)
I0908 15:49:30.075434 25770 net.cpp:127] Top shape: 24 (24)
I0908 15:49:30.075448 25770 net.cpp:127] Top shape: 24 (24)
I0908 15:49:30.075459 25770 layer_factory.hpp:74] Creating layer conv1
I0908 15:49:30.075476 25770 net.cpp:90] Creating Layer conv1
I0908 15:49:30.075486 25770 net.cpp:410] conv1 <- data
I0908 15:49:30.075500 25770 net.cpp:368] conv1 -> conv1
I0908 15:49:30.075517 25770 net.cpp:120] Setting up conv1
I0908 15:49:30.076048 25770 net.cpp:127] Top shape: 24 64 114 114 (19961856)
I0908 15:49:30.076071 25770 layer_factory.hpp:74] Creating layer relu1
I0908 15:49:30.076086 25770 net.cpp:90] Creating Layer relu1
I0908 15:49:30.076097 25770 net.cpp:410] relu1 <- conv1
I0908 15:49:30.076110 25770 net.cpp:357] relu1 -> conv1 (in-place)
I0908 15:49:30.076124 25770 net.cpp:120] Setting up relu1
I0908 15:49:30.076189 25770 net.cpp:127] Top shape: 24 64 114 114 (19961856)
I0908 15:49:30.076200 25770 layer_factory.hpp:74] Creating layer pool1
I0908 15:49:30.076216 25770 net.cpp:90] Creating Layer pool1
I0908 15:49:30.076226 25770 net.cpp:410] pool1 <- conv1
I0908 15:49:30.076239 25770 net.cpp:368] pool1 -> pool1
I0908 15:49:30.076253 25770 net.cpp:120] Setting up pool1
I0908 15:49:30.076418 25770 net.cpp:127] Top shape: 24 64 57 57 (4990464)
I0908 15:49:30.076431 25770 layer_factory.hpp:74] Creating layer norm1
I0908 15:49:30.076447 25770 net.cpp:90] Creating Layer norm1
I0908 15:49:30.076457 25770 net.cpp:410] norm1 <- pool1
I0908 15:49:30.076469 25770 net.cpp:368] norm1 -> norm1
I0908 15:49:30.076484 25770 net.cpp:120] Setting up norm1
I0908 15:49:30.076501 25770 net.cpp:127] Top shape: 24 64 57 57 (4990464)
I0908 15:49:30.076511 25770 layer_factory.hpp:74] Creating layer reduction2
I0908 15:49:30.076526 25770 net.cpp:90] Creating Layer reduction2
I0908 15:49:30.076536 25770 net.cpp:410] reduction2 <- norm1
I0908 15:49:30.076550 25770 net.cpp:368] reduction2 -> reduction2
I0908 15:49:30.076565 25770 net.cpp:120] Setting up reduction2
I0908 15:49:30.076858 25770 net.cpp:127] Top shape: 24 64 57 57 (4990464)
I0908 15:49:30.076879 25770 layer_factory.hpp:74] Creating layer relu_reduction2
I0908 15:49:30.076894 25770 net.cpp:90] Creating Layer relu_reduction2
I0908 15:49:30.076905 25770 net.cpp:410] relu_reduction2 <- reduction2
I0908 15:49:30.076917 25770 net.cpp:357] relu_reduction2 -> reduction2 (in-place)
I0908 15:49:30.076930 25770 net.cpp:120] Setting up relu_reduction2
I0908 15:49:30.076994 25770 net.cpp:127] Top shape: 24 64 57 57 (4990464)
I0908 15:49:30.077005 25770 layer_factory.hpp:74] Creating layer conv2
I0908 15:49:30.077021 25770 net.cpp:90] Creating Layer conv2
I0908 15:49:30.077033 25770 net.cpp:410] conv2 <- reduction2
I0908 15:49:30.077046 25770 net.cpp:368] conv2 -> conv2
I0908 15:49:30.077061 25770 net.cpp:120] Setting up conv2
I0908 15:49:30.078583 25770 net.cpp:127] Top shape: 24 192 57 57 (14971392)
I0908 15:49:30.078603 25770 layer_factory.hpp:74] Creating layer relu2
I0908 15:49:30.078629 25770 net.cpp:90] Creating Layer relu2
I0908 15:49:30.078649 25770 net.cpp:410] relu2 <- conv2
I0908 15:49:30.078661 25770 net.cpp:357] relu2 -> conv2 (in-place)
I0908 15:49:30.078675 25770 net.cpp:120] Setting up relu2
I0908 15:49:30.078739 25770 net.cpp:127] Top shape: 24 192 57 57 (14971392)
I0908 15:49:30.078750 25770 layer_factory.hpp:74] Creating layer norm2
I0908 15:49:30.078763 25770 net.cpp:90] Creating Layer norm2
I0908 15:49:30.078774 25770 net.cpp:410] norm2 <- conv2
I0908 15:49:30.078786 25770 net.cpp:368] norm2 -> norm2
I0908 15:49:30.078804 25770 net.cpp:120] Setting up norm2
I0908 15:49:30.078819 25770 net.cpp:127] Top shape: 24 192 57 57 (14971392)
I0908 15:49:30.078830 25770 layer_factory.hpp:74] Creating layer pool2
I0908 15:49:30.078843 25770 net.cpp:90] Creating Layer pool2
I0908 15:49:30.078853 25770 net.cpp:410] pool2 <- norm2
I0908 15:49:30.078866 25770 net.cpp:368] pool2 -> pool2
I0908 15:49:30.078881 25770 net.cpp:120] Setting up pool2
I0908 15:49:30.078943 25770 net.cpp:127] Top shape: 24 192 28 28 (3612672)
I0908 15:49:30.078955 25770 layer_factory.hpp:74] Creating layer pool2_pool2_0_split
I0908 15:49:30.078968 25770 net.cpp:90] Creating Layer pool2_pool2_0_split
I0908 15:49:30.078979 25770 net.cpp:410] pool2_pool2_0_split <- pool2
I0908 15:49:30.078991 25770 net.cpp:368] pool2_pool2_0_split -> pool2_pool2_0_split_0
I0908 15:49:30.079006 25770 net.cpp:368] pool2_pool2_0_split -> pool2_pool2_0_split_1
I0908 15:49:30.079022 25770 net.cpp:368] pool2_pool2_0_split -> pool2_pool2_0_split_2
I0908 15:49:30.079038 25770 net.cpp:368] pool2_pool2_0_split -> pool2_pool2_0_split_3
I0908 15:49:30.079051 25770 net.cpp:120] Setting up pool2_pool2_0_split
I0908 15:49:30.079067 25770 net.cpp:127] Top shape: 24 192 28 28 (3612672)
I0908 15:49:30.079080 25770 net.cpp:127] Top shape: 24 192 28 28 (3612672)
I0908 15:49:30.079092 25770 net.cpp:127] Top shape: 24 192 28 28 (3612672)
I0908 15:49:30.079102 25770 net.cpp:127] Top shape: 24 192 28 28 (3612672)
I0908 15:49:30.079113 25770 layer_factory.hpp:74] Creating layer icp1_reduction1
I0908 15:49:30.079128 25770 net.cpp:90] Creating Layer icp1_reduction1
I0908 15:49:30.079138 25770 net.cpp:410] icp1_reduction1 <- pool2_pool2_0_split_0
I0908 15:49:30.079151 25770 net.cpp:368] icp1_reduction1 -> icp1_reduction1
I0908 15:49:30.079166 25770 net.cpp:120] Setting up icp1_reduction1
I0908 15:49:30.079548 25770 net.cpp:127] Top shape: 24 96 28 28 (1806336)
I0908 15:49:30.079566 25770 layer_factory.hpp:74] Creating layer relu_icp1_reduction1
I0908 15:49:30.079581 25770 net.cpp:90] Creating Layer relu_icp1_reduction1
I0908 15:49:30.079591 25770 net.cpp:410] relu_icp1_reduction1 <- icp1_reduction1
…
I0908 15:49:30.127913 25770 layer_factory.hpp:74] Creating layer icp4_reduction2
I0908 15:49:30.127930 25770 net.cpp:90] Creating Layer icp4_reduction2
I0908 15:49:30.127943 25770 net.cpp:410] icp4_reduction2 <- icp3_out_icp3_out_0_split_2
I0908 15:49:30.127956 25770 net.cpp:368] icp4_reduction2 -> icp4_reduction2
I0908 15:49:30.127974 25770 net.cpp:120] Setting up icp4_reduction2
I0908 15:49:30.128350 25770 net.cpp:127] Top shape: 24 24 14 14 (112896)
I0908 15:49:30.128367 25770 layer_factory.hpp:74] Creating layer relu_icp4_reduction2
I0908 15:49:30.128383 25770 net.cpp:90] Creating Layer relu_icp4_reduction2
I0908 15:49:30.128394 25770 net.cpp:410] relu_icp4_reduction2 <- icp4_reduction2
I0908 15:49:30.128407 25770 net.cpp:357] relu_icp4_reduction2 -> icp4_reduction2 (in-place)
I0908 15:49:30.128420 25770 net.cpp:120] Setting up relu_icp4_reduction2
I0908 15:49:30.128489 25770 net.cpp:127] Top shape: 24 24 14 14 (112896)
I0908 15:49:30.128500 25770 layer_factory.hpp:74] Creating layer icp4_pool
I0908 15:49:30.128512 25770 layer_factory.cpp:60] CUDNN does not support padding or multiple tops. Using Caffe's own pooling layer.
I0908 15:49:30.128525 25770 net.cpp:90] Creating Layer icp4_pool
I0908 15:49:30.128535 25770 net.cpp:410] icp4_pool <- icp3_out_icp3_out_0_split_3
I0908 15:49:30.128547 25770 net.cpp:368] icp4_pool -> icp4_pool
I0908 15:49:30.128562 25770 net.cpp:120] Setting up icp4_pool
I0908 15:49:30.128582 25770 net.cpp:127] Top shape: 24 512 14 14 (2408448)
I0908 15:49:30.128592 25770 layer_factory.hpp:74] Creating layer icp4_out0
I0908 15:49:30.128617 25770 net.cpp:90] Creating Layer icp4_out0
I0908 15:49:30.128633 25770 net.cpp:410] icp4_out0 <- icp3_out_icp3_out_0_split_4
I0908 15:49:30.128649 25770 net.cpp:368] icp4_out0 -> icp4_out0
I0908 15:49:30.128664 25770 net.cpp:120] Setting up icp4_out0
I0908 15:49:30.129523 25770 net.cpp:127] Top shape: 24 160 14 14 (752640)
I0908 15:49:30.129540 25770 layer_factory.hpp:74] Creating layer relu_icp4_out0
I0908 15:49:30.129554 25770 net.cpp:90] Creating Layer relu_icp4_out0
I0908 15:49:30.129565 25770 net.cpp:410] relu_icp4_out0 <- icp4_out0
I0908 15:49:30.129580 25770 net.cpp:357] relu_icp4_out0 -> icp4_out0 (in-place)
I0908 15:49:30.129595 25770 net.cpp:120] Setting up relu_icp4_out0
I0908 15:49:30.129663 25770 net.cpp:127] Top shape: 24 160 14 14 (752640)
I0908 15:49:30.129674 25770 layer_factory.hpp:74] Creating layer icp4_out1
I0908 15:49:30.129691 25770 net.cpp:90] Creating Layer icp4_out1
I0908 15:49:30.129703 25770 net.cpp:410] icp4_out1 <- icp4_reduction1
I0908 15:49:30.129719 25770 net.cpp:368] icp4_out1 -> icp4_out1
I0908 15:49:30.129734 25770 net.cpp:120] Setting up icp4_out1
I0908 15:49:30.132695 25770 net.cpp:127] Top shape: 24 224 14 14 (1053696)
I0908 15:49:30.132715 25770 layer_factory.hpp:74] Creating layer relu_icp4_out1
I0908 15:49:30.132731 25770 net.cpp:90] Creating Layer relu_icp4_out1
I0908 15:49:30.132743 25770 net.cpp:410] relu_icp4_out1 <- icp4_out1
I0908 15:49:30.132756 25770 net.cpp:357] relu_icp4_out1 -> icp4_out1 (in-place)
I0908 15:49:30.132771 25770 net.cpp:120] Setting up relu_icp4_out1
I0908 15:49:30.132936 25770 net.cpp:127] Top shape: 24 224 14 14 (1053696)
I0908 15:49:30.132948 25770 layer_factory.hpp:74] Creating layer icp4_out2
I0908 15:49:30.132967 25770 net.cpp:90] Creating Layer icp4_out2
I0908 15:49:30.132978 25770 net.cpp:410] icp4_out2 <- icp4_reduction2
I0908 15:49:30.132992 25770 net.cpp:368] icp4_out2 -> icp4_out2
I0908 15:49:30.133008 25770 net.cpp:120] Setting up icp4_out2
I0908 15:49:30.133757 25770 net.cpp:127] Top shape: 24 64 14 14 (301056)
I0908 15:49:30.133776 25770 layer_factory.hpp:74] Creating layer relu_icp4_out2
I0908 15:49:30.133791 25770 net.cpp:90] Creating Layer relu_icp4_out2
I0908 15:49:30.133802 25770 net.cpp:410] relu_icp4_out2 <- icp4_out2
I0908 15:49:30.133816 25770 net.cpp:357] relu_icp4_out2 -> icp4_out2 (in-place)
I0908 15:49:30.133829 25770 net.cpp:120] Setting up relu_icp4_out2
I0908 15:49:30.133898 25770 net.cpp:127] Top shape: 24 64 14 14 (301056)
I0908 15:49:30.133909 25770 layer_factory.hpp:74] Creating layer icp4_out3
I0908 15:49:30.133925 25770 net.cpp:90] Creating Layer icp4_out3
I0908 15:49:30.133936 25770 net.cpp:410] icp4_out3 <- icp4_pool
I0908 15:49:30.133952 25770 net.cpp:368] icp4_out3 -> icp4_out3
I0908 15:49:30.133968 25770 net.cpp:120] Setting up icp4_out3
I0908 15:49:30.134475 25770 net.cpp:127] Top shape: 24 64 14 14 (301056)
I0908 15:49:30.134493 25770 layer_factory.hpp:74] Creating layer relu_icp4_out3
I0908 15:49:30.134510 25770 net.cpp:90] Creating Layer relu_icp4_out3
I0908 15:49:30.134520 25770 net.cpp:410] relu_icp4_out3 <- icp4_out3
I0908 15:49:30.134532 25770 net.cpp:357] relu_icp4_out3 -> icp4_out3 (in-place)
I0908 15:49:30.134548 25770 net.cpp:120] Setting up relu_icp4_out3
I0908 15:49:30.134624 25770 net.cpp:127] Top shape: 24 64 14 14 (301056)
I0908 15:49:30.134637 25770 layer_factory.hpp:74] Creating layer icp4_out
I0908 15:49:30.134650 25770 net.cpp:90] Creating Layer icp4_out
I0908 15:49:30.134660 25770 net.cpp:410] icp4_out <- icp4_out0
I0908 15:49:30.134672 25770 net.cpp:410] icp4_out <- icp4_out1
I0908 15:49:30.134683 25770 net.cpp:410] icp4_out <- icp4_out2
I0908 15:49:30.134695 25770 net.cpp:410] icp4_out <- icp4_out3
I0908 15:49:30.134709 25770 net.cpp:368] icp4_out -> icp4_out
I0908 15:49:30.134726 25770 net.cpp:120] Setting up icp4_out
I0908 15:49:30.134742 25770 net.cpp:127] Top shape: 24 512 14 14 (2408448)
I0908 15:49:30.134752 25770 layer_factory.hpp:74] Creating layer icp4_out_icp4_out_0_split
I0908 15:49:30.134764 25770 net.cpp:90] Creating Layer icp4_out_icp4_out_0_split
I0908 15:49:30.134780 25770 net.cpp:410] icp4_out_icp4_out_0_split <- icp4_out
I0908 15:49:30.134802 25770 net.cpp:368] icp4_out_icp4_out_0_split -> icp4_out_icp4_out_0_split_0
I0908 15:49:30.134819 25770 net.cpp:368] icp4_out_icp4_out_0_split -> icp4_out_icp4_out_0_split_1
I0908 15:49:30.134835 25770 net.cpp:368] icp4_out_icp4_out_0_split -> icp4_out_icp4_out_0_split_2
I0908 15:49:30.134855 25770 net.cpp:368] icp4_out_icp4_out_0_split -> icp4_out_icp4_out_0_split_3
I0908 15:49:30.134867 25770 net.cpp:120] Setting up icp4_out_icp4_out_0_split
I0908 15:49:30.134886 25770 net.cpp:127] Top shape: 24 512 14 14 (2408448)
I0908 15:49:30.134896 25770 net.cpp:127] Top shape: 24 512 14 14 (2408448)
I0908 15:49:30.134907 25770 net.cpp:127] Top shape: 24 512 14 14 (2408448)
I0908 15:49:30.134919 25770 net.cpp:127] Top shape: 24 512 14 14 (2408448)
I0908 15:49:30.134929 25770 layer_factory.hpp:74] Creating layer icp5_reduction1
I0908 15:49:30.134945 25770 net.cpp:90] Creating Layer icp5_reduction1
I0908 15:49:30.134955 25770 net.cpp:410] icp5_reduction1 <- icp4_out_icp4_out_0_split_0
I0908 15:49:30.134969 25770 net.cpp:368] icp5_reduction1 -> icp5_reduction1
I0908 15:49:30.134984 25770 net.cpp:120] Setting up icp5_reduction1
I0908 15:49:30.135715 25770 net.cpp:127] Top shape: 24 128 14 14 (602112)
I0908 15:49:30.135735 25770 layer_factory.hpp:74] Creating layer relu_icp5_reduction1
I0908 15:49:30.135749 25770 net.cpp:90] Creating Layer relu_icp5_reduction1
I0908 15:49:30.135761 25770 net.cpp:410] relu_icp5_reduction1 <- icp5_reduction1
I0908 15:49:30.135774 25770 net.cpp:357] relu_icp5_reduction1 -> icp5_reduction1 (in-place)
I0908 15:49:30.135788 25770 net.cpp:120] Setting up relu_icp5_reduction1
I0908 15:49:30.135859 25770 net.cpp:127] Top shape: 24 128 14 14 (602112)
I0908 15:49:30.135870 25770 layer_factory.hpp:74] Creating layer icp5_reduction2
I0908 15:49:30.135885 25770 net.cpp:90] Creating Layer icp5_reduction2
I0908 15:49:30.135896 25770 net.cpp:410] icp5_reduction2 <- icp4_out_icp4_out_0_split_1
I0908 15:49:30.135915 25770 net.cpp:368] icp5_reduction2 -> icp5_reduction2
I0908 15:49:30.135929 25770 net.cpp:120] Setting up icp5_reduction2
I0908 15:49:30.136310 25770 net.cpp:127] Top shape: 24 24 14 14 (112896)
I0908 15:49:30.136327 25770 layer_factory.hpp:74] Creating layer relu_icp5_reduction2
I0908 15:49:30.136342 25770 net.cpp:90] Creating Layer relu_icp5_reduction2
I0908 15:49:30.136353 25770 net.cpp:410] relu_icp5_reduction2 <- icp5_reduction2
I0908 15:49:30.136365 25770 net.cpp:357] relu_icp5_reduction2 -> icp5_reduction2 (in-place)
I0908 15:49:30.136379 25770 net.cpp:120] Setting up relu_icp5_reduction2
I0908 15:49:30.136549 25770 net.cpp:127] Top shape: 24 24 14 14 (112896)
I0908 15:49:30.136561 25770 layer_factory.hpp:74] Creating layer icp5_pool
I0908 15:49:30.136572 25770 layer_factory.cpp:60] CUDNN does not support padding or multiple tops. Using Caffe's own pooling layer.
I0908 15:49:30.136589 25770 net.cpp:90] Creating Layer icp5_pool
I0908 15:49:30.136600 25770 net.cpp:410] icp5_pool <- icp4_out_icp4_out_0_split_2
I0908 15:49:30.136613 25770 net.cpp:368] icp5_pool -> icp5_pool
I0908 15:49:30.136628 25770 net.cpp:120] Setting up icp5_pool
I0908 15:49:30.136646 25770 net.cpp:127] Top shape: 24 512 14 14 (2408448)
I0908 15:49:30.136656 25770 layer_factory.hpp:74] Creating layer icp5_out0
I0908 15:49:30.136672 25770 net.cpp:90] Creating Layer icp5_out0
I0908 15:49:30.136682 25770 net.cpp:410] icp5_out0 <- icp4_out_icp4_out_0_split_3
I0908 15:49:30.136697 25770 net.cpp:368] icp5_out0 -> icp5_out0
I0908 15:49:30.136713 25770 net.cpp:120] Setting up icp5_out0
I0908 15:49:30.137439 25770 net.cpp:127] Top shape: 24 128 14 14 (602112)
I0908 15:49:30.137470 25770 layer_factory.hpp:74] Creating layer relu_icp5_out0
I0908 15:49:30.137483 25770 net.cpp:90] Creating Layer relu_icp5_out0
I0908 15:49:30.137495 25770 net.cpp:410] relu_icp5_out0 <- icp5_out0
I0908 15:49:30.137507 25770 net.cpp:357] relu_icp5_out0 -> icp5_out0 (in-place)
I0908 15:49:30.137522 25770 net.cpp:120] Setting up relu_icp5_out0
I0908 15:49:30.137593 25770 net.cpp:127] Top shape: 24 128 14 14 (602112)
I0908 15:49:30.137614 25770 layer_factory.hpp:74] Creating layer icp5_out1
I0908 15:49:30.137629 25770 net.cpp:90] Creating Layer icp5_out1
I0908 15:49:30.137641 25770 net.cpp:410] icp5_out1 <- icp5_reduction1
I0908 15:49:30.137655 25770 net.cpp:368] icp5_out1 -> icp5_out1
I0908 15:49:30.137671 25770 net.cpp:120] Setting up icp5_out1
I0908 15:49:30.141456 25770 net.cpp:127] Top shape: 24 256 14 14 (1204224)
I0908 15:49:30.141479 25770 layer_factory.hpp:74] Creating layer relu_icp5_out1
I0908 15:49:30.141491 25770 net.cpp:90] Creating Layer relu_icp5_out1
I0908 15:49:30.141506 25770 net.cpp:410] relu_icp5_out1 <- icp5_out1
I0908 15:49:30.141520 25770 net.cpp:357] relu_icp5_out1 -> icp5_out1 (in-place)
I0908 15:49:30.141535 25770 net.cpp:120] Setting up relu_icp5_out1
I0908 15:49:30.141604 25770 net.cpp:127] Top shape: 24 256 14 14 (1204224)
I0908 15:49:30.141615 25770 layer_factory.hpp:74] Creating layer icp5_out2
I0908 15:49:30.141633 25770 net.cpp:90] Creating Layer icp5_out2
I0908 15:49:30.141644 25770 net.cpp:410] icp5_out2 <- icp5_reduction2
I0908 15:49:30.141659 25770 net.cpp:368] icp5_out2 -> icp5_out2
I0908 15:49:30.141674 25770 net.cpp:120] Setting up icp5_out2
I0908 15:49:30.142431 25770 net.cpp:127] Top shape: 24 64 14 14 (301056)
I0908 15:49:30.142448 25770 layer_factory.hpp:74] Creating layer relu_icp5_out2
I0908 15:49:30.142470 25770 net.cpp:90] Creating Layer relu_icp5_out2
I0908 15:49:30.142482 25770 net.cpp:410] relu_icp5_out2 <- icp5_out2
I0908 15:49:30.142493 25770 net.cpp:357] relu_icp5_out2 -> icp5_out2 (in-place)
I0908 15:49:30.142508 25770 net.cpp:120] Setting up relu_icp5_out2
I0908 15:49:30.142578 25770 net.cpp:127] Top shape: 24 64 14 14 (301056)
I0908 15:49:30.142590 25770 layer_factory.hpp:74] Creating layer icp5_out3
I0908 15:49:30.142611 25770 net.cpp:90] Creating Layer icp5_out3
I0908 15:49:30.142623 25770 net.cpp:410] icp5_out3 <- icp5_pool
I0908 15:49:30.142638 25770 net.cpp:368] icp5_out3 -> icp5_out3
I0908 15:49:30.142654 25770 net.cpp:120] Setting up icp5_out3
I0908 15:49:30.143170 25770 net.cpp:127] Top shape: 24 64 14 14 (301056)
I0908 15:49:30.143187 25770 layer_factory.hpp:74] Creating layer relu_icp5_out3
I0908 15:49:30.143201 25770 net.cpp:90] Creating Layer relu_icp5_out3
I0908 15:49:30.143213 25770 net.cpp:410] relu_icp5_out3 <- icp5_out3
I0908 15:49:30.143224 25770 net.cpp:357] relu_icp5_out3 -> icp5_out3 (in-place)
I0908 15:49:30.143239 25770 net.cpp:120] Setting up relu_icp5_out3
I0908 15:49:30.143405 25770 net.cpp:127] Top shape: 24 64 14 14 (301056)
I0908 15:49:30.143419 25770 layer_factory.hpp:74] Creating layer icp5_out
I0908 15:49:30.143431 25770 net.cpp:90] Creating Layer icp5_out
I0908 15:49:30.143441 25770 net.cpp:410] icp5_out <- icp5_out0
I0908 15:49:30.143455 25770 net.cpp:410] icp5_out <- icp5_out1
I0908 15:49:30.143468 25770 net.cpp:410] icp5_out <- icp5_out2
I0908 15:49:30.143481 25770 net.cpp:410] icp5_out <- icp5_out3
I0908 15:49:30.143494 25770 net.cpp:368] icp5_out -> icp5_out
I0908 15:49:30.143510 25770 net.cpp:120] Setting up icp5_out
I0908 15:49:30.143527 25770 net.cpp:127] Top shape: 24 512 14 14 (2408448)
I0908 15:49:30.143537 25770 layer_factory.hpp:74] Creating layer icp5_out_icp5_out_0_split
I0908 15:49:30.143550 25770 net.cpp:90] Creating Layer icp5_out_icp5_out_0_split
I0908 15:49:30.143561 25770 net.cpp:410] icp5_out_icp5_out_0_split <- icp5_out
I0908 15:49:30.143578 25770 net.cpp:368] icp5_out_icp5_out_0_split -> icp5_out_icp5_out_0_split_0
I0908 15:49:30.143594 25770 net.cpp:368] icp5_out_icp5_out_0_split -> icp5_out_icp5_out_0_split_1
I0908 15:49:30.143610 25770 net.cpp:368] icp5_out_icp5_out_0_split -> icp5_out_icp5_out_0_split_2
I0908 15:49:30.143627 25770 net.cpp:368] icp5_out_icp5_out_0_split -> icp5_out_icp5_out_0_split_3
I0908 15:49:30.143640 25770 net.cpp:120] Setting up icp5_out_icp5_out_0_split
I0908 15:49:30.143657 25770 net.cpp:127] Top shape: 24 512 14 14 (2408448)
I0908 15:49:30.143669 25770 net.cpp:127] Top shape: 24 512 14 14 (2408448)
I0908 15:49:30.143681 25770 net.cpp:127] Top shape: 24 512 14 14 (2408448)
I0908 15:49:30.143698 25770 net.cpp:127] Top shape: 24 512 14 14 (2408448)
I0908 15:49:30.143717 25770 layer_factory.hpp:74] Creating layer icp6_reduction1
I0908 15:49:30.143734 25770 net.cpp:90] Creating Layer icp6_reduction1
I0908 15:49:30.143744 25770 net.cpp:410] icp6_reduction1 <- icp5_out_icp5_out_0_split_0
I0908 15:49:30.143760 25770 net.cpp:368] icp6_reduction1 -> icp6_reduction1
I0908 15:49:30.143776 25770 net.cpp:120] Setting up icp6_reduction1
I0908 15:49:30.144564 25770 net.cpp:127] Top shape: 24 144 14 14 (677376)
I0908 15:49:30.144582 25770 layer_factory.hpp:74] Creating layer relu_icp6_reduction1
I0908 15:49:30.144597 25770 net.cpp:90] Creating Layer relu_icp6_reduction1
I0908 15:49:30.144608 25770 net.cpp:410] relu_icp6_reduction1 <- icp6_reduction1
I0908 15:49:30.144623 25770 net.cpp:357] relu_icp6_reduction1 -> icp6_reduction1 (in-place)
I0908 15:49:30.144636 25770 net.cpp:120] Setting up relu_icp6_reduction1
I0908 15:49:30.144706 25770 net.cpp:127] Top shape: 24 144 14 14 (677376)
I0908 15:49:30.144716 25770 layer_factory.hpp:74] Creating layer icp6_reduction2
I0908 15:49:30.144732 25770 net.cpp:90] Creating Layer icp6_reduction2
I0908 15:49:30.144743 25770 net.cpp:410] icp6_reduction2 <- icp5_out_icp5_out_0_split_1
I0908 15:49:30.144757 25770 net.cpp:368] icp6_reduction2 -> icp6_reduction2
I0908 15:49:30.144774 25770 net.cpp:120] Setting up icp6_reduction2
I0908 15:49:30.145179 25770 net.cpp:127] Top shape: 24 32 14 14 (150528)
I0908 15:49:30.145197 25770 layer_factory.hpp:74] Creating layer relu_icp6_reduction2
I0908 15:49:30.145212 25770 net.cpp:90] Creating Layer relu_icp6_reduction2
I0908 15:49:30.145225 25770 net.cpp:410] relu_icp6_reduction2 <- icp6_reduction2
I0908 15:49:30.145236 25770 net.cpp:357] relu_icp6_reduction2 -> icp6_reduction2 (in-place)
I0908 15:49:30.145251 25770 net.cpp:120] Setting up relu_icp6_reduction2
I0908 15:49:30.145320 25770 net.cpp:127] Top shape: 24 32 14 14 (150528)
I0908 15:49:30.145333 25770 layer_factory.hpp:74] Creating layer icp6_pool
I0908 15:49:30.145344 25770 layer_factory.cpp:60] CUDNN does not support padding or multiple tops. Using Caffe's own pooling layer.
I0908 15:49:30.145357 25770 net.cpp:90] Creating Layer icp6_pool
I0908 15:49:30.145369 25770 net.cpp:410] icp6_pool <- icp5_out_icp5_out_0_split_2
I0908 15:49:30.145382 25770 net.cpp:368] icp6_pool -> icp6_pool
I0908 15:49:30.145396 25770 net.cpp:120] Setting up icp6_pool
I0908 15:49:30.145414 25770 net.cpp:127] Top shape: 24 512 14 14 (2408448)
I0908 15:49:30.145424 25770 layer_factory.hpp:74] Creating layer icp6_out0
I0908 15:49:30.145442 25770 net.cpp:90] Creating Layer icp6_out0
I0908 15:49:30.145452 25770 net.cpp:410] icp6_out0 <- icp5_out_icp5_out_0_split_3
I0908 15:49:30.145467 25770 net.cpp:368] icp6_out0 -> icp6_out0
I0908 15:49:30.145481 25770 net.cpp:120] Setting up icp6_out0
I0908 15:49:30.146157 25770 net.cpp:127] Top shape: 24 112 14 14 (526848)
I0908 15:49:30.146175 25770 layer_factory.hpp:74] Creating layer relu_icp6_out0
I0908 15:49:30.146191 25770 net.cpp:90] Creating Layer relu_icp6_out0
I0908 15:49:30.146203 25770 net.cpp:410] relu_icp6_out0 <- icp6_out0
I0908 15:49:30.146215 25770 net.cpp:357] relu_icp6_out0 -> icp6_out0 (in-place)
I0908 15:49:30.146230 25770 net.cpp:120] Setting up relu_icp6_out0
I0908 15:49:30.146299 25770 net.cpp:127] Top shape: 24 112 14 14 (526848)
I0908 15:49:30.146311 25770 layer_factory.hpp:74] Creating layer icp6_out1
I0908 15:49:30.146327 25770 net.cpp:90] Creating Layer icp6_out1
I0908 15:49:30.146338 25770 net.cpp:410] icp6_out1 <- icp6_reduction1
I0908 15:49:30.146354 25770 net.cpp:368] icp6_out1 -> icp6_out1
I0908 15:49:30.146369 25770 net.cpp:120] Setting up icp6_out1
I0908 15:49:30.151069 25770 net.cpp:127] Top shape: 24 288 14 14 (1354752)
I0908 15:49:30.151090 25770 layer_factory.hpp:74] Creating layer relu_icp6_out1
I0908 15:49:30.151106 25770 net.cpp:90] Creating Layer relu_icp6_out1
I0908 15:49:30.151119 25770 net.cpp:410] relu_icp6_out1 <- icp6_out1
I0908 15:49:30.151132 25770 net.cpp:357] relu_icp6_out1 -> icp6_out1 (in-place)
I0908 15:49:30.151154 25770 net.cpp:120] Setting up relu_icp6_out1
I0908 15:49:30.151327 25770 net.cpp:127] Top shape: 24 288 14 14 (1354752)
I0908 15:49:30.151342 25770 layer_factory.hpp:74] Creating layer icp6_out2
I0908 15:49:30.151360 25770 net.cpp:90] Creating Layer icp6_out2
I0908 15:49:30.151371 25770 net.cpp:410] icp6_out2 <- icp6_reduction2
I0908 15:49:30.151386 25770 net.cpp:368] icp6_out2 -> icp6_out2
I0908 15:49:30.151402 25770 net.cpp:120] Setting up icp6_out2
I0908 15:49:30.152303 25770 net.cpp:127] Top shape: 24 64 14 14 (301056)
I0908 15:49:30.152322 25770 layer_factory.hpp:74] Creating layer relu_icp6_out2
I0908 15:49:30.152334 25770 net.cpp:90] Creating Layer relu_icp6_out2
I0908 15:49:30.152346 25770 net.cpp:410] relu_icp6_out2 <- icp6_out2
I0908 15:49:30.152359 25770 net.cpp:357] relu_icp6_out2 -> icp6_out2 (in-place)
I0908 15:49:30.152374 25770 net.cpp:120] Setting up relu_icp6_out2
I0908 15:49:30.152446 25770 net.cpp:127] Top shape: 24 64 14 14 (301056)
I0908 15:49:30.152457 25770 layer_factory.hpp:74] Creating layer icp6_out3
I0908 15:49:30.152472 25770 net.cpp:90] Creating Layer icp6_out3
I0908 15:49:30.152483 25770 net.cpp:410] icp6_out3 <- icp6_pool
I0908 15:49:30.152500 25770 net.cpp:368] icp6_out3 -> icp6_out3
I0908 15:49:30.152515 25770 net.cpp:120] Setting up icp6_out3
I0908 15:49:30.153028 25770 net.cpp:127] Top shape: 24 64 14 14 (301056)
I0908 15:49:30.153046 25770 layer_factory.hpp:74] Creating layer relu_icp6_out3
I0908 15:49:30.153059 25770 net.cpp:90] Creating Layer relu_icp6_out3
I0908 15:49:30.153071 25770 net.cpp:410] relu_icp6_out3 <- icp6_out3
I0908 15:49:30.153085 25770 net.cpp:357] relu_icp6_out3 -> icp6_out3 (in-place)
I0908 15:49:30.153100 25770 net.cpp:120] Setting up relu_icp6_out3
I0908 15:49:30.153168 25770 net.cpp:127] Top shape: 24 64 14 14 (301056)
I0908 15:49:30.153180 25770 layer_factory.hpp:74] Creating layer icp6_out
I0908 15:49:30.153194 25770 net.cpp:90] Creating Layer icp6_out
I0908 15:49:30.153205 25770 net.cpp:410] icp6_out <- icp6_out0
I0908 15:49:30.153218 25770 net.cpp:410] icp6_out <- icp6_out1
I0908 15:49:30.153229 25770 net.cpp:410] icp6_out <- icp6_out2
I0908 15:49:30.153241 25770 net.cpp:410] icp6_out <- icp6_out3
I0908 15:49:30.153256 25770 net.cpp:368] icp6_out -> icp6_out
I0908 15:49:30.153270 25770 net.cpp:120] Setting up icp6_out
I0908 15:49:30.153287 25770 net.cpp:127] Top shape: 24 528 14 14 (2483712)
I0908 15:49:30.153298 25770 layer_factory.hpp:74] Creating layer icp6_out_icp6_out_0_split
I0908 15:49:30.153311 25770 net.cpp:90] Creating Layer icp6_out_icp6_out_0_split
I0908 15:49:30.153321 25770 net.cpp:410] icp6_out_icp6_out_0_split <- icp6_out
I0908 15:49:30.153337 25770 net.cpp:368] icp6_out_icp6_out_0_split -> icp6_out_icp6_out_0_split_0
I0908 15:49:30.153352 25770 net.cpp:368] icp6_out_icp6_out_0_split -> icp6_out_icp6_out_0_split_1
I0908 15:49:30.153368 25770 net.cpp:368] icp6_out_icp6_out_0_split -> icp6_out_icp6_out_0_split_2
I0908 15:49:30.153384 25770 net.cpp:368] icp6_out_icp6_out_0_split -> icp6_out_icp6_out_0_split_3
I0908 15:49:30.153400 25770 net.cpp:368] icp6_out_icp6_out_0_split -> icp6_out_icp6_out_0_split_4
I0908 15:49:30.153415 25770 net.cpp:120] Setting up icp6_out_icp6_out_0_split
I0908 15:49:30.153431 25770 net.cpp:127] Top shape: 24 528 14 14 (2483712)
I0908 15:49:30.153444 25770 net.cpp:127] Top shape: 24 528 14 14 (2483712)
I0908 15:49:30.153455 25770 net.cpp:127] Top shape: 24 528 14 14 (2483712)
I0908 15:49:30.153467 25770 net.cpp:127] Top shape: 24 528 14 14 (2483712)
I0908 15:49:30.153478 25770 net.cpp:127] Top shape: 24 528 14 14 (2483712)
I0908 15:49:30.153488 25770 layer_factory.hpp:74] Creating layer cls2_pool
I0908 15:49:30.153504 25770 net.cpp:90] Creating Layer cls2_pool
I0908 15:49:30.153514 25770 net.cpp:410] cls2_pool <- icp6_out_icp6_out_0_split_0
I0908 15:49:30.153528 25770 net.cpp:368] cls2_pool -> cls2_pool
I0908 15:49:30.153542 25770 net.cpp:120] Setting up cls2_pool
I0908 15:49:30.153719 25770 net.cpp:127] Top shape: 24 528 4 4 (202752)
I0908 15:49:30.153731 25770 layer_factory.hpp:74] Creating layer cls2_reduction
I0908 15:49:30.153754 25770 net.cpp:90] Creating Layer cls2_reduction
I0908 15:49:30.153770 25770 net.cpp:410] cls2_reduction <- cls2_pool
I0908 15:49:30.153784 25770 net.cpp:368] cls2_reduction -> cls2_reduction
I0908 15:49:30.153801 25770 net.cpp:120] Setting up cls2_reduction
I0908 15:49:30.154541 25770 net.cpp:127] Top shape: 24 128 4 4 (49152)
I0908 15:49:30.154558 25770 layer_factory.hpp:74] Creating layer relu_cls2_reduction
I0908 15:49:30.154574 25770 net.cpp:90] Creating Layer relu_cls2_reduction
I0908 15:49:30.154585 25770 net.cpp:410] relu_cls2_reduction <- cls2_reduction
I0908 15:49:30.154598 25770 net.cpp:357] relu_cls2_reduction -> cls2_reduction (in-place)
I0908 15:49:30.154618 25770 net.cpp:120] Setting up relu_cls2_reduction
I0908 15:49:30.154686 25770 net.cpp:127] Top shape: 24 128 4 4 (49152)
I0908 15:49:30.154697 25770 layer_factory.hpp:74] Creating layer cls2_fc1
I0908 15:49:30.154716 25770 net.cpp:90] Creating Layer cls2_fc1
I0908 15:49:30.154726 25770 net.cpp:410] cls2_fc1 <- cls2_reduction
I0908 15:49:30.154739 25770 net.cpp:368] cls2_fc1 -> cls2_fc1
I0908 15:49:30.154757 25770 net.cpp:120] Setting up cls2_fc1
I0908 15:49:30.178782 25770 net.cpp:127] Top shape: 24 1024 (24576)
I0908 15:49:30.178819 25770 layer_factory.hpp:74] Creating layer relu_cls2_fc1
I0908 15:49:30.178838 25770 net.cpp:90] Creating Layer relu_cls2_fc1
I0908 15:49:30.178849 25770 net.cpp:410] relu_cls2_fc1 <- cls2_fc1
I0908 15:49:30.178870 25770 net.cpp:357] relu_cls2_fc1 -> cls2_fc1 (in-place)
I0908 15:49:30.178887 25770 net.cpp:120] Setting up relu_cls2_fc1
I0908 15:49:30.178998 25770 net.cpp:127] Top shape: 24 1024 (24576)
I0908 15:49:30.179009 25770 layer_factory.hpp:74] Creating layer cls2_drop
I0908 15:49:30.179026 25770 net.cpp:90] Creating Layer cls2_drop
I0908 15:49:30.179038 25770 net.cpp:410] cls2_drop <- cls2_fc1
I0908 15:49:30.179050 25770 net.cpp:357] cls2_drop -> cls2_fc1 (in-place)
I0908 15:49:30.179064 25770 net.cpp:120] Setting up cls2_drop
I0908 15:49:30.179081 25770 net.cpp:127] Top shape: 24 1024 (24576)
I0908 15:49:30.179091 25770 layer_factory.hpp:74] Creating layer cls2_fc2-t
I0908 15:49:30.179110 25770 net.cpp:90] Creating Layer cls2_fc2-t
I0908 15:49:30.179118 25770 net.cpp:410] cls2_fc2-t <- cls2_fc1
I0908 15:49:30.179131 25770 net.cpp:368] cls2_fc2-t -> cls2_fc2-t
I0908 15:49:30.179147 25770 net.cpp:120] Setting up cls2_fc2-t
I0908 15:49:30.180378 25770 net.cpp:127] Top shape: 24 100 (2400)
I0908 15:49:30.180395 25770 layer_factory.hpp:74] Creating layer cls2_fc2-t_cls2_fc2-t_0_split
I0908 15:49:30.180409 25770 net.cpp:90] Creating Layer cls2_fc2-t_cls2_fc2-t_0_split
I0908 15:49:30.180419 25770 net.cpp:410] cls2_fc2-t_cls2_fc2-t_0_split <- cls2_fc2-t
I0908 15:49:30.180435 25770 net.cpp:368] cls2_fc2-t_cls2_fc2-t_0_split -> cls2_fc2-t_cls2_fc2-t_0_split_0
I0908 15:49:30.180451 25770 net.cpp:368] cls2_fc2-t_cls2_fc2-t_0_split -> cls2_fc2-t_cls2_fc2-t_0_split_1
I0908 15:49:30.180467 25770 net.cpp:368] cls2_fc2-t_cls2_fc2-t_0_split -> cls2_fc2-t_cls2_fc2-t_0_split_2
I0908 15:49:30.180481 25770 net.cpp:120] Setting up cls2_fc2-t_cls2_fc2-t_0_split
I0908 15:49:30.180497 25770 net.cpp:127] Top shape: 24 100 (2400)
I0908 15:49:30.180510 25770 net.cpp:127] Top shape: 24 100 (2400)
I0908 15:49:30.180521 25770 net.cpp:127] Top shape: 24 100 (2400)
I0908 15:49:30.180531 25770 layer_factory.hpp:74] Creating layer loss2
I0908 15:49:30.180544 25770 net.cpp:90] Creating Layer loss2
I0908 15:49:30.180554 25770 net.cpp:410] loss2 <- cls2_fc2-t_cls2_fc2-t_0_split_0
I0908 15:49:30.180567 25770 net.cpp:410] loss2 <- label_data_1_split_3
I0908 15:49:30.180584 25770 net.cpp:368] loss2 -> loss2
I0908 15:49:30.180599 25770 net.cpp:120] Setting up loss2
…
I0908 15:49:30.180892 25770 net.cpp:368] accuracy2-5 -> accuracy2-5
I0908 15:49:30.180908 25770 net.cpp:120] Setting up accuracy2-5
I0908 15:49:30.180922 25770 net.cpp:127] Top shape: (1)
I0908 15:49:30.180933 25770 layer_factory.hpp:74] Creating layer icp7_reduction1
I0908 15:49:30.180949 25770 net.cpp:90] Creating Layer icp7_reduction1
I0908 15:49:30.180959 25770 net.cpp:410] icp7_reduction1 <- icp6_out_icp6_out_0_split_1
I0908 15:49:30.180976 25770 net.cpp:368] icp7_reduction1 -> icp7_reduction1
I0908 15:49:30.180991 25770 net.cpp:120] Setting up icp7_reduction1
I0908 15:49:30.181979 25770 net.cpp:127] Top shape: 24 160 14 14 (752640)
I0908 15:49:30.181998 25770 layer_factory.hpp:74] Creating layer relu_icp7_reduction1
I0908 15:49:30.182015 25770 net.cpp:90] Creating Layer relu_icp7_reduction1
I0908 15:49:30.182027 25770 net.cpp:410] relu_icp7_reduction1 <- icp7_reduction1
I0908 15:49:30.182040 25770 net.cpp:357] relu_icp7_reduction1 -> icp7_reduction1 (in-place)
I0908 15:49:30.182054 25770 net.cpp:120] Setting up relu_icp7_reduction1
I0908 15:49:30.182224 25770 net.cpp:127] Top shape: 24 160 14 14 (752640)
I0908 15:49:30.182237 25770 layer_factory.hpp:74] Creating layer icp7_reduction2
I0908 15:49:30.182268 25770 net.cpp:90] Creating Layer icp7_reduction2
I0908 15:49:30.182279 25770 net.cpp:410] icp7_reduction2 <- icp6_out_icp6_out_0_split_2
I0908 15:49:30.182294 25770 net.cpp:368] icp7_reduction2 -> icp7_reduction2
I0908 15:49:30.182310 25770 net.cpp:120] Setting up icp7_reduction2
I0908 15:49:30.182723 25770 net.cpp:127] Top shape: 24 32 14 14 (150528)
I0908 15:49:30.182742 25770 layer_factory.hpp:74] Creating layer relu_icp7_reduction2
I0908 15:49:30.182755 25770 net.cpp:90] Creating Layer relu_icp7_reduction2
I0908 15:49:30.182770 25770 net.cpp:410] relu_icp7_reduction2 <- icp7_reduction2
I0908 15:49:30.182782 25770 net.cpp:357] relu_icp7_reduction2 -> icp7_reduction2 (in-place)
I0908 15:49:30.182796 25770 net.cpp:120] Setting up relu_icp7_reduction2
I0908 15:49:30.182868 25770 net.cpp:127] Top shape: 24 32 14 14 (150528)
I0908 15:49:30.182881 25770 layer_factory.hpp:74] Creating layer icp7_pool
I0908 15:49:30.182893 25770 layer_factory.cpp:60] CUDNN does not support padding or multiple tops. Using Caffe's own pooling layer.
I0908 15:49:30.182905 25770 net.cpp:90] Creating Layer icp7_pool
I0908 15:49:30.182917 25770 net.cpp:410] icp7_pool <- icp6_out_icp6_out_0_split_3
I0908 15:49:30.182934 25770 net.cpp:368] icp7_pool -> icp7_pool
I0908 15:49:30.182948 25770 net.cpp:120] Setting up icp7_pool
I0908 15:49:30.182966 25770 net.cpp:127] Top shape: 24 528 14 14 (2483712)
I0908 15:49:30.182976 25770 layer_factory.hpp:74] Creating layer icp7_out0
I0908 15:49:30.182991 25770 net.cpp:90] Creating Layer icp7_out0
I0908 15:49:30.183001 25770 net.cpp:410] icp7_out0 <- icp6_out_icp6_out_0_split_4
I0908 15:49:30.183017 25770 net.cpp:368] icp7_out0 -> icp7_out0
I0908 15:49:30.183033 25770 net.cpp:120] Setting up icp7_out0
I0908 15:49:30.184219 25770 net.cpp:127] Top shape: 24 256 14 14 (1204224)
I0908 15:49:30.184237 25770 layer_factory.hpp:74] Creating layer relu_icp7_out0
I0908 15:49:30.184253 25770 net.cpp:90] Creating Layer relu_icp7_out0
I0908 15:49:30.184265 25770 net.cpp:410] relu_icp7_out0 <- icp7_out0
I0908 15:49:30.184278 25770 net.cpp:357] relu_icp7_out0 -> icp7_out0 (in-place)
I0908 15:49:30.184293 25770 net.cpp:120] Setting up relu_icp7_out0
I0908 15:49:30.184362 25770 net.cpp:127] Top shape: 24 256 14 14 (1204224)
I0908 15:49:30.184377 25770 layer_factory.hpp:74] Creating layer icp7_out1
I0908 15:49:30.184404 25770 net.cpp:90] Creating Layer icp7_out1
I0908 15:49:30.184415 25770 net.cpp:410] icp7_out1 <- icp7_reduction1
I0908 15:49:30.184432 25770 net.cpp:368] icp7_out1 -> icp7_out1
I0908 15:49:30.184449 25770 net.cpp:120] Setting up icp7_out1
I0908 15:49:30.190248 25770 net.cpp:127] Top shape: 24 320 14 14 (1505280)
I0908 15:49:30.190271 25770 layer_factory.hpp:74] Creating layer relu_icp7_out1
I0908 15:49:30.190285 25770 net.cpp:90] Creating Layer relu_icp7_out1
I0908 15:49:30.190296 25770 net.cpp:410] relu_icp7_out1 <- icp7_out1
I0908 15:49:30.190312 25770 net.cpp:357] relu_icp7_out1 -> icp7_out1 (in-place)
I0908 15:49:30.190328 25770 net.cpp:120] Setting up relu_icp7_out1
I0908 15:49:30.190393 25770 net.cpp:127] Top shape: 24 320 14 14 (1505280)
I0908 15:49:30.190405 25770 layer_factory.hpp:74] Creating layer icp7_out2
I0908 15:49:30.190420 25770 net.cpp:90] Creating Layer icp7_out2
I0908 15:49:30.190431 25770 net.cpp:410] icp7_out2 <- icp7_reduction2
I0908 15:49:30.190445 25770 net.cpp:368] icp7_out2 -> icp7_out2
I0908 15:49:30.190461 25770 net.cpp:120] Setting up icp7_out2
I0908 15:49:30.191969 25770 net.cpp:127] Top shape: 24 128 14 14 (602112)
I0908 15:49:30.191988 25770 layer_factory.hpp:74] Creating layer relu_icp7_out2
I0908 15:49:30.192001 25770 net.cpp:90] Creating Layer relu_icp7_out2
I0908 15:49:30.192013 25770 net.cpp:410] relu_icp7_out2 <- icp7_out2
I0908 15:49:30.192026 25770 net.cpp:357] relu_icp7_out2 -> icp7_out2 (in-place)
I0908 15:49:30.192040 25770 net.cpp:120] Setting up relu_icp7_out2
I0908 15:49:30.192214 25770 net.cpp:127] Top shape: 24 128 14 14 (602112)
I0908 15:49:30.192226 25770 layer_factory.hpp:74] Creating layer icp7_out3
I0908 15:49:30.192244 25770 net.cpp:90] Creating Layer icp7_out3
I0908 15:49:30.192255 25770 net.cpp:410] icp7_out3 <- icp7_pool
I0908 15:49:30.192270 25770 net.cpp:368] icp7_out3 -> icp7_out3
I0908 15:49:30.192286 25770 net.cpp:120] Setting up icp7_out3
I0908 15:49:30.193027 25770 net.cpp:127] Top shape: 24 128 14 14 (602112)
I0908 15:49:30.193044 25770 layer_factory.hpp:74] Creating layer relu_icp7_out3
I0908 15:49:30.193059 25770 net.cpp:90] Creating Layer relu_icp7_out3
I0908 15:49:30.193071 25770 net.cpp:410] relu_icp7_out3 <- icp7_out3
I0908 15:49:30.193084 25770 net.cpp:357] relu_icp7_out3 -> icp7_out3 (in-place)
I0908 15:49:30.193099 25770 net.cpp:120] Setting up relu_icp7_out3
I0908 15:49:30.193166 25770 net.cpp:127] Top shape: 24 128 14 14 (602112)
I0908 15:49:30.193178 25770 layer_factory.hpp:74] Creating layer icp7_out
I0908 15:49:30.193193 25770 net.cpp:90] Creating Layer icp7_out
I0908 15:49:30.193204 25770 net.cpp:410] icp7_out <- icp7_out0
I0908 15:49:30.193217 25770 net.cpp:410] icp7_out <- icp7_out1
I0908 15:49:30.193228 25770 net.cpp:410] icp7_out <- icp7_out2
I0908 15:49:30.193239 25770 net.cpp:410] icp7_out <- icp7_out3
I0908 15:49:30.193251 25770 net.cpp:368] icp7_out -> icp7_out
I0908 15:49:30.193266 25770 net.cpp:120] Setting up icp7_out
I0908 15:49:30.193284 25770 net.cpp:127] Top shape: 24 832 14 14 (3913728)
I0908 15:49:30.193294 25770 layer_factory.hpp:74] Creating layer icp8_in
I0908 15:49:30.193307 25770 net.cpp:90] Creating Layer icp8_in
I0908 15:49:30.193317 25770 net.cpp:410] icp8_in <- icp7_out
I0908 15:49:30.193332 25770 net.cpp:368] icp8_in -> icp8_in
I0908 15:49:30.193347 25770 net.cpp:120] Setting up icp8_in
I0908 15:49:30.193423 25770 net.cpp:127] Top shape: 24 832 7 7 (978432)
I0908 15:49:30.193434 25770 layer_factory.hpp:74] Creating layer icp8_in_icp8_in_0_split
I0908 15:49:30.193447 25770 net.cpp:90] Creating Layer icp8_in_icp8_in_0_split
I0908 15:49:30.193459 25770 net.cpp:410] icp8_in_icp8_in_0_split <- icp8_in
I0908 15:49:30.193473 25770 net.cpp:368] icp8_in_icp8_in_0_split -> icp8_in_icp8_in_0_split_0
I0908 15:49:30.193490 25770 net.cpp:368] icp8_in_icp8_in_0_split -> icp8_in_icp8_in_0_split_1
I0908 15:49:30.193506 25770 net.cpp:368] icp8_in_icp8_in_0_split -> icp8_in_icp8_in_0_split_2
I0908 15:49:30.193544 25770 net.cpp:368] icp8_in_icp8_in_0_split -> icp8_in_icp8_in_0_split_3
I0908 15:49:30.193565 25770 net.cpp:120] Setting up icp8_in_icp8_in_0_split
I0908 15:49:30.193583 25770 net.cpp:127] Top shape: 24 832 7 7 (978432)
I0908 15:49:30.193595 25770 net.cpp:127] Top shape: 24 832 7 7 (978432)
I0908 15:49:30.193610 25770 net.cpp:127] Top shape: 24 832 7 7 (978432)
I0908 15:49:30.193622 25770 net.cpp:127] Top shape: 24 832 7 7 (978432)
I0908 15:49:30.193631 25770 layer_factory.hpp:74] Creating layer icp8_reduction1
I0908 15:49:30.193647 25770 net.cpp:90] Creating Layer icp8_reduction1
I0908 15:49:30.193658 25770 net.cpp:410] icp8_reduction1 <- icp8_in_icp8_in_0_split_0
I0908 15:49:30.193672 25770 net.cpp:368] icp8_reduction1 -> icp8_reduction1
I0908 15:49:30.193688 25770 net.cpp:120] Setting up icp8_reduction1
I0908 15:49:30.194871 25770 net.cpp:127] Top shape: 24 160 7 7 (188160)
I0908 15:49:30.194891 25770 layer_factory.hpp:74] Creating layer relu_icp8_reduction1
I0908 15:49:30.194905 25770 net.cpp:90] Creating Layer relu_icp8_reduction1
I0908 15:49:30.194916 25770 net.cpp:410] relu_icp8_reduction1 <- icp8_reduction1
I0908 15:49:30.194931 25770 net.cpp:357] relu_icp8_reduction1 -> icp8_reduction1 (in-place)
I0908 15:49:30.194944 25770 net.cpp:120] Setting up relu_icp8_reduction1
I0908 15:49:30.195014 25770 net.cpp:127] Top shape: 24 160 7 7 (188160)
I0908 15:49:30.195026 25770 layer_factory.hpp:74] Creating layer icp8_reduction2
I0908 15:49:30.195040 25770 net.cpp:90] Creating Layer icp8_reduction2
I0908 15:49:30.195051 25770 net.cpp:410] icp8_reduction2 <- icp8_in_icp8_in_0_split_1
I0908 15:49:30.195068 25770 net.cpp:368] icp8_reduction2 -> icp8_reduction2
I0908 15:49:30.195085 25770 net.cpp:120] Setting up icp8_reduction2
I0908 15:49:30.195554 25770 net.cpp:127] Top shape: 24 32 7 7 (37632)
I0908 15:49:30.195572 25770 layer_factory.hpp:74] Creating layer relu_icp8_reduction2
I0908 15:49:30.195586 25770 net.cpp:90] Creating Layer relu_icp8_reduction2
I0908 15:49:30.195597 25770 net.cpp:410] relu_icp8_reduction2 <- icp8_reduction2
I0908 15:49:30.195610 25770 net.cpp:357] relu_icp8_reduction2 -> icp8_reduction2 (in-place)
I0908 15:49:30.195623 25770 net.cpp:120] Setting up relu_icp8_reduction2
I0908 15:49:30.195793 25770 net.cpp:127] Top shape: 24 32 7 7 (37632)
I0908 15:49:30.195806 25770 layer_factory.hpp:74] Creating layer icp8_pool
I0908 15:49:30.195817 25770 layer_factory.cpp:60] CUDNN does not support padding or multiple tops. Using Caffe's own pooling layer.
I0908 15:49:30.195829 25770 net.cpp:90] Creating Layer icp8_pool
I0908 15:49:30.195840 25770 net.cpp:410] icp8_pool <- icp8_in_icp8_in_0_split_2
I0908 15:49:30.195857 25770 net.cpp:368] icp8_pool -> icp8_pool
I0908 15:49:30.195870 25770 net.cpp:120] Setting up icp8_pool
I0908 15:49:30.195888 25770 net.cpp:127] Top shape: 24 832 7 7 (978432)
I0908 15:49:30.195899 25770 layer_factory.hpp:74] Creating layer icp8_out0
I0908 15:49:30.195914 25770 net.cpp:90] Creating Layer icp8_out0
I0908 15:49:30.195924 25770 net.cpp:410] icp8_out0 <- icp8_in_icp8_in_0_split_3
I0908 15:49:30.195940 25770 net.cpp:368] icp8_out0 -> icp8_out0
I0908 15:49:30.195955 25770 net.cpp:120] Setting up icp8_out0
I0908 15:49:30.197695 25770 net.cpp:127] Top shape: 24 256 7 7 (301056)
I0908 15:49:30.197712 25770 layer_factory.hpp:74] Creating layer relu_icp8_out0
I0908 15:49:30.197727 25770 net.cpp:90] Creating Layer relu_icp8_out0
I0908 15:49:30.197738 25770 net.cpp:410] relu_icp8_out0 <- icp8_out0
I0908 15:49:30.197751 25770 net.cpp:357] relu_icp8_out0 -> icp8_out0 (in-place)
I0908 15:49:30.197767 25770 net.cpp:120] Setting up relu_icp8_out0
I0908 15:49:30.197835 25770 net.cpp:127] Top shape: 24 256 7 7 (301056)
I0908 15:49:30.197847 25770 layer_factory.hpp:74] Creating layer icp8_out1
I0908 15:49:30.197861 25770 net.cpp:90] Creating Layer icp8_out1
I0908 15:49:30.197872 25770 net.cpp:410] icp8_out1 <- icp8_reduction1
I0908 15:49:30.197890 25770 net.cpp:368] icp8_out1 -> icp8_out1
I0908 15:49:30.197904 25770 net.cpp:120] Setting up icp8_out1
I0908 15:49:30.203655 25770 net.cpp:127] Top shape: 24 320 7 7 (376320)
I0908 15:49:30.203681 25770 layer_factory.hpp:74] Creating layer relu_icp8_out1
I0908 15:49:30.203711 25770 net.cpp:90] Creating Layer relu_icp8_out1
I0908 15:49:30.203723 25770 net.cpp:410] relu_icp8_out1 <- icp8_out1
I0908 15:49:30.203737 25770 net.cpp:357] relu_icp8_out1 -> icp8_out1 (in-place)
I0908 15:49:30.203752 25770 net.cpp:120] Setting up relu_icp8_out1
I0908 15:49:30.203821 25770 net.cpp:127] Top shape: 24 320 7 7 (376320)
I0908 15:49:30.203833 25770 layer_factory.hpp:74] Creating layer icp8_out2
I0908 15:49:30.203850 25770 net.cpp:90] Creating Layer icp8_out2
I0908 15:49:30.203861 25770 net.cpp:410] icp8_out2 <- icp8_reduction2
I0908 15:49:30.203878 25770 net.cpp:368] icp8_out2 -> icp8_out2
I0908 15:49:30.203893 25770 net.cpp:120] Setting up icp8_out2
I0908 15:49:30.205399 25770 net.cpp:127] Top shape: 24 128 7 7 (150528)
I0908 15:49:30.205416 25770 layer_factory.hpp:74] Creating layer relu_icp8_out2
I0908 15:49:30.205432 25770 net.cpp:90] Creating Layer relu_icp8_out2
I0908 15:49:30.205443 25770 net.cpp:410] relu_icp8_out2 <- icp8_out2
I0908 15:49:30.205456 25770 net.cpp:357] relu_icp8_out2 -> icp8_out2 (in-place)
I0908 15:49:30.205472 25770 net.cpp:120] Setting up relu_icp8_out2
I0908 15:49:30.205643 25770 net.cpp:127] Top shape: 24 128 7 7 (150528)
I0908 15:49:30.205657 25770 layer_factory.hpp:74] Creating layer icp8_out3
I0908 15:49:30.205672 25770 net.cpp:90] Creating Layer icp8_out3
I0908 15:49:30.205684 25770 net.cpp:410] icp8_out3 <- icp8_pool
I0908 15:49:30.205698 25770 net.cpp:368] icp8_out3 -> icp8_out3
I0908 15:49:30.205714 25770 net.cpp:120] Setting up icp8_out3
I0908 15:49:30.206734 25770 net.cpp:127] Top shape: 24 128 7 7 (150528)
I0908 15:49:30.206753 25770 layer_factory.hpp:74] Creating layer relu_icp8_out3
I0908 15:49:30.206770 25770 net.cpp:90] Creating Layer relu_icp8_out3
I0908 15:49:30.206781 25770 net.cpp:410] relu_icp8_out3 <- icp8_out3
I0908 15:49:30.206794 25770 net.cpp:357] relu_icp8_out3 -> icp8_out3 (in-place)
I0908 15:49:30.206809 25770 net.cpp:120] Setting up relu_icp8_out3
I0908 15:49:30.206879 25770 net.cpp:127] Top shape: 24 128 7 7 (150528)
I0908 15:49:30.206890 25770 layer_factory.hpp:74] Creating layer icp8_out
I0908 15:49:30.206904 25770 net.cpp:90] Creating Layer icp8_out
I0908 15:49:30.206914 25770 net.cpp:410] icp8_out <- icp8_out0
I0908 15:49:30.206925 25770 net.cpp:410] icp8_out <- icp8_out1
I0908 15:49:30.206938 25770 net.cpp:410] icp8_out <- icp8_out2
I0908 15:49:30.206948 25770 net.cpp:410] icp8_out <- icp8_out3
I0908 15:49:30.206961 25770 net.cpp:368] icp8_out -> icp8_out
I0908 15:49:30.206977 25770 net.cpp:120] Setting up icp8_out
I0908 15:49:30.206995 25770 net.cpp:127] Top shape: 24 832 7 7 (978432)
I0908 15:49:30.207005 25770 layer_factory.hpp:74] Creating layer icp8_out_icp8_out_0_split
I0908 15:49:30.207017 25770 net.cpp:90] Creating Layer icp8_out_icp8_out_0_split
I0908 15:49:30.207028 25770 net.cpp:410] icp8_out_icp8_out_0_split <- icp8_out
I0908 15:49:30.207043 25770 net.cpp:368] icp8_out_icp8_out_0_split -> icp8_out_icp8_out_0_split_0
I0908 15:49:30.207061 25770 net.cpp:368] icp8_out_icp8_out_0_split -> icp8_out_icp8_out_0_split_1
I0908 15:49:30.207077 25770 net.cpp:368] icp8_out_icp8_out_0_split -> icp8_out_icp8_out_0_split_2
I0908 15:49:30.207093 25770 net.cpp:368] icp8_out_icp8_out_0_split -> icp8_out_icp8_out_0_split_3
I0908 15:49:30.207106 25770 net.cpp:120] Setting up icp8_out_icp8_out_0_split
I0908 15:49:30.207125 25770 net.cpp:127] Top shape: 24 832 7 7 (978432)
I0908 15:49:30.207137 25770 net.cpp:127] Top shape: 24 832 7 7 (978432)
I0908 15:49:30.207149 25770 net.cpp:127] Top shape: 24 832 7 7 (978432)
I0908 15:49:30.207160 25770 net.cpp:127] Top shape: 24 832 7 7 (978432)
I0908 15:49:30.207170 25770 layer_factory.hpp:74] Creating layer icp9_reduction1
I0908 15:49:30.207185 25770 net.cpp:90] Creating Layer icp9_reduction1
I0908 15:49:30.207195 25770 net.cpp:410] icp9_reduction1 <- icp8_out_icp8_out_0_split_0
I0908 15:49:30.207212 25770 net.cpp:368] icp9_reduction1 -> icp9_reduction1
I0908 15:49:30.207227 25770 net.cpp:120] Setting up icp9_reduction1
I0908 15:49:30.208591 25770 net.cpp:127] Top shape: 24 192 7 7 (225792)
I0908 15:49:30.208617 25770 layer_factory.hpp:74] Creating layer relu_icp9_reduction1
I0908 15:49:30.208631 25770 net.cpp:90] Creating Layer relu_icp9_reduction1
I0908 15:49:30.208642 25770 net.cpp:410] relu_icp9_reduction1 <- icp9_reduction1
I0908 15:49:30.208655 25770 net.cpp:357] relu_icp9_reduction1 -> icp9_reduction1 (in-place)
I0908 15:49:30.208670 25770 net.cpp:120] Setting up relu_icp9_reduction1
I0908 15:49:30.208741 25770 net.cpp:127] Top shape: 24 192 7 7 (225792)
I0908 15:49:30.208753 25770 layer_factory.hpp:74] Creating layer icp9_reduction2
I0908 15:49:30.208768 25770 net.cpp:90] Creating Layer icp9_reduction2
I0908 15:49:30.208780 25770 net.cpp:410] icp9_reduction2 <- icp8_out_icp8_out_0_split_1
I0908 15:49:30.208796 25770 net.cpp:368] icp9_reduction2 -> icp9_reduction2
I0908 15:49:30.208811 25770 net.cpp:120] Setting up icp9_reduction2
I0908 15:49:30.209385 25770 net.cpp:127] Top shape: 24 48 7 7 (56448)
I0908 15:49:30.209403 25770 layer_factory.hpp:74] Creating layer relu_icp9_reduction2
I0908 15:49:30.209417 25770 net.cpp:90] Creating Layer relu_icp9_reduction2
I0908 15:49:30.209429 25770 net.cpp:410] relu_icp9_reduction2 <- icp9_reduction2
I0908 15:49:30.209444 25770 net.cpp:357] relu_icp9_reduction2 -> icp9_reduction2 (in-place)
I0908 15:49:30.209458 25770 net.cpp:120] Setting up relu_icp9_reduction2
I0908 15:49:30.209530 25770 net.cpp:127] Top shape: 24 48 7 7 (56448)
I0908 15:49:30.209542 25770 layer_factory.hpp:74] Creating layer icp9_pool
I0908 15:49:30.209553 25770 layer_factory.cpp:60] CUDNN does not support padding or multiple tops. Using Caffe's own pooling layer.
I0908 15:49:30.209564 25770 net.cpp:90] Creating Layer icp9_pool
I0908 15:49:30.209575 25770 net.cpp:410] icp9_pool <- icp8_out_icp8_out_0_split_2
I0908 15:49:30.209592 25770 net.cpp:368] icp9_pool -> icp9_pool
I0908 15:49:30.209607 25770 net.cpp:120] Setting up icp9_pool
I0908 15:49:30.209626 25770 net.cpp:127] Top shape: 24 832 7 7 (978432)
I0908 15:49:30.209636 25770 layer_factory.hpp:74] Creating layer icp9_out0
I0908 15:49:30.209651 25770 net.cpp:90] Creating Layer icp9_out0
I0908 15:49:30.209661 25770 net.cpp:410] icp9_out0 <- icp8_out_icp8_out_0_split_3
I0908 15:49:30.209677 25770 net.cpp:368] icp9_out0 -> icp9_out0
I0908 15:49:30.209692 25770 net.cpp:120] Setting up icp9_out0
I0908 15:49:30.212101 25770 net.cpp:127] Top shape: 24 384 7 7 (451584)
I0908 15:49:30.212121 25770 layer_factory.hpp:74] Creating layer relu_icp9_out0
I0908 15:49:30.212134 25770 net.cpp:90] Creating Layer relu_icp9_out0
I0908 15:49:30.212146 25770 net.cpp:410] relu_icp9_out0 <- icp9_out0
I0908 15:49:30.212158 25770 net.cpp:357] relu_icp9_out0 -> icp9_out0 (in-place)
I0908 15:49:30.212173 25770 net.cpp:120] Setting up relu_icp9_out0
I0908 15:49:30.212343 25770 net.cpp:127] Top shape: 24 384 7 7 (451584)
I0908 15:49:30.212355 25770 layer_factory.hpp:74] Creating layer icp9_out1
I0908 15:49:30.212373 25770 net.cpp:90] Creating Layer icp9_out1
I0908 15:49:30.212385 25770 net.cpp:410] icp9_out1 <- icp9_reduction1
I0908 15:49:30.212402 25770 net.cpp:368] icp9_out1 -> icp9_out1
I0908 15:49:30.212417 25770 net.cpp:120] Setting up icp9_out1
I0908 15:49:30.220644 25770 net.cpp:127] Top shape: 24 384 7 7 (451584)
I0908 15:49:30.220674 25770 layer_factory.hpp:74] Creating layer relu_icp9_out1
I0908 15:49:30.220690 25770 net.cpp:90] Creating Layer relu_icp9_out1
I0908 15:49:30.220701 25770 net.cpp:410] relu_icp9_out1 <- icp9_out1
I0908 15:49:30.220718 25770 net.cpp:357] relu_icp9_out1 -> icp9_out1 (in-place)
I0908 15:49:30.220737 25770 net.cpp:120] Setting up relu_icp9_out1
I0908 15:49:30.220809 25770 net.cpp:127] Top shape: 24 384 7 7 (451584)
I0908 15:49:30.220821 25770 layer_factory.hpp:74] Creating layer icp9_out2
I0908 15:49:30.220839 25770 net.cpp:90] Creating Layer icp9_out2
I0908 15:49:30.220854 25770 net.cpp:410] icp9_out2 <- icp9_reduction2
I0908 15:49:30.220870 25770 net.cpp:368] icp9_out2 -> icp9_out2
I0908 15:49:30.220886 25770 net.cpp:120] Setting up icp9_out2
I0908 15:49:30.223009 25770 net.cpp:127] Top shape: 24 128 7 7 (150528)
I0908 15:49:30.223037 25770 layer_factory.hpp:74] Creating layer relu_icp9_out2
I0908 15:49:30.223050 25770 net.cpp:90] Creating Layer relu_icp9_out2
I0908 15:49:30.223063 25770 net.cpp:410] relu_icp9_out2 <- icp9_out2
I0908 15:49:30.223079 25770 net.cpp:357] relu_icp9_out2 -> icp9_out2 (in-place)
I0908 15:49:30.223094 25770 net.cpp:120] Setting up relu_icp9_out2
I0908 15:49:30.223163 25770 net.cpp:127] Top shape: 24 128 7 7 (150528)
I0908 15:49:30.223175 25770 layer_factory.hpp:74] Creating layer icp9_out3
I0908 15:49:30.223191 25770 net.cpp:90] Creating Layer icp9_out3
I0908 15:49:30.223201 25770 net.cpp:410] icp9_out3 <- icp9_pool
I0908 15:49:30.223217 25770 net.cpp:368] icp9_out3 -> icp9_out3
I0908 15:49:30.223232 25770 net.cpp:120] Setting up icp9_out3
I0908 15:49:30.224242 25770 net.cpp:127] Top shape: 24 128 7 7 (150528)
I0908 15:49:30.224261 25770 layer_factory.hpp:74] Creating layer relu_icp9_out3
I0908 15:49:30.224277 25770 net.cpp:90] Creating Layer relu_icp9_out3
I0908 15:49:30.224290 25770 net.cpp:410] relu_icp9_out3 <- icp9_out3
I0908 15:49:30.224303 25770 net.cpp:357] relu_icp9_out3 -> icp9_out3 (in-place)
I0908 15:49:30.224318 25770 net.cpp:120] Setting up relu_icp9_out3
I0908 15:49:30.224385 25770 net.cpp:127] Top shape: 24 128 7 7 (150528)
I0908 15:49:30.224397 25770 layer_factory.hpp:74] Creating layer icp9_out
I0908 15:49:30.224411 25770 net.cpp:90] Creating Layer icp9_out
I0908 15:49:30.224422 25770 net.cpp:410] icp9_out <- icp9_out0
I0908 15:49:30.224434 25770 net.cpp:410] icp9_out <- icp9_out1
I0908 15:49:30.224447 25770 net.cpp:410] icp9_out <- icp9_out2
I0908 15:49:30.224458 25770 net.cpp:410] icp9_out <- icp9_out3
I0908 15:49:30.224472 25770 net.cpp:368] icp9_out -> icp9_out
I0908 15:49:30.224486 25770 net.cpp:120] Setting up icp9_out
I0908 15:49:30.224503 25770 net.cpp:127] Top shape: 24 1024 7 7 (1204224)
I0908 15:49:30.224514 25770 layer_factory.hpp:74] Creating layer cls3_pool
I0908 15:49:30.224531 25770 net.cpp:90] Creating Layer cls3_pool
I0908 15:49:30.224541 25770 net.cpp:410] cls3_pool <- icp9_out
I0908 15:49:30.224555 25770 net.cpp:368] cls3_pool -> cls3_pool
I0908 15:49:30.224570 25770 net.cpp:120] Setting up cls3_pool
I0908 15:49:30.224743 25770 net.cpp:127] Top shape: 24 1024 1 1 (24576)
I0908 15:49:30.224757 25770 layer_factory.hpp:74] Creating layer cls3_drop
I0908 15:49:30.224772 25770 net.cpp:90] Creating Layer cls3_drop
I0908 15:49:30.224782 25770 net.cpp:410] cls3_drop <- cls3_pool
I0908 15:49:30.224798 25770 net.cpp:357] cls3_drop -> cls3_pool (in-place)
I0908 15:49:30.224812 25770 net.cpp:120] Setting up cls3_drop
I0908 15:49:30.224829 25770 net.cpp:127] Top shape: 24 1024 1 1 (24576)
I0908 15:49:30.224839 25770 layer_factory.hpp:74] Creating layer cls3_fc-t
I0908 15:49:30.224854 25770 net.cpp:90] Creating Layer cls3_fc-t
I0908 15:49:30.224864 25770 net.cpp:410] cls3_fc-t <- cls3_pool
I0908 15:49:30.224881 25770 net.cpp:368] cls3_fc-t -> cls3_fc-t
I0908 15:49:30.224897 25770 net.cpp:120] Setting up cls3_fc-t
I0908 15:49:30.226130 25770 net.cpp:127] Top shape: 24 100 (2400)
I0908 15:49:30.226146 25770 layer_factory.hpp:74] Creating layer cls3_fc-t_cls3_fc-t_0_split
I0908 15:49:30.226164 25770 net.cpp:90] Creating Layer cls3_fc-t_cls3_fc-t_0_split
I0908 15:49:30.226174 25770 net.cpp:410] cls3_fc-t_cls3_fc-t_0_split <- cls3_fc-t
I0908 15:49:30.226187 25770 net.cpp:368] cls3_fc-t_cls3_fc-t_0_split -> cls3_fc-t_cls3_fc-t_0_split_0
I0908 15:49:30.226203 25770 net.cpp:368] cls3_fc-t_cls3_fc-t_0_split -> cls3_fc-t_cls3_fc-t_0_split_1
I0908 15:49:30.226219 25770 net.cpp:368] cls3_fc-t_cls3_fc-t_0_split -> cls3_fc-t_cls3_fc-t_0_split_2
I0908 15:49:30.226234 25770 net.cpp:120] Setting up cls3_fc-t_cls3_fc-t_0_split
I0908 15:49:30.226250 25770 net.cpp:127] Top shape: 24 100 (2400)
I0908 15:49:30.226263 25770 net.cpp:127] Top shape: 24 100 (2400)
I0908 15:49:30.226274 25770 net.cpp:127] Top shape: 24 100 (2400)
I0908 15:49:30.226284 25770 layer_factory.hpp:74] Creating layer loss3
I0908 15:49:30.226305 25770 net.cpp:90] Creating Layer loss3
I0908 15:49:30.226316 25770 net.cpp:410] loss3 <- cls3_fc-t_cls3_fc-t_0_split_0
I0908 15:49:30.226336 25770 net.cpp:410] loss3 <- label_data_1_split_6
I0908 15:49:30.226351 25770 net.cpp:368] loss3 -> loss3
I0908 15:49:30.226366 25770 net.cpp:120] Setting up loss3
…
