…
I0910 20:02:25.523406 11924 net.cpp:287] The NetState phase (0) differed from the phase (1) specified by a rule in layer accuracy/top5
I0910 20:02:25.523593 11924 net.cpp:42] Initializing net from parameters: 
name: "VGG_ILSVRC_16_layers_fc_reduced"
state {
  phase: TRAIN
}
layer {
  name: "data"
  type: "ImageData"
  top: "data"
  top: "label"
  include {
    phase: TRAIN
  }
  transform_param {
    mirror: true
    crop_size: 227
    mean_value: 104
    mean_value: 117
    mean_value: 123
  }
  image_data_param {
    source: "train_manifest"
    batch_size: 32
    new_height: 256
    new_width: 256
  }
}
layer {
  name: "conv1_1"
  type: "Convolution"
  bottom: "data"
  top: "conv1_1"
  param {
    lr_mult: 1
    decay_mult: 1
  }
  param {
    lr_mult: 2
    decay_mult: 0
  }
  convolution_param {
    num_output: 64
    pad: 1
    kernel_size: 3
  }
}
layer {
  name: "relu1_1"
  type: "ReLU"
  bottom: "conv1_1"
  top: "conv1_1"
}
layer {
  name: "conv1_2"
  type: "Convolution"
  bottom: "conv1_1"
  top: "conv1_2"
  param {
    lr_mult: 1
    decay_mult: 1
  }
  param {
    lr_mult: 2
    decay_mult: 0
  }
  convolution_param {
    num_output: 64
    pad: 1
    kernel_size: 3
  }
}
layer {
  name: "relu1_2"
  type: "ReLU"
  bottom: "conv1_2"
  top: "conv1_2"
}
layer {
  name: "pool1"
  type: "Pooling"
  bottom: "conv1_2"
  top: "pool1"
  pooling_param {
    pool: MAX
    kernel_size: 2
    stride: 2
  }
}
layer {
  name: "conv2_1"
  type: "Convolution"
  bottom: "pool1"
  top: "conv2_1"
  param {
    lr_mult: 1
    decay_mult: 1
  }
  param {
    lr_mult: 2
    decay_mult: 0
  }
  convolution_param {
    num_output: 128
    pad: 1
    kernel_size: 3
  }
}
layer {
  name: "relu2_1"
  type: "ReLU"
  bottom: "conv2_1"
  top: "conv2_1"
}
layer {
  name: "conv2_2"
  type: "Convolution"
  bottom: "conv2_1"
  top: "conv2_2"
  param {
    lr_mult: 1
    decay_mult: 1
  }
  param {
    lr_mult: 2
    decay_mult: 0
  }
  convolution_param {
    num_output: 128
    pad: 1
    kernel_size: 3
  }
}
layer {
  name: "relu2_2"
  type: "ReLU"
  bottom: "conv2_2"
  top: "conv2_2"
}
layer {
  name: "pool2"
  type: "Pooling"
  bottom: "conv2_2"
  top: "pool2"
  pooling_param {
    pool: MAX
    kernel_size: 2
    stride: 2
  }
}
layer {
  name: "conv3_1"
  type: "Convolution"
  bottom: "pool2"
  top: "conv3_1"
  param {
    lr_mult: 1
    decay_mult: 1
  }
  param {
    lr_mult: 2
    decay_mult: 0
  }
  convolution_param {
    num_output: 256
    pad: 1
    kernel_size: 3
  }
}
layer {
  name: "relu3_1"
  type: "ReLU"
  bottom: "conv3_1"
  top: "conv3_1"
}
layer {
  name: "conv3_2"
  type: "Convolution"
  bottom: "conv3_1"
  top: "conv3_2"
  param {
    lr_mult: 1
    decay_mult: 1
  }
  param {
    lr_mult: 2
    decay_mult: 0
  }
  convolution_param {
    num_output: 256
    pad: 1
    kernel_size: 3
  }
}
layer {
  name: "relu3_2"
  type: "ReLU"
  bottom: "conv3_2"
  top: "conv3_2"
}
layer {
  name: "conv3_3"
  type: "Convolution"
  bottom: "conv3_2"
  top: "conv3_3"
  param {
    lr_mult: 1
    decay_mult: 1
  }
  param {
    lr_mult: 2
    decay_mult: 0
  }
  convolution_param {
    num_output: 256
    pad: 1
    kernel_size: 3
  }
}
layer {
  name: "relu3_3"
  type: "ReLU"
  bottom: "conv3_3"
  top: "conv3_3"
}
layer {
  name: "pool3"
  type: "Pooling"
  bottom: "conv3_3"
  top: "pool3"
  pooling_param {
    pool: MAX
    kernel_size: 2
    stride: 2
  }
}
layer {
  name: "conv4_1"
  type: "Convolution"
  bottom: "pool3"
  top: "conv4_1"
  param {
    lr_mult: 1
    decay_mult: 1
  }
  param {
    lr_mult: 2
    decay_mult: 0
  }
  convolution_param {
    num_output: 512
    pad: 1
    kernel_size: 3
  }
}
layer {
  name: "relu4_1"
  type: "ReLU"
  bottom: "conv4_1"
  top: "conv4_1"
}
layer {
  name: "conv4_2"
  type: "Convolution"
  bottom: "conv4_1"
  top: "conv4_2"
  param {
    lr_mult: 1
    decay_mult: 1
  }
  param {
    lr_mult: 2
    decay_mult: 0
  }
  convolution_param {
    num_output: 512
    pad: 1
    kernel_size: 3
  }
}
layer {
  name: "relu4_2"
  type: "ReLU"
  bottom: "conv4_2"
  top: "conv4_2"
}
layer {
  name: "conv4_3"
  type: "Convolution"
  bottom: "conv4_2"
  top: "conv4_3"
  param {
    lr_mult: 1
    decay_mult: 1
  }
  param {
    lr_mult: 2
    decay_mult: 0
  }
  convolution_param {
    num_output: 512
    pad: 1
    kernel_size: 3
  }
}
layer {
  name: "relu4_3"
  type: "ReLU"
  bottom: "conv4_3"
  top: "conv4_3"
}
layer {
  name: "pool4"
  type: "Pooling"
  bottom: "conv4_3"
  top: "pool4"
  pooling_param {
    pool: MAX
    kernel_size: 2
    stride: 2
  }
}
layer {
  name: "conv5_1"
  type: "Convolution"
  bottom: "pool4"
  top: "conv5_1"
  param {
    lr_mult: 1
    decay_mult: 1
  }
  param {
    lr_mult: 2
    decay_mult: 0
  }
  convolution_param {
    num_output: 512
    pad: 1
    kernel_size: 3
  }
}
layer {
  name: "relu5_1"
  type: "ReLU"
  bottom: "conv5_1"
  top: "conv5_1"
}
layer {
  name: "conv5_2"
  type: "Convolution"
  bottom: "conv5_1"
  top: "conv5_2"
  param {
    lr_mult: 1
    decay_mult: 1
  }
  param {
    lr_mult: 2
    decay_mult: 0
  }
  convolution_param {
    num_output: 512
    pad: 1
    kernel_size: 3
  }
}
layer {
  name: "relu5_2"
  type: "ReLU"
  bottom: "conv5_2"
  top: "conv5_2"
}
layer {
  name: "conv5_3"
  type: "Convolution"
  bottom: "conv5_2"
  top: "conv5_3"
  param {
    lr_mult: 1
    decay_mult: 1
  }
  param {
    lr_mult: 2
    decay_mult: 0
  }
  convolution_param {
    num_output: 512
    pad: 1
    kernel_size: 3
  }
}
layer {
  name: "relu5_3"
  type: "ReLU"
  bottom: "conv5_3"
  top: "conv5_3"
}
layer {
  name: "pool5"
  type: "Pooling"
  bottom: "conv5_3"
  top: "pool5"
  pooling_param {
    pool: MAX
    kernel_size: 2
    stride: 2
  }
}
layer {
  name: "fc6"
  type: "Convolution"
  bottom: "pool5"
  top: "fc6"
  param {
    lr_mult: 1
    decay_mult: 1
  }
  param {
    lr_mult: 2
    decay_mult: 0
  }
  convolution_param {
    num_output: 1024
    kernel_size: 3
  }
}
layer {
  name: "relu6"
  type: "ReLU"
  bottom: "fc6"
  top: "fc6"
}
layer {
  name: "drop6"
  type: "Dropout"
  bottom: "fc6"
  top: "fc6"
  dropout_param {
    dropout_ratio: 0.5
  }
}
layer {
  name: "fc7"
  type: "Convolution"
  bottom: "fc6"
  top: "fc7"
  param {
    lr_mult: 1
    decay_mult: 1
  }
  param {
    lr_mult: 2
    decay_mult: 0
  }
  convolution_param {
    num_output: 1024
    kernel_size: 1
  }
}
layer {
  name: "relu7"
  type: "ReLU"
  bottom: "fc7"
  top: "fc7"
}
layer {
  name: "drop7"
  type: "Dropout"
  bottom: "fc7"
  top: "fc7"
  dropout_param {
    dropout_ratio: 0.5
  }
}
layer {
  name: "fc8-t"
  type: "Convolution"
  bottom: "fc7"
  top: "fc8-t"
  param {
    lr_mult: 10
    decay_mult: 1
  }
  param {
    lr_mult: 20
    decay_mult: 0
  }
  convolution_param {
    num_output: 100
    kernel_size: 1
  }
}
layer {
  name: "pool4-t"
  type: "Pooling"
  bottom: "fc8-t"
  top: "pool4-t"
  pooling_param {
    pool: AVE
    kernel_size: 6
    stride: 1
  }
}
layer {
  name: "loss"
  type: "SoftmaxWithLoss"
  bottom: "pool4-t"
  bottom: "label"
  top: "loss/loss"
}
I0910 20:02:25.523720 11924 layer_factory.hpp:74] Creating layer data
I0910 20:02:25.523743 11924 net.cpp:90] Creating Layer data
I0910 20:02:25.523751 11924 net.cpp:368] data -> data
I0910 20:02:25.523768 11924 net.cpp:368] data -> label
I0910 20:02:25.523779 11924 net.cpp:120] Setting up data
I0910 20:02:25.524122 11924 image_data_layer.cpp:36] Opening file train_manifest
I0910 20:02:25.532237 11924 image_data_layer.cpp:51] A total of 18611 images.
I0910 20:02:25.540077 11924 image_data_layer.cpp:74] output data size: 32,3,227,227
I0910 20:02:25.543179 11924 net.cpp:127] Top shape: 32 3 227 227 (4946784)
I0910 20:02:25.543210 11924 net.cpp:127] Top shape: 32 (32)
I0910 20:02:25.543220 11924 layer_factory.hpp:74] Creating layer conv1_1
I0910 20:02:25.543237 11924 net.cpp:90] Creating Layer conv1_1
I0910 20:02:25.543243 11924 net.cpp:410] conv1_1 <- data
I0910 20:02:25.543256 11924 net.cpp:368] conv1_1 -> conv1_1
I0910 20:02:25.543268 11924 net.cpp:120] Setting up conv1_1
I0910 20:02:26.327276 11924 net.cpp:127] Top shape: 32 64 227 227 (105531392)
I0910 20:02:26.327316 11924 layer_factory.hpp:74] Creating layer relu1_1
I0910 20:02:26.327329 11924 net.cpp:90] Creating Layer relu1_1
I0910 20:02:26.327335 11924 net.cpp:410] relu1_1 <- conv1_1
I0910 20:02:26.327343 11924 net.cpp:357] relu1_1 -> conv1_1 (in-place)
I0910 20:02:26.327352 11924 net.cpp:120] Setting up relu1_1
I0910 20:02:26.327400 11924 net.cpp:127] Top shape: 32 64 227 227 (105531392)
I0910 20:02:26.327407 11924 layer_factory.hpp:74] Creating layer conv1_2
I0910 20:02:26.327415 11924 net.cpp:90] Creating Layer conv1_2
I0910 20:02:26.327419 11924 net.cpp:410] conv1_2 <- conv1_1
I0910 20:02:26.327425 11924 net.cpp:368] conv1_2 -> conv1_2
I0910 20:02:26.327432 11924 net.cpp:120] Setting up conv1_2
I0910 20:02:26.327718 11924 net.cpp:127] Top shape: 32 64 227 227 (105531392)
I0910 20:02:26.327729 11924 layer_factory.hpp:74] Creating layer relu1_2
I0910 20:02:26.327738 11924 net.cpp:90] Creating Layer relu1_2
I0910 20:02:26.327741 11924 net.cpp:410] relu1_2 <- conv1_2
I0910 20:02:26.327746 11924 net.cpp:357] relu1_2 -> conv1_2 (in-place)
I0910 20:02:26.327752 11924 net.cpp:120] Setting up relu1_2
I0910 20:02:26.327888 11924 net.cpp:127] Top shape: 32 64 227 227 (105531392)
I0910 20:02:26.327895 11924 layer_factory.hpp:74] Creating layer pool1
I0910 20:02:26.327905 11924 net.cpp:90] Creating Layer pool1
I0910 20:02:26.327909 11924 net.cpp:410] pool1 <- conv1_2
I0910 20:02:26.327915 11924 net.cpp:368] pool1 -> pool1
I0910 20:02:26.327924 11924 net.cpp:120] Setting up pool1
I0910 20:02:26.327987 11924 net.cpp:127] Top shape: 32 64 114 114 (26615808)
I0910 20:02:26.327994 11924 layer_factory.hpp:74] Creating layer conv2_1
I0910 20:02:26.328001 11924 net.cpp:90] Creating Layer conv2_1
I0910 20:02:26.328006 11924 net.cpp:410] conv2_1 <- pool1
I0910 20:02:26.328011 11924 net.cpp:368] conv2_1 -> conv2_1
I0910 20:02:26.328017 11924 net.cpp:120] Setting up conv2_1
I0910 20:02:26.328317 11924 net.cpp:127] Top shape: 32 128 114 114 (53231616)
I0910 20:02:26.328330 11924 layer_factory.hpp:74] Creating layer relu2_1
I0910 20:02:26.328336 11924 net.cpp:90] Creating Layer relu2_1
I0910 20:02:26.328341 11924 net.cpp:410] relu2_1 <- conv2_1
I0910 20:02:26.328346 11924 net.cpp:357] relu2_1 -> conv2_1 (in-place)
I0910 20:02:26.328352 11924 net.cpp:120] Setting up relu2_1
I0910 20:02:26.328400 11924 net.cpp:127] Top shape: 32 128 114 114 (53231616)
I0910 20:02:26.328407 11924 layer_factory.hpp:74] Creating layer conv2_2
I0910 20:02:26.328414 11924 net.cpp:90] Creating Layer conv2_2
I0910 20:02:26.328418 11924 net.cpp:410] conv2_2 <- conv2_1
I0910 20:02:26.328424 11924 net.cpp:368] conv2_2 -> conv2_2
I0910 20:02:26.328431 11924 net.cpp:120] Setting up conv2_2
I0910 20:02:26.328778 11924 net.cpp:127] Top shape: 32 128 114 114 (53231616)
I0910 20:02:26.328789 11924 layer_factory.hpp:74] Creating layer relu2_2
I0910 20:02:26.328797 11924 net.cpp:90] Creating Layer relu2_2
I0910 20:02:26.328801 11924 net.cpp:410] relu2_2 <- conv2_2
I0910 20:02:26.328806 11924 net.cpp:357] relu2_2 -> conv2_2 (in-place)
I0910 20:02:26.328816 11924 net.cpp:120] Setting up relu2_2
I0910 20:02:26.328891 11924 net.cpp:127] Top shape: 32 128 114 114 (53231616)
I0910 20:02:26.328896 11924 layer_factory.hpp:74] Creating layer pool2
I0910 20:02:26.328903 11924 net.cpp:90] Creating Layer pool2
I0910 20:02:26.328907 11924 net.cpp:410] pool2 <- conv2_2
I0910 20:02:26.328912 11924 net.cpp:368] pool2 -> pool2
I0910 20:02:26.328919 11924 net.cpp:120] Setting up pool2
I0910 20:02:26.329059 11924 net.cpp:127] Top shape: 32 128 57 57 (13307904)
I0910 20:02:26.329068 11924 layer_factory.hpp:74] Creating layer conv3_1
I0910 20:02:26.329074 11924 net.cpp:90] Creating Layer conv3_1
I0910 20:02:26.329078 11924 net.cpp:410] conv3_1 <- pool2
I0910 20:02:26.329084 11924 net.cpp:368] conv3_1 -> conv3_1
I0910 20:02:26.329094 11924 net.cpp:120] Setting up conv3_1
I0910 20:02:26.329545 11924 net.cpp:127] Top shape: 32 256 57 57 (26615808)
I0910 20:02:26.329558 11924 layer_factory.hpp:74] Creating layer relu3_1
I0910 20:02:26.329565 11924 net.cpp:90] Creating Layer relu3_1
I0910 20:02:26.329568 11924 net.cpp:410] relu3_1 <- conv3_1
I0910 20:02:26.329574 11924 net.cpp:357] relu3_1 -> conv3_1 (in-place)
I0910 20:02:26.329579 11924 net.cpp:120] Setting up relu3_1
I0910 20:02:26.329627 11924 net.cpp:127] Top shape: 32 256 57 57 (26615808)
I0910 20:02:26.329632 11924 layer_factory.hpp:74] Creating layer conv3_2
I0910 20:02:26.329638 11924 net.cpp:90] Creating Layer conv3_2
I0910 20:02:26.329643 11924 net.cpp:410] conv3_2 <- conv3_1
I0910 20:02:26.329648 11924 net.cpp:368] conv3_2 -> conv3_2
I0910 20:02:26.329654 11924 net.cpp:120] Setting up conv3_2
I0910 20:02:26.330426 11924 net.cpp:127] Top shape: 32 256 57 57 (26615808)
I0910 20:02:26.330438 11924 layer_factory.hpp:74] Creating layer relu3_2
I0910 20:02:26.330446 11924 net.cpp:90] Creating Layer relu3_2
I0910 20:02:26.330449 11924 net.cpp:410] relu3_2 <- conv3_2
I0910 20:02:26.330454 11924 net.cpp:357] relu3_2 -> conv3_2 (in-place)
I0910 20:02:26.330461 11924 net.cpp:120] Setting up relu3_2
I0910 20:02:26.330505 11924 net.cpp:127] Top shape: 32 256 57 57 (26615808)
I0910 20:02:26.330512 11924 layer_factory.hpp:74] Creating layer conv3_3
I0910 20:02:26.330518 11924 net.cpp:90] Creating Layer conv3_3
I0910 20:02:26.330521 11924 net.cpp:410] conv3_3 <- conv3_2
I0910 20:02:26.330528 11924 net.cpp:368] conv3_3 -> conv3_3
I0910 20:02:26.330533 11924 net.cpp:120] Setting up conv3_3
I0910 20:02:26.331472 11924 net.cpp:127] Top shape: 32 256 57 57 (26615808)
I0910 20:02:26.331485 11924 layer_factory.hpp:74] Creating layer relu3_3
I0910 20:02:26.331492 11924 net.cpp:90] Creating Layer relu3_3
I0910 20:02:26.331497 11924 net.cpp:410] relu3_3 <- conv3_3
I0910 20:02:26.331502 11924 net.cpp:357] relu3_3 -> conv3_3 (in-place)
I0910 20:02:26.331508 11924 net.cpp:120] Setting up relu3_3
I0910 20:02:26.331555 11924 net.cpp:127] Top shape: 32 256 57 57 (26615808)
I0910 20:02:26.331562 11924 layer_factory.hpp:74] Creating layer pool3
I0910 20:02:26.331568 11924 net.cpp:90] Creating Layer pool3
I0910 20:02:26.331573 11924 net.cpp:410] pool3 <- conv3_3
I0910 20:02:26.331578 11924 net.cpp:368] pool3 -> pool3
I0910 20:02:26.331584 11924 net.cpp:120] Setting up pool3
I0910 20:02:26.331719 11924 net.cpp:127] Top shape: 32 256 29 29 (6889472)
I0910 20:02:26.331728 11924 layer_factory.hpp:74] Creating layer conv4_1
I0910 20:02:26.331734 11924 net.cpp:90] Creating Layer conv4_1
I0910 20:02:26.331738 11924 net.cpp:410] conv4_1 <- pool3
I0910 20:02:26.331744 11924 net.cpp:368] conv4_1 -> conv4_1
I0910 20:02:26.331751 11924 net.cpp:120] Setting up conv4_1
I0910 20:02:26.332957 11924 net.cpp:127] Top shape: 32 512 29 29 (13778944)
I0910 20:02:26.332969 11924 layer_factory.hpp:74] Creating layer relu4_1
I0910 20:02:26.332976 11924 net.cpp:90] Creating Layer relu4_1
I0910 20:02:26.332980 11924 net.cpp:410] relu4_1 <- conv4_1
I0910 20:02:26.332985 11924 net.cpp:357] relu4_1 -> conv4_1 (in-place)
I0910 20:02:26.332993 11924 net.cpp:120] Setting up relu4_1
I0910 20:02:26.333039 11924 net.cpp:127] Top shape: 32 512 29 29 (13778944)
I0910 20:02:26.333047 11924 layer_factory.hpp:74] Creating layer conv4_2
I0910 20:02:26.333070 11924 net.cpp:90] Creating Layer conv4_2
I0910 20:02:26.333073 11924 net.cpp:410] conv4_2 <- conv4_1
I0910 20:02:26.333080 11924 net.cpp:368] conv4_2 -> conv4_2
I0910 20:02:26.333086 11924 net.cpp:120] Setting up conv4_2
I0910 20:02:26.335654 11924 net.cpp:127] Top shape: 32 512 29 29 (13778944)
I0910 20:02:26.335685 11924 layer_factory.hpp:74] Creating layer relu4_2
I0910 20:02:26.335693 11924 net.cpp:90] Creating Layer relu4_2
I0910 20:02:26.335700 11924 net.cpp:410] relu4_2 <- conv4_2
I0910 20:02:26.335706 11924 net.cpp:357] relu4_2 -> conv4_2 (in-place)
I0910 20:02:26.335713 11924 net.cpp:120] Setting up relu4_2
I0910 20:02:26.335760 11924 net.cpp:127] Top shape: 32 512 29 29 (13778944)
I0910 20:02:26.335765 11924 layer_factory.hpp:74] Creating layer conv4_3
I0910 20:02:26.335772 11924 net.cpp:90] Creating Layer conv4_3
I0910 20:02:26.335777 11924 net.cpp:410] conv4_3 <- conv4_2
I0910 20:02:26.335783 11924 net.cpp:368] conv4_3 -> conv4_3
I0910 20:02:26.335789 11924 net.cpp:120] Setting up conv4_3
I0910 20:02:26.338193 11924 net.cpp:127] Top shape: 32 512 29 29 (13778944)
I0910 20:02:26.338227 11924 layer_factory.hpp:74] Creating layer relu4_3
I0910 20:02:26.338238 11924 net.cpp:90] Creating Layer relu4_3
I0910 20:02:26.338244 11924 net.cpp:410] relu4_3 <- conv4_3
I0910 20:02:26.338253 11924 net.cpp:357] relu4_3 -> conv4_3 (in-place)
I0910 20:02:26.338261 11924 net.cpp:120] Setting up relu4_3
I0910 20:02:26.338395 11924 net.cpp:127] Top shape: 32 512 29 29 (13778944)
I0910 20:02:26.338403 11924 layer_factory.hpp:74] Creating layer pool4
I0910 20:02:26.338412 11924 net.cpp:90] Creating Layer pool4
I0910 20:02:26.338417 11924 net.cpp:410] pool4 <- conv4_3
I0910 20:02:26.338423 11924 net.cpp:368] pool4 -> pool4
I0910 20:02:26.338429 11924 net.cpp:120] Setting up pool4
I0910 20:02:26.338480 11924 net.cpp:127] Top shape: 32 512 15 15 (3686400)
I0910 20:02:26.338486 11924 layer_factory.hpp:74] Creating layer conv5_1
I0910 20:02:26.338495 11924 net.cpp:90] Creating Layer conv5_1
I0910 20:02:26.338498 11924 net.cpp:410] conv5_1 <- pool4
I0910 20:02:26.338503 11924 net.cpp:368] conv5_1 -> conv5_1
I0910 20:02:26.338515 11924 net.cpp:120] Setting up conv5_1
I0910 20:02:26.341235 11924 net.cpp:127] Top shape: 32 512 15 15 (3686400)
I0910 20:02:26.341270 11924 layer_factory.hpp:74] Creating layer relu5_1
I0910 20:02:26.341281 11924 net.cpp:90] Creating Layer relu5_1
I0910 20:02:26.341287 11924 net.cpp:410] relu5_1 <- conv5_1
I0910 20:02:26.341295 11924 net.cpp:357] relu5_1 -> conv5_1 (in-place)
I0910 20:02:26.341303 11924 net.cpp:120] Setting up relu5_1
I0910 20:02:26.341351 11924 net.cpp:127] Top shape: 32 512 15 15 (3686400)
I0910 20:02:26.341356 11924 layer_factory.hpp:74] Creating layer conv5_2
I0910 20:02:26.341364 11924 net.cpp:90] Creating Layer conv5_2
I0910 20:02:26.341368 11924 net.cpp:410] conv5_2 <- conv5_1
I0910 20:02:26.341374 11924 net.cpp:368] conv5_2 -> conv5_2
I0910 20:02:26.341382 11924 net.cpp:120] Setting up conv5_2
I0910 20:02:26.343691 11924 net.cpp:127] Top shape: 32 512 15 15 (3686400)
I0910 20:02:26.343719 11924 layer_factory.hpp:74] Creating layer relu5_2
I0910 20:02:26.343727 11924 net.cpp:90] Creating Layer relu5_2
I0910 20:02:26.343734 11924 net.cpp:410] relu5_2 <- conv5_2
I0910 20:02:26.343739 11924 net.cpp:357] relu5_2 -> conv5_2 (in-place)
I0910 20:02:26.343747 11924 net.cpp:120] Setting up relu5_2
I0910 20:02:26.343796 11924 net.cpp:127] Top shape: 32 512 15 15 (3686400)
I0910 20:02:26.343801 11924 layer_factory.hpp:74] Creating layer conv5_3
I0910 20:02:26.343807 11924 net.cpp:90] Creating Layer conv5_3
I0910 20:02:26.343811 11924 net.cpp:410] conv5_3 <- conv5_2
I0910 20:02:26.343817 11924 net.cpp:368] conv5_3 -> conv5_3
I0910 20:02:26.343824 11924 net.cpp:120] Setting up conv5_3
I0910 20:02:26.346405 11924 net.cpp:127] Top shape: 32 512 15 15 (3686400)
I0910 20:02:26.346431 11924 layer_factory.hpp:74] Creating layer relu5_3
I0910 20:02:26.346441 11924 net.cpp:90] Creating Layer relu5_3
I0910 20:02:26.346452 11924 net.cpp:410] relu5_3 <- conv5_3
I0910 20:02:26.346480 11924 net.cpp:357] relu5_3 -> conv5_3 (in-place)
I0910 20:02:26.346489 11924 net.cpp:120] Setting up relu5_3
I0910 20:02:26.346626 11924 net.cpp:127] Top shape: 32 512 15 15 (3686400)
I0910 20:02:26.346634 11924 layer_factory.hpp:74] Creating layer pool5
I0910 20:02:26.346643 11924 net.cpp:90] Creating Layer pool5
I0910 20:02:26.346647 11924 net.cpp:410] pool5 <- conv5_3
I0910 20:02:26.346653 11924 net.cpp:368] pool5 -> pool5
I0910 20:02:26.346660 11924 net.cpp:120] Setting up pool5
I0910 20:02:26.346711 11924 net.cpp:127] Top shape: 32 512 8 8 (1048576)
I0910 20:02:26.346717 11924 layer_factory.hpp:74] Creating layer fc6
I0910 20:02:26.346729 11924 net.cpp:90] Creating Layer fc6
I0910 20:02:26.346732 11924 net.cpp:410] fc6 <- pool5
I0910 20:02:26.346739 11924 net.cpp:368] fc6 -> fc6
I0910 20:02:26.346745 11924 net.cpp:120] Setting up fc6
I0910 20:02:26.351109 11924 net.cpp:127] Top shape: 32 1024 6 6 (1179648)
I0910 20:02:26.351143 11924 layer_factory.hpp:74] Creating layer relu6
I0910 20:02:26.351155 11924 net.cpp:90] Creating Layer relu6
I0910 20:02:26.351161 11924 net.cpp:410] relu6 <- fc6
I0910 20:02:26.351168 11924 net.cpp:357] relu6 -> fc6 (in-place)
I0910 20:02:26.351176 11924 net.cpp:120] Setting up relu6
I0910 20:02:26.351224 11924 net.cpp:127] Top shape: 32 1024 6 6 (1179648)
I0910 20:02:26.351230 11924 layer_factory.hpp:74] Creating layer drop6
I0910 20:02:26.351238 11924 net.cpp:90] Creating Layer drop6
I0910 20:02:26.351241 11924 net.cpp:410] drop6 <- fc6
I0910 20:02:26.351246 11924 net.cpp:357] drop6 -> fc6 (in-place)
I0910 20:02:26.351253 11924 net.cpp:120] Setting up drop6
I0910 20:02:26.351263 11924 net.cpp:127] Top shape: 32 1024 6 6 (1179648)
I0910 20:02:26.351266 11924 layer_factory.hpp:74] Creating layer fc7
I0910 20:02:26.351274 11924 net.cpp:90] Creating Layer fc7
I0910 20:02:26.351277 11924 net.cpp:410] fc7 <- fc6
I0910 20:02:26.351282 11924 net.cpp:368] fc7 -> fc7
I0910 20:02:26.351290 11924 net.cpp:120] Setting up fc7
I0910 20:02:26.352589 11924 net.cpp:127] Top shape: 32 1024 6 6 (1179648)
I0910 20:02:26.352602 11924 layer_factory.hpp:74] Creating layer relu7
I0910 20:02:26.352607 11924 net.cpp:90] Creating Layer relu7
I0910 20:02:26.352612 11924 net.cpp:410] relu7 <- fc7
I0910 20:02:26.352617 11924 net.cpp:357] relu7 -> fc7 (in-place)
I0910 20:02:26.352623 11924 net.cpp:120] Setting up relu7
I0910 20:02:26.352669 11924 net.cpp:127] Top shape: 32 1024 6 6 (1179648)
I0910 20:02:26.352674 11924 layer_factory.hpp:74] Creating layer drop7
I0910 20:02:26.352680 11924 net.cpp:90] Creating Layer drop7
I0910 20:02:26.352684 11924 net.cpp:410] drop7 <- fc7
I0910 20:02:26.352690 11924 net.cpp:357] drop7 -> fc7 (in-place)
I0910 20:02:26.352695 11924 net.cpp:120] Setting up drop7
I0910 20:02:26.352701 11924 net.cpp:127] Top shape: 32 1024 6 6 (1179648)
I0910 20:02:26.352705 11924 layer_factory.hpp:74] Creating layer fc8-t
I0910 20:02:26.352711 11924 net.cpp:90] Creating Layer fc8-t
I0910 20:02:26.352715 11924 net.cpp:410] fc8-t <- fc7
I0910 20:02:26.352720 11924 net.cpp:368] fc8-t -> fc8-t
I0910 20:02:26.352727 11924 net.cpp:120] Setting up fc8-t
I0910 20:02:26.353037 11924 net.cpp:127] Top shape: 32 100 6 6 (115200)
I0910 20:02:26.353049 11924 layer_factory.hpp:74] Creating layer pool4-t
I0910 20:02:26.353057 11924 net.cpp:90] Creating Layer pool4-t
I0910 20:02:26.353061 11924 net.cpp:410] pool4-t <- fc8-t
I0910 20:02:26.353067 11924 net.cpp:368] pool4-t -> pool4-t
I0910 20:02:26.353073 11924 net.cpp:120] Setting up pool4-t
I0910 20:02:26.353211 11924 net.cpp:127] Top shape: 32 100 1 1 (3200)
I0910 20:02:26.353219 11924 layer_factory.hpp:74] Creating layer loss
I0910 20:02:26.353231 11924 net.cpp:90] Creating Layer loss
I0910 20:02:26.353236 11924 net.cpp:410] loss <- pool4-t
I0910 20:02:26.353241 11924 net.cpp:410] loss <- label
I0910 20:02:26.353248 11924 net.cpp:368] loss -> loss/loss
I0910 20:02:26.353255 11924 net.cpp:120] Setting up loss
I0910 20:02:26.353262 11924 layer_factory.hpp:74] Creating layer loss
…
I0910 20:02:26.355352 11924 net.cpp:287] The NetState phase (1) differed from the phase (0) specified by a rule in layer data
I0910 20:02:26.355569 11924 net.cpp:42] Initializing net from parameters: 
name: "VGG_ILSVRC_16_layers_fc_reduced"
state {
  phase: TEST
}
layer {
  name: "data"
  type: "ImageData"
  top: "data"
  top: "label"
  include {
    phase: TEST
  }
  transform_param {
    mirror: false
    crop_size: 227
    mean_value: 104
    mean_value: 117
    mean_value: 123
  }
  image_data_param {
    source: "test_manifest"
    batch_size: 18
    new_height: 256
    new_width: 256
  }
}
layer {
  name: "conv1_1"
  type: "Convolution"
  bottom: "data"
  top: "conv1_1"
  param {
    lr_mult: 1
    decay_mult: 1
  }
  param {
    lr_mult: 2
    decay_mult: 0
  }
  convolution_param {
    num_output: 64
    pad: 1
    kernel_size: 3
  }
}
layer {
  name: "relu1_1"
  type: "ReLU"
  bottom: "conv1_1"
  top: "conv1_1"
}
layer {
  name: "conv1_2"
  type: "Convolution"
  bottom: "conv1_1"
  top: "conv1_2"
  param {
    lr_mult: 1
    decay_mult: 1
  }
  param {
    lr_mult: 2
    decay_mult: 0
  }
  convolution_param {
    num_output: 64
    pad: 1
    kernel_size: 3
  }
}
layer {
  name: "relu1_2"
  type: "ReLU"
  bottom: "conv1_2"
  top: "conv1_2"
}
layer {
  name: "pool1"
  type: "Pooling"
  bottom: "conv1_2"
  top: "pool1"
  pooling_param {
    pool: MAX
    kernel_size: 2
    stride: 2
  }
}
layer {
  name: "conv2_1"
  type: "Convolution"
  bottom: "pool1"
  top: "conv2_1"
  param {
    lr_mult: 1
    decay_mult: 1
  }
  param {
    lr_mult: 2
    decay_mult: 0
  }
  convolution_param {
    num_output: 128
    pad: 1
    kernel_size: 3
  }
}
layer {
  name: "relu2_1"
  type: "ReLU"
  bottom: "conv2_1"
  top: "conv2_1"
}
layer {
  name: "conv2_2"
  type: "Convolution"
  bottom: "conv2_1"
  top: "conv2_2"
  param {
    lr_mult: 1
    decay_mult: 1
  }
  param {
    lr_mult: 2
    decay_mult: 0
  }
  convolution_param {
    num_output: 128
    pad: 1
    kernel_size: 3
  }
}
layer {
  name: "relu2_2"
  type: "ReLU"
  bottom: "conv2_2"
  top: "conv2_2"
}
layer {
  name: "pool2"
  type: "Pooling"
  bottom: "conv2_2"
  top: "pool2"
  pooling_param {
    pool: MAX
    kernel_size: 2
    stride: 2
  }
}
layer {
  name: "conv3_1"
  type: "Convolution"
  bottom: "pool2"
  top: "conv3_1"
  param {
    lr_mult: 1
    decay_mult: 1
  }
  param {
    lr_mult: 2
    decay_mult: 0
  }
  convolution_param {
    num_output: 256
    pad: 1
    kernel_size: 3
  }
}
layer {
  name: "relu3_1"
  type: "ReLU"
  bottom: "conv3_1"
  top: "conv3_1"
}
layer {
  name: "conv3_2"
  type: "Convolution"
  bottom: "conv3_1"
  top: "conv3_2"
  param {
    lr_mult: 1
    decay_mult: 1
  }
  param {
    lr_mult: 2
    decay_mult: 0
  }
  convolution_param {
    num_output: 256
    pad: 1
    kernel_size: 3
  }
}
layer {
  name: "relu3_2"
  type: "ReLU"
  bottom: "conv3_2"
  top: "conv3_2"
}
layer {
  name: "conv3_3"
  type: "Convolution"
  bottom: "conv3_2"
  top: "conv3_3"
  param {
    lr_mult: 1
    decay_mult: 1
  }
  param {
    lr_mult: 2
    decay_mult: 0
  }
  convolution_param {
    num_output: 256
    pad: 1
    kernel_size: 3
  }
}
layer {
  name: "relu3_3"
  type: "ReLU"
  bottom: "conv3_3"
  top: "conv3_3"
}
layer {
  name: "pool3"
  type: "Pooling"
  bottom: "conv3_3"
  top: "pool3"
  pooling_param {
    pool: MAX
    kernel_size: 2
    stride: 2
  }
}
layer {
  name: "conv4_1"
  type: "Convolution"
  bottom: "pool3"
  top: "conv4_1"
  param {
    lr_mult: 1
    decay_mult: 1
  }
  param {
    lr_mult: 2
    decay_mult: 0
  }
  convolution_param {
    num_output: 512
    pad: 1
    kernel_size: 3
  }
}
layer {
  name: "relu4_1"
  type: "ReLU"
  bottom: "conv4_1"
  top: "conv4_1"
}
layer {
  name: "conv4_2"
  type: "Convolution"
  bottom: "conv4_1"
  top: "conv4_2"
  param {
    lr_mult: 1
    decay_mult: 1
  }
  param {
    lr_mult: 2
    decay_mult: 0
  }
  convolution_param {
    num_output: 512
    pad: 1
    kernel_size: 3
  }
}
layer {
  name: "relu4_2"
  type: "ReLU"
  bottom: "conv4_2"
  top: "conv4_2"
}
layer {
  name: "conv4_3"
  type: "Convolution"
  bottom: "conv4_2"
  top: "conv4_3"
  param {
    lr_mult: 1
    decay_mult: 1
  }
  param {
    lr_mult: 2
    decay_mult: 0
  }
  convolution_param {
    num_output: 512
    pad: 1
    kernel_size: 3
  }
}
layer {
  name: "relu4_3"
  type: "ReLU"
  bottom: "conv4_3"
  top: "conv4_3"
}
layer {
  name: "pool4"
  type: "Pooling"
  bottom: "conv4_3"
  top: "pool4"
  pooling_param {
    pool: MAX
    kernel_size: 2
    stride: 2
  }
}
layer {
  name: "conv5_1"
  type: "Convolution"
  bottom: "pool4"
  top: "conv5_1"
  param {
    lr_mult: 1
    decay_mult: 1
  }
  param {
    lr_mult: 2
    decay_mult: 0
  }
  convolution_param {
    num_output: 512
    pad: 1
    kernel_size: 3
  }
}
layer {
  name: "relu5_1"
  type: "ReLU"
  bottom: "conv5_1"
  top: "conv5_1"
}
layer {
  name: "conv5_2"
  type: "Convolution"
  bottom: "conv5_1"
  top: "conv5_2"
  param {
    lr_mult: 1
    decay_mult: 1
  }
  param {
    lr_mult: 2
    decay_mult: 0
  }
  convolution_param {
    num_output: 512
    pad: 1
    kernel_size: 3
  }
}
layer {
  name: "relu5_2"
  type: "ReLU"
  bottom: "conv5_2"
  top: "conv5_2"
}
layer {
  name: "conv5_3"
  type: "Convolution"
  bottom: "conv5_2"
  top: "conv5_3"
  param {
    lr_mult: 1
    decay_mult: 1
  }
  param {
    lr_mult: 2
    decay_mult: 0
  }
  convolution_param {
    num_output: 512
    pad: 1
    kernel_size: 3
  }
}
layer {
  name: "relu5_3"
  type: "ReLU"
  bottom: "conv5_3"
  top: "conv5_3"
}
layer {
  name: "pool5"
  type: "Pooling"
  bottom: "conv5_3"
  top: "pool5"
  pooling_param {
    pool: MAX
    kernel_size: 2
    stride: 2
  }
}
layer {
  name: "fc6"
  type: "Convolution"
  bottom: "pool5"
  top: "fc6"
  param {
    lr_mult: 1
    decay_mult: 1
  }
  param {
    lr_mult: 2
    decay_mult: 0
  }
  convolution_param {
    num_output: 1024
    kernel_size: 3
  }
}
layer {
  name: "relu6"
  type: "ReLU"
  bottom: "fc6"
  top: "fc6"
}
layer {
  name: "drop6"
  type: "Dropout"
  bottom: "fc6"
  top: "fc6"
  dropout_param {
    dropout_ratio: 0.5
  }
}
layer {
  name: "fc7"
  type: "Convolution"
  bottom: "fc6"
  top: "fc7"
  param {
    lr_mult: 1
    decay_mult: 1
  }
  param {
    lr_mult: 2
    decay_mult: 0
  }
  convolution_param {
    num_output: 1024
    kernel_size: 1
  }
}
layer {
  name: "relu7"
  type: "ReLU"
  bottom: "fc7"
  top: "fc7"
}
layer {
  name: "drop7"
  type: "Dropout"
  bottom: "fc7"
  top: "fc7"
  dropout_param {
    dropout_ratio: 0.5
  }
}
layer {
  name: "fc8-t"
  type: "Convolution"
  bottom: "fc7"
  top: "fc8-t"
  param {
    lr_mult: 10
    decay_mult: 1
  }
  param {
    lr_mult: 20
    decay_mult: 0
  }
  convolution_param {
    num_output: 100
    kernel_size: 1
  }
}
layer {
  name: "pool4-t"
  type: "Pooling"
  bottom: "fc8-t"
  top: "pool4-t"
  pooling_param {
    pool: AVE
    kernel_size: 6
    stride: 1
  }
}
layer {
  name: "loss"
  type: "SoftmaxWithLoss"
  bottom: "pool4-t"
  bottom: "label"
  top: "loss/loss"
}
layer {
  name: "accuracy/top1"
  type: "Accuracy"
  bottom: "pool4-t"
  bottom: "label"
  top: "accuracy@1"
  include {
    phase: TEST
  }
  accuracy_param {
    top_k: 1
  }
}
layer {
  name: "accuracy/top5"
  type: "Accuracy"
  bottom: "pool4-t"
  bottom: "label"
  top: "accuracy@5"
  include {
    phase: TEST
  }
  accuracy_param {
    top_k: 5
  }
}
I0910 20:02:26.355716 11924 layer_factory.hpp:74] Creating layer data
I0910 20:02:26.355726 11924 net.cpp:90] Creating Layer data
I0910 20:02:26.355732 11924 net.cpp:368] data -> data
I0910 20:02:26.355741 11924 net.cpp:368] data -> label
I0910 20:02:26.355748 11924 net.cpp:120] Setting up data
I0910 20:02:26.355756 11924 image_data_layer.cpp:36] Opening file test_manifest
I0910 20:02:26.356731 11924 image_data_layer.cpp:51] A total of 1425 images.
I0910 20:02:26.360874 11924 image_data_layer.cpp:74] output data size: 18,3,227,227
I0910 20:02:26.362833 11924 net.cpp:127] Top shape: 18 3 227 227 (2782566)
I0910 20:02:26.362854 11924 net.cpp:127] Top shape: 18 (18)
I0910 20:02:26.362861 11924 layer_factory.hpp:74] Creating layer label_data_1_split
I0910 20:02:26.362874 11924 net.cpp:90] Creating Layer label_data_1_split
I0910 20:02:26.362879 11924 net.cpp:410] label_data_1_split <- label
I0910 20:02:26.362887 11924 net.cpp:368] label_data_1_split -> label_data_1_split_0
I0910 20:02:26.362920 11924 net.cpp:368] label_data_1_split -> label_data_1_split_1
I0910 20:02:26.362928 11924 net.cpp:368] label_data_1_split -> label_data_1_split_2
I0910 20:02:26.362934 11924 net.cpp:120] Setting up label_data_1_split
I0910 20:02:26.362943 11924 net.cpp:127] Top shape: 18 (18)
I0910 20:02:26.362947 11924 net.cpp:127] Top shape: 18 (18)
I0910 20:02:26.362952 11924 net.cpp:127] Top shape: 18 (18)
I0910 20:02:26.362956 11924 layer_factory.hpp:74] Creating layer conv1_1
I0910 20:02:26.362964 11924 net.cpp:90] Creating Layer conv1_1
I0910 20:02:26.362968 11924 net.cpp:410] conv1_1 <- data
I0910 20:02:26.362974 11924 net.cpp:368] conv1_1 -> conv1_1
I0910 20:02:26.362980 11924 net.cpp:120] Setting up conv1_1
I0910 20:02:26.363374 11924 net.cpp:127] Top shape: 18 64 227 227 (59361408)
I0910 20:02:26.363389 11924 layer_factory.hpp:74] Creating layer relu1_1
I0910 20:02:26.363395 11924 net.cpp:90] Creating Layer relu1_1
I0910 20:02:26.363399 11924 net.cpp:410] relu1_1 <- conv1_1
I0910 20:02:26.363405 11924 net.cpp:357] relu1_1 -> conv1_1 (in-place)
I0910 20:02:26.363411 11924 net.cpp:120] Setting up relu1_1
I0910 20:02:26.363459 11924 net.cpp:127] Top shape: 18 64 227 227 (59361408)
I0910 20:02:26.363466 11924 layer_factory.hpp:74] Creating layer conv1_2
I0910 20:02:26.363473 11924 net.cpp:90] Creating Layer conv1_2
I0910 20:02:26.363477 11924 net.cpp:410] conv1_2 <- conv1_1
I0910 20:02:26.363483 11924 net.cpp:368] conv1_2 -> conv1_2
I0910 20:02:26.363490 11924 net.cpp:120] Setting up conv1_2
I0910 20:02:26.363797 11924 net.cpp:127] Top shape: 18 64 227 227 (59361408)
I0910 20:02:26.363809 11924 layer_factory.hpp:74] Creating layer relu1_2
I0910 20:02:26.363816 11924 net.cpp:90] Creating Layer relu1_2
I0910 20:02:26.363821 11924 net.cpp:410] relu1_2 <- conv1_2
I0910 20:02:26.363826 11924 net.cpp:357] relu1_2 -> conv1_2 (in-place)
I0910 20:02:26.363831 11924 net.cpp:120] Setting up relu1_2
I0910 20:02:26.363879 11924 net.cpp:127] Top shape: 18 64 227 227 (59361408)
I0910 20:02:26.363885 11924 layer_factory.hpp:74] Creating layer pool1
I0910 20:02:26.363893 11924 net.cpp:90] Creating Layer pool1
I0910 20:02:26.363896 11924 net.cpp:410] pool1 <- conv1_2
I0910 20:02:26.363901 11924 net.cpp:368] pool1 -> pool1
I0910 20:02:26.363908 11924 net.cpp:120] Setting up pool1
I0910 20:02:26.364044 11924 net.cpp:127] Top shape: 18 64 114 114 (14971392)
I0910 20:02:26.364053 11924 layer_factory.hpp:74] Creating layer conv2_1
I0910 20:02:26.364059 11924 net.cpp:90] Creating Layer conv2_1
I0910 20:02:26.364063 11924 net.cpp:410] conv2_1 <- pool1
I0910 20:02:26.364069 11924 net.cpp:368] conv2_1 -> conv2_1
I0910 20:02:26.364076 11924 net.cpp:120] Setting up conv2_1
I0910 20:02:26.364393 11924 net.cpp:127] Top shape: 18 128 114 114 (29942784)
I0910 20:02:26.364405 11924 layer_factory.hpp:74] Creating layer relu2_1
I0910 20:02:26.364413 11924 net.cpp:90] Creating Layer relu2_1
I0910 20:02:26.364418 11924 net.cpp:410] relu2_1 <- conv2_1
I0910 20:02:26.364423 11924 net.cpp:357] relu2_1 -> conv2_1 (in-place)
I0910 20:02:26.364428 11924 net.cpp:120] Setting up relu2_1
I0910 20:02:26.364476 11924 net.cpp:127] Top shape: 18 128 114 114 (29942784)
I0910 20:02:26.364482 11924 layer_factory.hpp:74] Creating layer conv2_2
I0910 20:02:26.364488 11924 net.cpp:90] Creating Layer conv2_2
I0910 20:02:26.364492 11924 net.cpp:410] conv2_2 <- conv2_1
I0910 20:02:26.364497 11924 net.cpp:368] conv2_2 -> conv2_2
I0910 20:02:26.364503 11924 net.cpp:120] Setting up conv2_2
I0910 20:02:26.364930 11924 net.cpp:127] Top shape: 18 128 114 114 (29942784)
I0910 20:02:26.364941 11924 layer_factory.hpp:74] Creating layer relu2_2
I0910 20:02:26.364949 11924 net.cpp:90] Creating Layer relu2_2
I0910 20:02:26.364953 11924 net.cpp:410] relu2_2 <- conv2_2
I0910 20:02:26.364959 11924 net.cpp:357] relu2_2 -> conv2_2 (in-place)
I0910 20:02:26.364964 11924 net.cpp:120] Setting up relu2_2
I0910 20:02:26.365015 11924 net.cpp:127] Top shape: 18 128 114 114 (29942784)
I0910 20:02:26.365020 11924 layer_factory.hpp:74] Creating layer pool2
I0910 20:02:26.365031 11924 net.cpp:90] Creating Layer pool2
I0910 20:02:26.365046 11924 net.cpp:410] pool2 <- conv2_2
I0910 20:02:26.365051 11924 net.cpp:368] pool2 -> pool2
I0910 20:02:26.365057 11924 net.cpp:120] Setting up pool2
I0910 20:02:26.365200 11924 net.cpp:127] Top shape: 18 128 57 57 (7485696)
I0910 20:02:26.365208 11924 layer_factory.hpp:74] Creating layer conv3_1
I0910 20:02:26.365216 11924 net.cpp:90] Creating Layer conv3_1
I0910 20:02:26.365221 11924 net.cpp:410] conv3_1 <- pool2
I0910 20:02:26.365226 11924 net.cpp:368] conv3_1 -> conv3_1
I0910 20:02:26.365232 11924 net.cpp:120] Setting up conv3_1
I0910 20:02:26.365844 11924 net.cpp:127] Top shape: 18 256 57 57 (14971392)
I0910 20:02:26.365856 11924 layer_factory.hpp:74] Creating layer relu3_1
I0910 20:02:26.365862 11924 net.cpp:90] Creating Layer relu3_1
I0910 20:02:26.365867 11924 net.cpp:410] relu3_1 <- conv3_1
I0910 20:02:26.365875 11924 net.cpp:357] relu3_1 -> conv3_1 (in-place)
I0910 20:02:26.365880 11924 net.cpp:120] Setting up relu3_1
I0910 20:02:26.365931 11924 net.cpp:127] Top shape: 18 256 57 57 (14971392)
I0910 20:02:26.365937 11924 layer_factory.hpp:74] Creating layer conv3_2
I0910 20:02:26.365945 11924 net.cpp:90] Creating Layer conv3_2
I0910 20:02:26.365949 11924 net.cpp:410] conv3_2 <- conv3_1
I0910 20:02:26.365954 11924 net.cpp:368] conv3_2 -> conv3_2
I0910 20:02:26.365960 11924 net.cpp:120] Setting up conv3_2
I0910 20:02:26.366966 11924 net.cpp:127] Top shape: 18 256 57 57 (14971392)
I0910 20:02:26.366981 11924 layer_factory.hpp:74] Creating layer relu3_2
I0910 20:02:26.366987 11924 net.cpp:90] Creating Layer relu3_2
I0910 20:02:26.366992 11924 net.cpp:410] relu3_2 <- conv3_2
I0910 20:02:26.366997 11924 net.cpp:357] relu3_2 -> conv3_2 (in-place)
I0910 20:02:26.367004 11924 net.cpp:120] Setting up relu3_2
I0910 20:02:26.367055 11924 net.cpp:127] Top shape: 18 256 57 57 (14971392)
I0910 20:02:26.367061 11924 layer_factory.hpp:74] Creating layer conv3_3
I0910 20:02:26.367070 11924 net.cpp:90] Creating Layer conv3_3
I0910 20:02:26.367074 11924 net.cpp:410] conv3_3 <- conv3_2
I0910 20:02:26.367080 11924 net.cpp:368] conv3_3 -> conv3_3
I0910 20:02:26.367086 11924 net.cpp:120] Setting up conv3_3
I0910 20:02:26.367836 11924 net.cpp:127] Top shape: 18 256 57 57 (14971392)
I0910 20:02:26.367847 11924 layer_factory.hpp:74] Creating layer relu3_3
I0910 20:02:26.367856 11924 net.cpp:90] Creating Layer relu3_3
I0910 20:02:26.367859 11924 net.cpp:410] relu3_3 <- conv3_3
I0910 20:02:26.367866 11924 net.cpp:357] relu3_3 -> conv3_3 (in-place)
I0910 20:02:26.367872 11924 net.cpp:120] Setting up relu3_3
I0910 20:02:26.367925 11924 net.cpp:127] Top shape: 18 256 57 57 (14971392)
I0910 20:02:26.367931 11924 layer_factory.hpp:74] Creating layer pool3
I0910 20:02:26.367939 11924 net.cpp:90] Creating Layer pool3
I0910 20:02:26.367944 11924 net.cpp:410] pool3 <- conv3_3
I0910 20:02:26.367949 11924 net.cpp:368] pool3 -> pool3
I0910 20:02:26.367955 11924 net.cpp:120] Setting up pool3
I0910 20:02:26.368096 11924 net.cpp:127] Top shape: 18 256 29 29 (3875328)
I0910 20:02:26.368104 11924 layer_factory.hpp:74] Creating layer conv4_1
I0910 20:02:26.368110 11924 net.cpp:90] Creating Layer conv4_1
I0910 20:02:26.368114 11924 net.cpp:410] conv4_1 <- pool3
I0910 20:02:26.368122 11924 net.cpp:368] conv4_1 -> conv4_1
I0910 20:02:26.368129 11924 net.cpp:120] Setting up conv4_1
I0910 20:02:26.369662 11924 net.cpp:127] Top shape: 18 512 29 29 (7750656)
I0910 20:02:26.369680 11924 layer_factory.hpp:74] Creating layer relu4_1
I0910 20:02:26.369688 11924 net.cpp:90] Creating Layer relu4_1
I0910 20:02:26.369693 11924 net.cpp:410] relu4_1 <- conv4_1
I0910 20:02:26.369702 11924 net.cpp:357] relu4_1 -> conv4_1 (in-place)
I0910 20:02:26.369709 11924 net.cpp:120] Setting up relu4_1
I0910 20:02:26.369765 11924 net.cpp:127] Top shape: 18 512 29 29 (7750656)
I0910 20:02:26.369771 11924 layer_factory.hpp:74] Creating layer conv4_2
I0910 20:02:26.369777 11924 net.cpp:90] Creating Layer conv4_2
I0910 20:02:26.369781 11924 net.cpp:410] conv4_2 <- conv4_1
I0910 20:02:26.369788 11924 net.cpp:368] conv4_2 -> conv4_2
I0910 20:02:26.369799 11924 net.cpp:120] Setting up conv4_2
I0910 20:02:26.372222 11924 net.cpp:127] Top shape: 18 512 29 29 (7750656)
I0910 20:02:26.372252 11924 layer_factory.hpp:74] Creating layer relu4_2
I0910 20:02:26.372263 11924 net.cpp:90] Creating Layer relu4_2
I0910 20:02:26.372268 11924 net.cpp:410] relu4_2 <- conv4_2
I0910 20:02:26.372277 11924 net.cpp:357] relu4_2 -> conv4_2 (in-place)
I0910 20:02:26.372283 11924 net.cpp:120] Setting up relu4_2
I0910 20:02:26.372335 11924 net.cpp:127] Top shape: 18 512 29 29 (7750656)
I0910 20:02:26.372341 11924 layer_factory.hpp:74] Creating layer conv4_3
I0910 20:02:26.372349 11924 net.cpp:90] Creating Layer conv4_3
I0910 20:02:26.372354 11924 net.cpp:410] conv4_3 <- conv4_2
I0910 20:02:26.372359 11924 net.cpp:368] conv4_3 -> conv4_3
I0910 20:02:26.372367 11924 net.cpp:120] Setting up conv4_3
I0910 20:02:26.375011 11924 net.cpp:127] Top shape: 18 512 29 29 (7750656)
I0910 20:02:26.375036 11924 layer_factory.hpp:74] Creating layer relu4_3
I0910 20:02:26.375046 11924 net.cpp:90] Creating Layer relu4_3
I0910 20:02:26.375051 11924 net.cpp:410] relu4_3 <- conv4_3
I0910 20:02:26.375058 11924 net.cpp:357] relu4_3 -> conv4_3 (in-place)
I0910 20:02:26.375066 11924 net.cpp:120] Setting up relu4_3
I0910 20:02:26.375116 11924 net.cpp:127] Top shape: 18 512 29 29 (7750656)
I0910 20:02:26.375123 11924 layer_factory.hpp:74] Creating layer pool4
I0910 20:02:26.375130 11924 net.cpp:90] Creating Layer pool4
I0910 20:02:26.375134 11924 net.cpp:410] pool4 <- conv4_3
I0910 20:02:26.375140 11924 net.cpp:368] pool4 -> pool4
I0910 20:02:26.375147 11924 net.cpp:120] Setting up pool4
I0910 20:02:26.375294 11924 net.cpp:127] Top shape: 18 512 15 15 (2073600)
I0910 20:02:26.375303 11924 layer_factory.hpp:74] Creating layer conv5_1
I0910 20:02:26.375311 11924 net.cpp:90] Creating Layer conv5_1
I0910 20:02:26.375315 11924 net.cpp:410] conv5_1 <- pool4
I0910 20:02:26.375322 11924 net.cpp:368] conv5_1 -> conv5_1
I0910 20:02:26.375329 11924 net.cpp:120] Setting up conv5_1
I0910 20:02:26.377681 11924 net.cpp:127] Top shape: 18 512 15 15 (2073600)
I0910 20:02:26.377708 11924 layer_factory.hpp:74] Creating layer relu5_1
I0910 20:02:26.377718 11924 net.cpp:90] Creating Layer relu5_1
I0910 20:02:26.377724 11924 net.cpp:410] relu5_1 <- conv5_1
I0910 20:02:26.377732 11924 net.cpp:357] relu5_1 -> conv5_1 (in-place)
I0910 20:02:26.377738 11924 net.cpp:120] Setting up relu5_1
I0910 20:02:26.377795 11924 net.cpp:127] Top shape: 18 512 15 15 (2073600)
I0910 20:02:26.377801 11924 layer_factory.hpp:74] Creating layer conv5_2
I0910 20:02:26.377810 11924 net.cpp:90] Creating Layer conv5_2
I0910 20:02:26.377813 11924 net.cpp:410] conv5_2 <- conv5_1
I0910 20:02:26.377820 11924 net.cpp:368] conv5_2 -> conv5_2
I0910 20:02:26.377828 11924 net.cpp:120] Setting up conv5_2
I0910 20:02:26.380445 11924 net.cpp:127] Top shape: 18 512 15 15 (2073600)
I0910 20:02:26.380470 11924 layer_factory.hpp:74] Creating layer relu5_2
I0910 20:02:26.380480 11924 net.cpp:90] Creating Layer relu5_2
I0910 20:02:26.380486 11924 net.cpp:410] relu5_2 <- conv5_2
I0910 20:02:26.380492 11924 net.cpp:357] relu5_2 -> conv5_2 (in-place)
I0910 20:02:26.380501 11924 net.cpp:120] Setting up relu5_2
I0910 20:02:26.380554 11924 net.cpp:127] Top shape: 18 512 15 15 (2073600)
I0910 20:02:26.380561 11924 layer_factory.hpp:74] Creating layer conv5_3
I0910 20:02:26.380569 11924 net.cpp:90] Creating Layer conv5_3
I0910 20:02:26.380573 11924 net.cpp:410] conv5_3 <- conv5_2
I0910 20:02:26.380580 11924 net.cpp:368] conv5_3 -> conv5_3
I0910 20:02:26.380587 11924 net.cpp:120] Setting up conv5_3
I0910 20:02:26.382956 11924 net.cpp:127] Top shape: 18 512 15 15 (2073600)
I0910 20:02:26.382984 11924 layer_factory.hpp:74] Creating layer relu5_3
I0910 20:02:26.382993 11924 net.cpp:90] Creating Layer relu5_3
I0910 20:02:26.382999 11924 net.cpp:410] relu5_3 <- conv5_3
I0910 20:02:26.383007 11924 net.cpp:357] relu5_3 -> conv5_3 (in-place)
I0910 20:02:26.383014 11924 net.cpp:120] Setting up relu5_3
I0910 20:02:26.383066 11924 net.cpp:127] Top shape: 18 512 15 15 (2073600)
I0910 20:02:26.383076 11924 layer_factory.hpp:74] Creating layer pool5
I0910 20:02:26.383111 11924 net.cpp:90] Creating Layer pool5
I0910 20:02:26.383116 11924 net.cpp:410] pool5 <- conv5_3
I0910 20:02:26.383122 11924 net.cpp:368] pool5 -> pool5
I0910 20:02:26.383129 11924 net.cpp:120] Setting up pool5
I0910 20:02:26.383280 11924 net.cpp:127] Top shape: 18 512 8 8 (589824)
I0910 20:02:26.383287 11924 layer_factory.hpp:74] Creating layer fc6
I0910 20:02:26.383296 11924 net.cpp:90] Creating Layer fc6
I0910 20:02:26.383301 11924 net.cpp:410] fc6 <- pool5
I0910 20:02:26.383306 11924 net.cpp:368] fc6 -> fc6
I0910 20:02:26.383313 11924 net.cpp:120] Setting up fc6
I0910 20:02:26.387889 11924 net.cpp:127] Top shape: 18 1024 6 6 (663552)
I0910 20:02:26.387919 11924 layer_factory.hpp:74] Creating layer relu6
I0910 20:02:26.387933 11924 net.cpp:90] Creating Layer relu6
I0910 20:02:26.387939 11924 net.cpp:410] relu6 <- fc6
I0910 20:02:26.387946 11924 net.cpp:357] relu6 -> fc6 (in-place)
I0910 20:02:26.387955 11924 net.cpp:120] Setting up relu6
I0910 20:02:26.388010 11924 net.cpp:127] Top shape: 18 1024 6 6 (663552)
I0910 20:02:26.388015 11924 layer_factory.hpp:74] Creating layer drop6
I0910 20:02:26.388023 11924 net.cpp:90] Creating Layer drop6
I0910 20:02:26.388027 11924 net.cpp:410] drop6 <- fc6
I0910 20:02:26.388033 11924 net.cpp:357] drop6 -> fc6 (in-place)
I0910 20:02:26.388039 11924 net.cpp:120] Setting up drop6
I0910 20:02:26.388046 11924 net.cpp:127] Top shape: 18 1024 6 6 (663552)
I0910 20:02:26.388051 11924 layer_factory.hpp:74] Creating layer fc7
I0910 20:02:26.388057 11924 net.cpp:90] Creating Layer fc7
I0910 20:02:26.388061 11924 net.cpp:410] fc7 <- fc6
I0910 20:02:26.388068 11924 net.cpp:368] fc7 -> fc7
I0910 20:02:26.388077 11924 net.cpp:120] Setting up fc7
I0910 20:02:26.389422 11924 net.cpp:127] Top shape: 18 1024 6 6 (663552)
I0910 20:02:26.389436 11924 layer_factory.hpp:74] Creating layer relu7
I0910 20:02:26.389442 11924 net.cpp:90] Creating Layer relu7
I0910 20:02:26.389447 11924 net.cpp:410] relu7 <- fc7
I0910 20:02:26.389452 11924 net.cpp:357] relu7 -> fc7 (in-place)
I0910 20:02:26.389458 11924 net.cpp:120] Setting up relu7
I0910 20:02:26.389510 11924 net.cpp:127] Top shape: 18 1024 6 6 (663552)
I0910 20:02:26.389516 11924 layer_factory.hpp:74] Creating layer drop7
I0910 20:02:26.389523 11924 net.cpp:90] Creating Layer drop7
I0910 20:02:26.389526 11924 net.cpp:410] drop7 <- fc7
I0910 20:02:26.389531 11924 net.cpp:357] drop7 -> fc7 (in-place)
I0910 20:02:26.389536 11924 net.cpp:120] Setting up drop7
I0910 20:02:26.389544 11924 net.cpp:127] Top shape: 18 1024 6 6 (663552)
I0910 20:02:26.389546 11924 layer_factory.hpp:74] Creating layer fc8-t
I0910 20:02:26.389554 11924 net.cpp:90] Creating Layer fc8-t
I0910 20:02:26.389559 11924 net.cpp:410] fc8-t <- fc7
I0910 20:02:26.389565 11924 net.cpp:368] fc8-t -> fc8-t
I0910 20:02:26.389571 11924 net.cpp:120] Setting up fc8-t
I0910 20:02:26.389966 11924 net.cpp:127] Top shape: 18 100 6 6 (64800)
I0910 20:02:26.389976 11924 layer_factory.hpp:74] Creating layer pool4-t
I0910 20:02:26.389986 11924 net.cpp:90] Creating Layer pool4-t
I0910 20:02:26.389991 11924 net.cpp:410] pool4-t <- fc8-t
I0910 20:02:26.389997 11924 net.cpp:368] pool4-t -> pool4-t
I0910 20:02:26.390003 11924 net.cpp:120] Setting up pool4-t
I0910 20:02:26.390151 11924 net.cpp:127] Top shape: 18 100 1 1 (1800)
I0910 20:02:26.390159 11924 layer_factory.hpp:74] Creating layer pool4-t_pool4-t_0_split
I0910 20:02:26.390167 11924 net.cpp:90] Creating Layer pool4-t_pool4-t_0_split
I0910 20:02:26.390172 11924 net.cpp:410] pool4-t_pool4-t_0_split <- pool4-t
I0910 20:02:26.390177 11924 net.cpp:368] pool4-t_pool4-t_0_split -> pool4-t_pool4-t_0_split_0
I0910 20:02:26.390184 11924 net.cpp:368] pool4-t_pool4-t_0_split -> pool4-t_pool4-t_0_split_1
I0910 20:02:26.390192 11924 net.cpp:368] pool4-t_pool4-t_0_split -> pool4-t_pool4-t_0_split_2
I0910 20:02:26.390197 11924 net.cpp:120] Setting up pool4-t_pool4-t_0_split
I0910 20:02:26.390203 11924 net.cpp:127] Top shape: 18 100 1 1 (1800)
I0910 20:02:26.390213 11924 net.cpp:127] Top shape: 18 100 1 1 (1800)
I0910 20:02:26.390239 11924 net.cpp:127] Top shape: 18 100 1 1 (1800)
I0910 20:02:26.390243 11924 layer_factory.hpp:74] Creating layer loss
I0910 20:02:26.390250 11924 net.cpp:90] Creating Layer loss
I0910 20:02:26.390254 11924 net.cpp:410] loss <- pool4-t_pool4-t_0_split_0
I0910 20:02:26.390259 11924 net.cpp:410] loss <- label_data_1_split_0
I0910 20:02:26.390264 11924 net.cpp:368] loss -> loss/loss
I0910 20:02:26.390270 11924 net.cpp:120] Setting up loss
…
